experiment_pretrained/yin_yang_H30_WA/epoch_300/yin_yang_network.pt (torch, 9442 bytes, 6 tensors)

_delay_parameters f8 [4, 1]
00000000: 97ac a8b6 6d5f d1bf 3b10 7333 180e bf3f
00000010: a3b4 1bb9 62c5 393f ab49 875a f50c b83f
-0.27144949758321374 0.12130881553736199 0.00039323482734127997 0.0939477296845214

weights f8 [4, 30]
00000000: d8f5 b2fb 970e b1bf 1d7f 92b3 86ee e63f
00000010: 8e09 fa25 57ea 0440 8687 941d 122f efbf
00000020: a23a b801 f02d 0240 f21f f43b ff98 e4bf
00000030: fbb9 47eb 4f0d 0540 6191 afdf a3fc f73f
00000040: f216 77be 3252 f8bf cfab 741f dbcf f53f
00000050: ba07 dad5 84ca e03f 87bd cb45 90ea f2bf
00000060: c8f7 95f9 cd39 1240 7468 99fd e639 ed3f
00000070: 6809 9dc0 a23b e73f 0bd2 2786 d3ef e73f
00000080: b346 4c94 d84b f93f e1b0 d6db 49d1 0240
00000090: b09b 2d8e 0ded d6bf 2eef e735 dbfa f53f
000000a0: 1743 9389 8e2c e83f be50 03b5 5406 fc3f
000000b0: 5d2e e082 fe97 fa3f 175d 9ae4 1094 0540
000000c0: 1e0d 1d0e 6e64 fc3f f493 a1ac 6be7 fc3f
000000d0: c587 f36b d54f ce3f 4cde 02df 90a0 c9bf
000000e0: 5ff9 76e5 1ff6 0540 b7f3 2a8d 30b0 ef3f
000000f0: a0ec 9b19 9777 f13f 3d84 c46f 8450 e53f
00000100: 2fd1 1046 ac26 efbf 6c50 e3d2 4a06 fb3f
00000110: 10c2 7c82 b850 f63f 948e 715e 89aa f33f
00000120: 1335 e4e0 c3c8 fa3f 7e2d d248 a59b b6bf
00000130: 00ac 492c 34d9 fb3f 05f7 0d4a 7b1c e53f
00000140: 8490 68b8 f2a2 ed3f b6ee 3978 abfd ec3f
00000150: 3711 73e5 5f23 f1bf 3634 c4fc 6468 d93f
00000160: 9503 a1f0 bec5 e23f d3cd ea73 4e85 0040
00000170: b773 372e be8d 0040 4dda 71ca 645f e7bf
00000180: 3004 4e1d 45b9 edbf 49cc 0b09 c49f ee3f
00000190: e283 6c48 10fc ee3f 0c9f 94b0 47d4 0040
000001a0: f8a0 783c 2a44 e73f 83c2 2c15 3e17 d73f
000001b0: 5ee0 a665 7988 e73f 3569 e125 7039 de3f
000001c0: 73d1 ed43 07f8 f53f ce09 b5bd efa2 d6bf
000001d0: 9095 083c f788 f53f e4e4 9a66 11e0 fc3f
000001e0: d14a 519c 7759 d83f c2b6 c830 75a5 ee3f
000001f0: 26b5 c9bc 3214 cbbf 4faf 683b 15d4 d33f
00000200: 6adc 43a7 c268 efbf d81f f187 0675 f53f
00000210: 6aff 1ee0 5da5 eb3f 8427 cf80 bf29 acbf
00000220: b351 5f57 2bf3 e33f 4b49 5e92 db8b d63f
00000230: 81d3 a885 29f3 0040 6de0 52a5 f4e6 f43f
00000240: f1d3 df5b f927 f5bf 5f26 7ead f9d8 f33f
00000250: 249f f7a4 60dc f73f 8191 af74 09a5 e23f
00000260: 137c 2f5c 740e e8bf 7f0f 2812 c4a8 f0bf
00000270: 481c c84c 7d61 bd3f 9d70 60f8 574a c03f
00000280: 43a0 b4d8 bc8b e93f 13cf c0a9 fceb 0340
00000290: 6879 30d1 7a05 eb3f 0f1a f0b4 b6c1 e03f
000002a0: bad2 b597 be82 f63f 6211 e163 f584 e7bf
000002b0: 73b6 33ef c146 f63f fa21 9a07 e4b7 1140
000002c0: d4b2 1ef2 5637 0840 f6bc 2df5 3839 de3f
000002d0: 3f12 d2ca 73cf fb3f 1065 b9cc 9d36 dcbf
000002e0: c647 4845 e3be d33f 41bf 3595 273a fb3f
000002f0: ad90 74c3 4758 cdbf aa4a 1e3e 16cc e93f
00000300: d4ef c2a9 444c a8bf 6e26 5cf9 3251 fb3f
00000310: 5f00 980e 65ec fb3f ce7a 2230 79b3 ea3f
00000320: 8021 f097 3008 f9bf 5ef0 b304 4c59 f83f
00000330: c957 8c40 9301 e43f 0cf6 2160 3ee4 0240
00000340: db06 971d 1e6d debf 8454 32aa d530 eebf
00000350: b156 13d0 c178 0a40 3e05 b916 27bf f23f
00000360: 90df 6942 7cb3 fc3f 0494 0704 91cb c63f
00000370: 4859 c5b4 89b2 dcbf 4488 ea35 7e83 eabf
00000380: 66c9 2688 fb36 eabf 7ad9 9d76 f23a 0040
00000390: 8cb1 f1de 87db f63f 07d4 81a2 3268 e53f
000003a0: 1fdc ecf3 825e f23f 48ec b6d6 a57a febf
000003b0: e233 a701 8ca6 ec3f 314f b25e 1ab7 f23f
-0.06662893195149111 0.7166169650335835 2.6144240347795806 -0.9744959428537505 2.272430432734226 -0.6436763926476472 2.631500089765948 1.4991797197081598
-1.5200679245039592 1.3632460812320806 0.524721543959678 -1.1822664953614053 4.556449794557871 0.9133181527242997 0.7260297548275902 0.748025667212063
1.5810170929802723 2.3521916556256746 -0.3582185638865054 1.373744211740767 0.7554390608803229 1.7515456267183676 1.6621079552013704 2.697297845803074
1.77451901925162 1.8064991706280553 0.23681133051928618 -0.20021258248537988 2.745178024953176 0.9902575261290768 1.0916968345980322 0.6660787756883405
-0.9734708183737321 1.689036201268233 1.3947072121774262 1.2291349114611068 1.6740149292775797 -0.08831246402603729 1.7405282716742931 0.6597267576578082
0.9261411287047996 0.9059655521554848 -1.0711363757009857 0.39699673351498477 0.5866388988289254 2.065091043093824 2.0692103968308078 -0.7303947404860281
-0.928865964160769 0.9570026566201558 0.9682694830445338 2.103652362380563 0.7270709210470434 0.3607936102662636 0.7354094491374885 0.47225574206608495
1.3730538037753746 -0.3536948540314854 1.3459389061984872 1.8047040946969952 0.3804606462992242 0.9576974823773627 -0.21155389993820356 0.3098195152440341
-0.981538130464185 1.3410706815939104 0.8639363648762644 -0.05500601241472139 0.6234337526789687 0.3522862367036807 2.1187315408846534 1.3063856561621165
-1.3222592915383269 1.2404724862157293 1.491303104785353 0.5826461104411892 -0.7517644691942017 -1.0412026128041985 0.11476882099678776 0.12726878764886332
0.7983078224688217 2.4902280103650667 0.8444189153413335 0.5236466916983903 1.4069200445348273 -0.734980292393214 1.3922747939899665 4.429580801756396
3.0270213046663716 0.4722425836871048 1.7381475374869664 -0.44083352081868643 0.30852586522916814 1.7016979053987173 -0.22925660175053988 0.8061629498718805
-0.04745688030513376 1.7073240032790653 1.7452135629719334 0.8344083728914826 -1.5644994673803865 1.5218010123926642 0.6251922856051745 2.3614470968593704
-0.47541001214640993 -0.9434612583305726 3.3089634185697254 1.1716681373221287 1.7938196749000532 0.17808735558278965 -0.44839708951385093 -0.8285513928460735
-0.8192117366036598 2.0287827746316767 1.428596373439265 0.668969457051049 1.1480741051034398 -1.9049433123862105 0.8953304321563531 1.169702882679257

threshold_noise_fp f8 [30]
00000000: 0000 0000 0000 0000 0000 0000 0000 0000
00000010: 0000 0000 0000 0000 0000 0000 0000 0000
00000020: 0000 0000 0000 0000 0000 0000 0000 0000
00000030: 0000 0000 0000 0000 0000 0000 0000 0000
00000040: 0000 0000 0000 0000 0000 0000 0000 0000
00000050: 0000 0000 0000 0000 0000 0000 0000 0000
00000060: 0000 0000 0000 0000 0000 0000 0000 0000
00000070: 0000 0000 0000 0000 0000 0000 0000 0000
00000080: 0000 0000 0000 0000 0000 0000 0000 0000
00000090: 0000 0000 0000 0000 0000 0000 0000 0000
000000a0: 0000 0000 0000 0000 0000 0000 0000 0000
000000b0: 0000 0000 0000 0000 0000 0000 0000 0000
000000c0: 0000 0000 0000 0000 0000 0000 0000 0000
000000d0: 0000 0000 0000 0000 0000 0000 0000 0000
000000e0: 0000 0000 0000 0000 0000 0000 0000 0000
0.0 0.0 0.0 0.0 0.0 0.0 0.0 0.0
0.0 0.0 0.0 0.0 0.0 0.0 0.0 0.0
0.0 0.0 0.0 0.0 0.0 0.0 0.0 0.0
0.0 0.0 0.0 0.0 0.0 0.0

_delay_parameters f8 [30, 1]
00000000: 72c6 da56 5152 bcbf d0e4 bbd2 7816 c3bf
00000010: 8622 3da9 f30e de3f a225 3a43 dccf c23f
00000020: a5dc cd06 5700 de3f 79d3 3fdf 7d9c d53f
00000030: 6ec6 a30a 2515 d8bf cb74 917e 8696 f53f
00000040: df7e 6c96 575d d33f e58c 3106 e2a6 01c0
00000050: 142d fab7 ba78 f5bf 22a4 8711 f040 f0bf
00000060: f539 6556 b893 d7bf 40ca ddc1 c81e 8f3f
00000070: 6fd7 b51e f1c6 cbbf 0d6b 56ea 37fd f03f
00000080: 1bf9 6e04 f923 f13f c1ea 18b7 cd67 f1bf
00000090: c16f 983f 5dfa b33f c74b 4e9a ead8 d6bf
000000a0: 960c 4a8a d1a4 d03f 2baf bf5b 9897 e73f
000000b0: ff0e da60 a28a e7bf 11c7 4491 3495 f13f
000000c0: 5398 3f04 8f29 f13f b052 12d2 5dc1 b5bf
000000d0: 40ba e589 b735 ca3f 5703 5fa2 16e8 e6bf
000000e0: c7ef 56b3 d34e f53f 219f 9d5f 0379 f9bf
-0.11063106890176203 -0.14912328996414326 0.4696625855181441 0.1469683960206512 0.4687707487532385 0.3376764946145197 -0.3762905696777129 1.3492493576116427
0.3025721520407227 -2.2064857944366048 -1.3419749437915174 -1.015853947139711 -0.3683911174493056 0.015195434967357646 -0.2170087242081382 1.061820903187882
1.071282403295817 -1.087842669700578 0.07803900530455989 -0.35698952740602546 0.2600597238999368 0.7372552673309419 -0.7356731311451482 1.0989270853573923
1.0726461568788366 -0.08498178843212645 0.2047643111540811 -0.7158311053573055 1.3317448621228196 -1.5920442328442237

weights f8 [30, 3]
00000000: 9799 80d5 42b3 0840 f6de 4197 276b 11c0
00000010: d1ac d504 5fbd 0040 1dec 917d 20cc f03f
00000020: 9295 36dd af52 e53f 9c69 f457 b42a ca3f
00000030: ce4b 0a9b 7ce6 c13f df8c 1f05 bf51 d03f
00000040: c245 2777 6f7f e53f d167 10b9 aaef d13f
00000050: 58cb 16cc feee 0340 ffc6 3936 eacc 1c40
00000060: 6ea1 7dd3 3c68 fb3f df02 c5bd b200 f63f
00000070: f5a2 53eb 041f 0040 f8ee 345b 3e7c 0540
00000080: a39d 8fab d99d 1140 b9a0 a89b 355f 1240
00000090: 4a71 c4d1 db6a 0140 75e1 6bdb c5e2 9d3f
000000a0: d993 9c30 19f5 a7bf a779 e516 e0e1 2340
000000b0: 54a0 270c 79ff 0140 ee21 2ccd e2d1 2840
000000c0: 199b 21f0 c5ea de3f 6d0d 947c d155 1340
000000d0: 0e53 558d ec9d e63f a8c6 1bc1 de6c f6bf
000000e0: e0a0 7301 c67b 0240 b839 93da dcd1 f0bf
000000f0: 8f5e a67e 4d7e da3f 3860 8b57 e427 f1bf
00000100: 50e4 9230 fcd6 a03f 8113 a764 8110 d03f
00000110: af00 b038 aed4 d9bf 1699 297f 9f78 fe3f
00000120: 671e a184 abab fcbf bf76 7d3e 2161 f03f
00000130: 46d7 f425 10b3 ec3f 58b6 4c41 a86d 0740
00000140: ef78 a894 aa09 f13f 51e2 e365 064a f3bf
00000150: e3f2 1ccc b48a 02c0 04eb e8a2 8ecb 1340
00000160: 4579 9b21 9e15 2840 bd82 1107 d3c8 0340
00000170: 215b 2c5d 68d9 2340 dfc9 5059 2fa1 1640
00000180: 8d4f d397 dbee f8bf 2c70 3ed4 ce7b f23f
00000190: fc90 47d4 064c c03f 2d41 1550 a971 ef3f
000001a0: e1e2 935f c759 ea3f 8038 a567 d76a f83f
000001b0: 8e4f 5813 ccd0 f53f 7276 558c 669b f93f
000001c0: 6333 17ce 9796 f13f b78c 56ee e4d0 02c0
000001d0: d291 65cb e3d8 a93f 1858 2ec1 d468 fc3f
000001e0: f5bb 8faa 7759 ec3f 4c3c 86cf 55e8 fc3f
000001f0: 49b7 64ae 541c e1bf df89 3cf7 6b2a f63f
00000200: 96ba 79ef 086d d93f 5f7d 667c 08ba f6bf
00000210: c340 76a5 550d da3f d1e8 ba14 d680 f03f
00000220: 88c3 7e99 aaac e2bf ff7d 4f48 5619 f03f
00000230: e80c 4d26 2738 ee3f 11f5 7638 82ee fdbf
00000240: 8354 c201 b95f f1bf 9a62 1ab3 a8ea 0540
00000250: e7c1 926e efc4 1140 2f8d fb37 2ba1 e53f
00000260: ac15 a38c 012a 13c0 caf2 f892 0313 0140
00000270: 2975 b236 f44b 04c0 5be5 51bd 1c10 e3bf
00000280: 7a05 639c 2369 f5bf 79fb c8b0 cd2d e83f
00000290: 122d 18cc f3ca fa3f 1d7e 7e4f cf88 f53f
000002a0: 5c39 6f23 1c93 c6bf 30bc d347 c402 e73f
000002b0: e425 8432 f985 02c0 c790 4662 886c fb3f
000002c0: 353a ed2f cd03 f3bf 796a eee3 52c1 0140
3.087529819476184 -4.354643214602893 2.0924663903912024 1.0498356728628615 0.6663436241694163 0.20442823691048495 0.13984639711688235 0.2549893903762505
0.6718060805525783 0.28025310585655655 2.491696924634578 7.200112197185944 1.712948633323403 1.3751704609750772 2.0151461014651155 2.6856658101586355
4.404150658264743 4.592977935950494 2.177177084739161 0.029185382382793407 -0.04679182737735461 9.941162791740522 2.249742598494814 12.409933482777856
0.4830794186622583 4.83380694059029 0.7067778358856189 -1.4015796225834638 2.3104362595951073 -1.051236013230307 0.41395890586998346 -1.0722392482475822
0.032890206269663325 0.2510074122367812 -0.40360599075212183 1.904448982933507 -1.7919116192660114 1.0237133446711792 0.8968582860313539 2.9285435773406725
1.0648599440533493 -1.205572507866368 -2.3177276560148683 4.948786302057446 12.042222070912098 2.473058753225216 9.924624358810947 5.657407184177344
-1.558314889019104 1.155226544454318 0.12732015004360864 0.9826246799584958 0.8234593264342857 1.5260843323372058 1.3634758716261532 1.6004395944395609
1.0992658663191939 -2.35199915124539 0.05048286302443085 1.7755935236105014 0.8859213191298055 1.8067224604053704 -0.5347083479043501 1.3853568704295112
0.3972799624088251 -1.4204182490719501 0.40706387670890026 1.0314541635294072 -0.5835774419739304 1.0061858009938758 0.9443546054903011 -1.870729656758446
-1.085869795676701 2.7395795814921486 4.4423196103166225 0.675923928586064 -4.791021535352609 2.1342841608260175 -2.53708689434156 -0.5957168290762341
-1.3381687268123117 0.7555912449678167 1.6745489094199155 1.3459008317221397 -0.17636443834494286 0.7190877344963891 -2.3154167124346134 1.7139972533123442
-1.18842810365062 2.2193963820585023

threshold_noise_fp f8 [3]
00000000: 0000 0000 0000 0000 0000 0000 0000 0000
00000010: 0000 0000 0000 0000
0.0 0.0 0.0
