experiment_pretrained/16x16mnist_et_200epochs/16x16_mnist_untrained_network.pt (torch_old, 295605 bytes, 2 tensors)

weights f8 [256, 128]
000000 b4 27 6f 71 2d c3 f4 bf fc fd 08 20 dc 80 c6 3f
       -1.2976507597945615 0.17580749096121895
000010 83 17 0a 47 a1 54 d2 3f 85 bb 4f 37 e5 a3 ee 3f
       0.28641540467685206 0.957506759672342
000020 80 68 b3 1e 86 bd a4 3f 3b 2a 7c cf be 6d cd 3f
       0.04050845265165126 0.22991166239838087
000030 89 67 6c ca 9f 5a da 3f 1a 12 9b 1b c7 1b 9d bf
       0.41178126113811025 -0.028426276264115292
000040 c4 eb 8a bb a8 b5 e3 bf da 3c 90 e4 1a 19 84 bf
       -0.615925184530504 -0.009813509082987105
000050 9e 76 82 43 65 0e d7 3f 17 09 44 54 9d 95 d9 3f
       0.36025363533722465 0.39975674847677695
000060 e5 d1 d1 be 6f 15 d3 3f 6f e3 8b a3 84 8c c1 bf
       0.2981833804581398 -0.13710077272096607
000070 ac 3c cb e3 fd ec e2 3f ff 87 ea 38 8b 5e c8 bf
       0.5914296578502181 -0.19038524893863948
000080 1c 33 7b 16 fd 9a e3 bf 8f ba 76 02 27 65 a9 3f
       -0.6126695098006141 0.049599856425051596
000090 89 70 5e db 7a 29 b3 3f 3b 61 de f0 51 e7 d2 3f
       0.07485168319402837 0.29536865732508816
0000a0 19 94 dc 77 9f 52 d0 3f 42 04 48 25 00 20 de 3f
       0.25504290299642346 0.47070315972093024
0000b0 5f 7e f3 6b ae 95 c3 bf 7d bb 54 f1 c2 9b d3 bf
       -0.15300541182567692 -0.3063819271800908
0000c0 6a 20 4b f4 7d b7 d8 3f f4 e7 25 96 b2 94 ed bf
       0.38619946343215494 -0.9244015629367355
0000d0 e5 62 7d 4e 34 fa ca bf 78 58 0a fb 46 66 cf 3f
       -0.21076062996396341 0.24530875451882017
0000e0 cd 48 99 40 b3 a6 9a 3f 52 ed df 12 73 ee d7 3f
       0.02602653581409058 0.3739288029025448
0000f0 3a 5e 16 ad 85 d3 b9 3f 30 d3 7a c5 4b ef e1 3f
       0.10088382220998762 0.5604609353091288
000100 96 e1 e2 29 a7 e6 df 3f 55 6c de 60 70 28 b1 bf
       0.4984529408498245 -0.06702329983674933
000110 b5 4c da c7 0f fb d8 bf 50 ac 01 00 31 a1 b5 bf
       -0.3903235866247983 -0.08449083566817817
000120 6d 3b 5d fb 1b 22 e3 3f e5 8f 39 06 dd ea d0 3f
       0.597913733430557 0.26433492286582655
000130 02 f3 06 b1 25 ee ba 3f 6b e9 fd b7 4d 7e de 3f
       0.10519633838607592 0.4764589592738477
000140 53 ac 5f 5e 29 c6 a2 3f a4 f5 33 d0 4a 8c d3 3f
       0.036668102998952755 0.3054377587539767
000150 a7 bc a6 2d 1d ea 93 3f 15 c4 3e 14 7a 47 c7 3f
       0.0194477614510872 0.18186880100759653
000160 47 c7 27 ec 78 5d d0 bf 77 af 5f 85 c0 f4 a7 3f
       -0.25570509969758287 0.04678918483827393
000170 41 ba b4 47 f5 19 c8 3f c8 02 b5 fb c8 4e e7 3f
       0.18829217911975785 0.7283673206476005
000180 56 b9 d4 b3 e6 e5 cf 3f 1a 44 59 10 59 82 8d bf
       0.24920352726753475 -0.01440877514974841
000190 7d d8 48 43 cd 02 c5 bf b5 3c c8 9c b6 32 c0 bf
       -0.16414800439241964 -0.1265476480043383
0001a0 f8 ea 7c a4 4d de d7 bf 7a bd 45 b8 fd 86 9e 3f
       -0.37294331610944154 0.029811825153442474
0001b0 b2 12 85 18 09 98 c4 bf 17 67 d3 d4 87 5e c3 bf
       -0.16088975617653528 -0.15132234470257153
0001c0 78 17 e8 60 98 e5 c8 bf f3 f3 1c 5d 9e 87 d5 3f
       -0.1945066903282926 0.3364025029475776
0001d0 70 ad ef 09 0b 09 91 3f e4 ae de b7 6d 99 e0 3f
       0.016636059266529057 0.5187290755470397
0001e0 a8 2c 0c 56 a3 6f e8 3f 37 cd 51 0e d2 3f ce bf
       0.7636276894203506 -0.23632264804073497
0001f0 10 77 24 34 9a 8c d3 bf 5a 5a 8d 9f 07 df b8 3f
       -0.30545668689761474 0.09715316434208301
000200 d7 86 37 f2 38 09 df bf c1 36 4d c6 e2 d8 e0 3f
       -0.48493789342874777 0.5264753220632984
000210 2d de 07 eb 44 22 b2 3f 47 25 c5 06 ed c7 e1 3f
       0.07083540666632678 0.5556550152042882
000220 2a 98 82 71 73 bc cb bf 72 9a 99 ea e3 35 c8 bf
       -0.21668856661307362 -0.18914460139349704
000230 5c 9a e7 cc fd 71 af 3f 92 66 60 69 0c d6 c7 bf
       0.061416560423641825 -0.18621974130001157
000240 8c 78 20 7c b3 a9 ef 3f b0 b2 46 4a 92 8b d5 3f
       0.9894654678680737 0.33664376500636717
000250 1d 60 f1 b7 e5 40 e1 bf 01 35 75 f8 f1 6e b7 3f
       -0.5391720383295283 0.09153663936486468
000260 53 d8 3d b1 f2 e9 e0 3f fc 69 7c f3 75 f3 de 3f
       0.5285581075429583 0.483609664706506
000270 b5 b4 56 0c f8 62 c4 3f fc c6 b9 bb e2 34 cd 3f
       0.15927029230571113 0.2281764427785261
000280 e0 ab 7c 82 31 27 de bf 4d 55 ed 2a 73 f2 af bf
       -0.47114217512961254 -0.06239662074100725
000290 c0 c0 96 76 0d 10 e7 3f c0 d9 4c 1b 73 e4 e6 3f
       0.7207095447720562 0.715386918373774
0002a0 e3 fd fc c2 a3 01 b2 3f da 43 75 0e 08 a4 c2 3f
       0.07033751974540041 0.1456308432193783
0002b0 8c c5 bb 32 07 52 cf 3f 54 b3 54 34 12 4b d7 bf
       0.2446907994958959 -0.36395697699008633
0002c0 5e 10 84 2a 67 34 ca 3f 2f 14 6a e0 25 2e d4 bf
       0.2047242124173207 -0.31531664767709605
0002d0 c0 32 84 46 b9 3d e0 3f 23 e7 e3 05 33 85 e4 bf
       0.5075346352837968 -0.6412596812290058
0002e0 d8 d3 b9 e0 89 ec e2 3f 8f 3f 8a d8 55 85 ee 3f
       0.5913743390252604 0.9537762860581881
0002f0 b0 9c 67 b1 38 d4 e7 3f 7d fa b2 c1 5c be b4 bf
       0.7446559395729277 -0.08102969864828853
000300 48 53 22 25 12 8c e6 3f 7f 8a 1f 5a fe 44 c9 bf
       0.7045984959864677 -0.1974180164389345
000310 6c bc 8f 32 31 0b ea bf d1 28 93 96 09 b1 e3 bf
       -0.8138662326363266 -0.615361017314422
000320 3d 7e 07 70 11 40 d3 3f ee 65 85 24 5f f0 b2 3f
       0.3007854074512329 0.07398028031948176
000330 45 d9 a1 9a 52 96 d7 3f a4 e2 99 ba a9 5a e1 3f
       0.368549967773465 0.5423172611763971
000340 b2 77 bf 2d 19 d7 b7 3f a7 56 db 78 4a 25 dd 3f
       0.09312589041607458 0.45540105631276123
000350 1c fb 3f bc 11 b4 de 3f 1f d3 80 0c 7f ef b3 bf
       0.4797405565622499 -0.07787317328695707
000360 51 3b 0b e4 61 81 cc 3f 80 d8 ff eb 89 28 87 3f
       0.22269843707041528 0.011307790293340725
000370 f2 32 7b 61 90 b0 c8 bf 57 50 fa cf 40 38 dd 3f
       -0.19288830528093787 0.45655842123347185
000380 7d 0c 51 e8 15 99 d3 bf a1 8a 14 82 a2 ab c7 3f
       -0.3062186020581022 0.18492537833761438
000390 09 b6 95 03 a5 7e db 3f 1d 67 3c 43 be 65 e6 3f
       0.4296047720916652 0.6999198258592717
0003a0 bb 63 11 da 19 96 d1 3f 1c da 13 85 66 4e ce bf
       0.2747864369935617 -0.23676759241034595
0003b0 a5 2d 08 5c 51 e9 db bf 67 46 a0 e9 00 9e 53 bf
       -0.43611558902258657 -0.0011973389541747538
0003c0 2d 18 a4 4b 6a 61 c7 bf 61 0d 19 21 76 52 ce 3f
       -0.18266037648589997 0.23689152351480927
0003d0 9f 43 0f 37 91 d0 d0 bf 96 14 6d da e9 e9 c9 3f
       -0.26272993447224197 0.20245097318016708
0003e0 34 ac d0 08 dc f3 de 3f 2a 9e ed ac fc 30 c1 bf
       0.4836340032658797 -0.13430746501693253
0003f0 fa 8f 45 d9 58 80 e5 3f 25 9b 87 7b 60 c2 cf bf
       0.6719173663700524 -0.24811941177105115
000400 5f 2c af bd 2d 17 d5 bf 92 d3 d4 c2 6b f9 d3 3f
       -0.329539714087053 0.31209844614505144
000410 90 c3 50 de 4a 99 e8 3f 80 bb 61 9e 3f 00 e9 bf
       0.768712457857065 -0.7812803357499973
000420 33 dc ff b5 e9 9b e3 3f 7d 75 ca aa 53 16 c7 bf
       0.612782340495761 -0.18036886062047222
000430 c8 d4 62 98 25 95 e1 3f 6f 91 a8 2e 8d cc df 3f
       0.5494564033785077 0.49685983234873893
000440 b3 1a 9e 42 a1 db bc 3f a4 bd c9 d3 cd 7c ba 3f
       0.11272628666311384 0.10346685810667694
000450 49 00 4a 08 49 ce e3 bf 4a 41 ac 8b 39 19 ae bf
       -0.618931308927139 -0.058786199855719604
000460 ac e9 c9 c0 54 dc e8 3f 93 8f f1 5e b0 be e1 3f
       0.7768958821682665 0.5545274595610742
000470 34 a3 6d c1 a6 6e bf bf ea 47 28 89 6a 98 dc bf
       -0.12278215620393668 -0.4468027438571186
000480 02 8f b7 fa b7 24 d1 3f d4 5e 3c 20 a3 aa d4 3f
       0.2678661297234016 0.32291486881284226
000490 7c b4 16 ae 00 9e cd 3f 7f 48 74 0b 58 58 e2 3f
       0.23138435841011418 0.5732841705050901
0004a0 6c e0 54 f3 71 ca c0 3f 55 bb 82 32 3c d6 c7 bf
       0.13117813474105178 -0.1862254377969871
0004b0 60 ed fa 05 ad 9b d5 3f 6f 6c 9f a9 20 60 b7 bf
       0.33762670120241545 -0.09131054059200648
0004c0 32 7c cf c1 81 2b cf bf ea a3 9f 93 4e 9c ae bf
       -0.24351522410776877 -0.05978627731366955
0004d0 6f 18 a4 b5 13 0c d3 bf aa d6 93 e3 2f 2a d8 bf
       -0.2976121209943647 -0.37757489418377566
0004e0 6a aa 28 60 3b 8b d4 3f 88 06 ca f0 7a b0 c0 3f
       0.32099804296982504 0.13038574940951642
0004f0 e0 50 b2 ee 40 94 e8 bf 0a 39 10 6f e6 53 ba bf
       -0.7680973684350896 -0.10284271441944184
000500 d6 55 4b a7 cc d2 d6 3f 9d f5 42 9a 37 5a a0 bf
       0.3566161760075749 -0.03193830259395301
000510 bd 77 17 ef 3f ee b7 3f 22 77 fd e2 c4 e5 d7 3f
       0.09347915255736346 0.3733989922237574
000520 2a 3d 37 3a ad 12 9f 3f 5c 18 81 8e 05 ea d7 3f
       0.030344683340271995 0.37365855137284654
000530 4a c8 a6 71 97 00 dc 3f 3d b9 e8 8c 25 24 d5 bf
       0.43753610705164603 -0.3303312183442307
000540 04 70 2c 2a 50 17 ed 3f 0d ee 45 ad f3 b3 e0 bf
       0.9090958427145783 -0.5219667801133611
000550 d2 02 72 1c 87 bb c0 3f 39 dd 08 b5 ba 69 df 3f
       0.13072289360936523 0.4908282058635965
000560 1f db 46 15 28 aa b1 bf bc 7c 86 38 25 c3 d9 bf
       -0.06900263328030264 -0.4025357295995027
000570 42 46 d0 cb f9 8d ec 3f cc 14 86 e3 79 16 b4 bf
       0.8923310261472539 -0.07846795849589511
000580 74 41 c8 6c 5f 57 db bf 92 1b bd 06 a5 47 f4 3f
       -0.4272078096701286 1.267491365740828
000590 da fc 55 22 fc a9 d0 3f e7 a4 79 53 23 d5 65 3f
       0.26037505486597257 0.0026651086771393054
0005a0 40 6f 16 f6 80 90 8a bf 18 c0 c6 af e6 a1 d8 bf
       -0.012970931539534214 -0.38488166013394354
0005b0 00 9f 35 de a6 55 91 3f d4 83 84 e3 b0 30 d6 bf
       0.01692829829462905 -0.3467218610622329
0005c0 18 02 b1 6e f2 6d c9 3f da af c9 60 25 1e dd bf
       0.1986678162084139 -0.45496496631562666
0005d0 79 fe b9 e5 0c b9 c1 3f 1d 83 7c 65 27 9f c7 3f
       0.13845978943935558 0.1845444913424438
0005e0 1d 75 46 77 cf cb bb bf 6c 6d 6d b0 90 98 d5 3f
       -0.1085786501120833 0.3374368403362584
0005f0 2c ed e9 2e 00 03 b9 3f dd ec 21 e4 fa 4c a2 3f
       0.09770203729015198 0.03574356112309272
000600 7f 34 f1 96 cb 66 cb 3f 39 29 0a 9c 7f 42 d0 3f
       0.21407456274247136 0.25405874479533314
000610 55 16 c8 60 88 0b a3 3f 24 8d e2 91 43 4d b4 3f
       0.03719736272254851 0.07930395423550302
000620 3b 58 78 8e 38 dc d1 bf 07 24 aa ca d6 b7 c3 bf
       -0.27906621850104657 -0.1540478219579031
000630 67 06 7a 85 05 8c 26 bf d7 fd 7c 05 fd c3 dc 3f
       -0.0001720196475965441 0.4494621804805922
000640 5b 43 22 7b da 27 e2 3f 24 1a 9d f9 00 21 a9 3f
       0.5673649220426386 0.049079924078388154
000650 88 0f 4e d3 87 f8 c7 bf 67 10 45 e0 ee 5f e8 3f
       -0.1872720510256125 0.761710584666173
000660 c6 0f fa 5d ad 8d cb 3f 1d 9b 4b fe 66 08 e4 bf
       0.21526114548407643 -0.62602567355211
000670 e3 ad 84 a0 89 d5 e2 bf 4d 86 61 fe 42 47 a5 bf
       -0.5885666022417663 -0.04155930857883714
000680 b5 35 56 73 dd 42 ca bf 9f 13 9f 2c ab 25 ce 3f
       -0.20516555911710346 0.23552455595759356
000690 12 54 76 c2 85 f3 af 3f 34 79 82 be 7c 40 b6 bf
       0.062404804218353274 -0.08692149783243935
0006a0 c8 e1 c9 e8 ed 09 a3 3f 89 94 4c 35 c5 06 d5 3f
       0.03718512980134708 0.32853822903627666
0006b0 92 19 d6 c8 d1 52 d4 3f 49 8d aa 74 e3 90 ea 3f
       0.317554899338938 0.8301865843426778
0006c0 6e a2 64 1a 81 6c da 3f 5a e3 c7 d7 05 3d 96 bf
       0.4128725774521972 -0.02171715859910548
0006d0 1c a1 af cf 25 b1 b4 bf 00 b2 52 fa e9 8b a8 bf
       -0.08082805939159637 -0.047942458922396014
0006e0 55 90 c9 08 a8 26 d3 3f ad 78 4f 98 73 7d d2 bf
       0.2992343984426545 -0.28890695451799325
0006f0 d7 03 6f 34 0a 50 e8 bf 7f f7 d7 d3 21 0c c0 bf
       -0.7597704910368702 -0.12537024349142808
000700 11 28 58 23 5e b0 b3 3f 65 76 a0 31 35 01 d6 bf
       0.07690990794085929 -0.34382371755950764
000710 56 cf ff a0 58 76 cf 3f 47 50 54 3e b1 e1 c6 bf
       0.24579913960735195 -0.17876258414674082
000720 b6 e3 1c 0b a6 90 c8 3f b0 f3 fb 11 93 19 97 3f
       0.19191432516688928 0.022558496449153587
000730 9a 16 9b 07 95 da df bf ae 23 9e cb fc 6c c9 3f
       -0.49771619551425206 0.19863853399536197
000740 aa 68 dc 9d 9b 28 de 3f 6f 48 d5 51 92 e2 e1 3f
       0.47122850814924766 0.5589076612761924
000750 89 5e 1a 7b 13 e6 e6 3f 52 66 85 f1 14 56 d6 bf
       0.715585461078221 -0.34900401674312775
000760 43 f3 8b 11 3e c6 dd 3f ba ca 32 5f bc 4e c9 bf
       0.4652247592310241 -0.19771532677039777
000770 0d 6a 29 0f 81 a7 d6 3f 7e 24 18 62 a8 41 dd 3f
       0.3539736412109569 0.45713243083498145
000780 46 d5 e6 79 d6 da c8 3f c4 d1 d2 f4 10 9a dc 3f
       0.1941783995841126 0.44690345676943033
000790 ba eb e0 c2 ae 4e c7 bf f5 60 54 d1 10 be d6 3f
       -0.18208870425755014 0.3553506893381518
0007a0 25 f2 fd e1 ed 0e b8 bf d3 29 c4 73 ad 5b c3 3f
       -0.09397780196554402 0.15123527672433443
0007b0 a7 fe 4b c5 3b b2 8d bf b8 5f 93 19 c0 f6 d5 bf
       -0.014500109632990045 -0.343185448623895
0007c0 8c e4 4d 17 1b 79 d3 bf 52 a3 96 5a 5e 72 eb bf
       -0.3042667129116772 -0.85771100705197
0007d0 05 19 46 79 3f e1 c2 bf 3a 3d 64 ac eb 02 d7 bf
       -0.1474990217358895 -0.35955325923073966
0007e0 08 b9 a2 4c f2 d2 c3 bf 9f 18 f0 e4 aa 02 e2 3f
       -0.15487507574057013 0.5628256293719182
0007f0 25 e0 47 f6 1f d2 b5 bf 94 1c fd c6 f0 97 e9 3f
       -0.08523750078882182 0.7997974287508378

weights f8 [128, 10]
000000 10 f7 e9 d4 5b 49 fc 3f c4 3a 41 7d 2e 51 ea 3f
       1.7679098431539764 0.8224098631270285
000010 fe 1f 37 40 56 60 e4 bf bc 87 38 a5 d6 1d c0 bf
       -0.636759877605982 -0.12591059749052913
000020 e9 49 32 3d 8e ac de 3f 9b 48 e0 8b c7 b9 ed bf
       0.47928195930685874 -0.9289281589465362
000030 fb 55 7c 16 9b a3 d3 bf 88 be 38 e7 c0 78 d0 bf
       -0.3068607062899386 -0.25737021045913666
000040 96 7b 1f 87 88 2a c9 bf 4b 6d a5 4e fc 0b e5 3f
       -0.1966105136661695 0.6577130828913281
000050 fe 97 ca 01 5f 64 e8 3f b5 ed 8c 06 7c 3d f0 3f
       0.7622523341167378 1.0150108581427564
000060 dc 14 51 05 0c af dc 3f 52 7b c5 8c ae 61 e1 3f
       0.4481840183182848 0.5431740521852169
000070 df 54 39 02 52 84 02 40 22 7c e7 aa dc 57 f3 3f
       2.314609544157619 1.2089506793925087
000080 8f ca df ff 9f ec 04 40 f0 f4 d7 e0 2a ad b3 3f
       2.615539549843852 0.0768610762533688
000090 a7 ea 5f 3f 7e aa e1 3f 17 47 45 2c 8b fb fb 3f
       0.5520621526514632 1.7489120225258767
0000a0 5c 04 af 67 ee e8 fe 3f e5 d0 f2 5e 7c 0e df 3f
       1.9318679857390384 0.48525914451899005
0000b0 74 06 c2 e4 a6 20 d2 3f 30 35 b2 07 07 5b d9 3f
       0.28324291553153746 0.3961808753163778
0000c0 da ab 7d 6b c2 74 f5 3f eb bf a4 68 71 ee c6 3f
       1.3410057257522028 0.17915170297192104
0000d0 ba 42 49 75 1d 7e 86 bf 36 e9 51 04 73 be e0 3f
       -0.010982732908048621 0.5232482036947548
0000e0 38 d1 52 07 68 10 05 c0 e1 c9 ad 13 03 39 db 3f
       -2.633010918822176 0.42535473748935543
0000f0 14 1c bb 0a 15 2d ef 3f b9 dd bc ee bd 74 f8 3f
       0.9742531976306759 1.5285014463132554
000100 d3 24 93 74 d5 52 ec 3f 04 ec fe ea 9c 00 fb 3f
       0.885111549077147 1.6876496486208916
000110 57 2f d9 17 c7 be 99 3f 48 82 73 ce 36 76 da bf
       0.02514182169970466 -0.4134652153134408
000120 6e a8 e3 b3 4c 6f db bf 81 81 a0 32 33 dc fb 3f
       -0.4286681896907173 1.7412597634903195
000130 7d e8 93 f9 9a c0 de 3f 49 d7 9d de f9 fb ed 3f
       0.48050569889858946 0.9370087955455598
000140 a2 90 67 6e 18 84 d8 3f 19 11 9f bd e3 62 f4 3f
       0.3830624654931488 1.274142971714417
000150 dd 6f 10 b8 74 70 cb 3f a6 d8 04 0b 83 ee f2 3f
       0.21436938273916342 1.1832304411341652
000160 ce 0f c4 ad 9a 0b df bf ef 21 63 f0 b0 b0 e6 3f
       -0.4850832650120055 0.7090687460959638
000170 9d 48 84 87 0c 09 e4 3f c7 73 8e 7f f9 35 e3 3f
       0.6261046072779838 0.6003386966073031
000180 94 f0 4a 0c fb 9e d0 bf 41 a2 c0 1c 9d 03 fd 3f
       -0.25970340919935464 1.813382255853995
000190 ed 33 e4 83 e4 d3 84 bf 40 fd 0d 54 92 33 d3 3f
       -0.010169778132444985 0.3000226803632877
0001a0 63 dc e7 07 2b 01 f5 3f 3b 87 08 b9 74 2a e5 3f
       1.3127851780716575 0.6614326108867553
0001b0 8d 2c 8a b3 e1 3c fe 3f b7 73 8e c2 c3 c2 f7 3f
       1.8898636830588516 1.4850499725209667
0001c0 a4 0b 97 0f b6 e1 f8 3f 29 cc d6 13 6f 13 e4 bf
       1.5551052674279413 -0.6273723018151759
0001d0 76 bb 2b 74 16 50 d4 3f 3e 6b ed ec 10 6e b7 bf
       0.31738816590125596 -0.09152322563515455
0001e0 32 5d dd f8 23 2a f1 3f 8e fc 00 c2 f9 1e e8 3f
       1.072788211944339 0.7537812031877296
0001f0 78 b8 ff b6 60 cb f5 3f fa b4 62 8a e6 dd fd 3f
       1.3621527813334335 1.8666749387442096
000200 5e 5b 9c e9 6f 6c df bf bc 0c b0 6d 44 72 e8 3f
       -0.49099347890426326 0.7639486448610096
000210 a8 28 68 da 04 f6 01 40 31 94 8e 66 a5 18 e2 bf
       2.245126444152522 -0.5655085566583066
000220 3a 12 ab 05 e3 41 f3 3f eb 0e 22 19 83 f4 ee 3f
       1.2035856458106893 0.9673476687316599
000230 7c fe 91 37 46 42 b5 3f de 5c eb 3e a5 0d c3 3f
       0.08304251534172552 0.14885392734752306
000240 76 4e 79 bc 9d 58 b7 3f 12 ac ad b2 5e 25 ac 3f
       0.09119592524921835 0.05497260981686493
000250 82 6f 13 12 67 61 f1 3f 54 eb 93 a2 97 7f d1 bf
       1.08627993641764 -0.2734126174615785
000260 d2 f2 c7 fe 3f ee a5 3f 47 95 d0 fa 05 2c ef 3f
       0.04283332810516573 0.9741239451147202
000270 97 9e 6d 20 a8 95 fb 3f 6f ad b0 f9 a9 08 e2 bf
       1.7240372912146193 -0.5635576130638763
000280 70 21 61 e8 8f 7c f1 3f 19 5e 6b c5 e5 07 e7 3f
       1.0929106786080318 0.7197140556190248
000290 72 85 94 9b 48 36 f0 3f 9c 66 27 27 be 30 fc bf
       1.0132528378820465 -1.7619000939797962
0002a0 18 5e 38 46 9c c3 f3 3f 44 06 de 09 3d b7 bf bf
       1.2352564566589361 -0.12388974657917468
0002b0 a2 b6 e1 e7 84 50 f3 3f 55 75 4e bd e1 43 ea 3f
       1.207157998836387 0.8207863519088884
0002c0 6b c0 2e 58 82 73 dd 3f 00 69 24 4c 89 7e ec 3f
       0.4601751195105012 0.8904463278916239
0002d0 70 32 4f cf 21 62 ea 3f 02 79 ed 5c 37 b4 f1 3f
       0.8244790123950008 1.1064981107697922
0002e0 4f 82 bc a9 f9 fe e5 3f 70 7e 88 0e b1 2b de 3f
       0.6873749079860064 0.4714167253423289
0002f0 77 52 1a 62 1a 36 b0 bf 89 78 ae 1e 58 79 c6 bf
       -0.06332554717148207 -0.1755781316578047
000300 cb 0f 21 d3 77 6f f1 3f 3b b4 25 bd be 29 ec 3f
       1.0897138831360162 0.8800958341868247
000310 e5 19 36 29 54 a9 05 40 f2 76 ca c9 80 a3 f0 3f
       2.7076800555835114 1.0399177439170981
000320 2f 3c 31 3f 6d 58 f9 3f 32 e4 bc 00 56 9c f1 3f
       1.584088560910242 1.1006679562399424
000330 ef 77 09 4e 97 a7 d4 3f 73 e7 eb e2 d5 aa ef 3f
       0.3227289449768013 0.9896039421139292
000340 9b 3d 7f de fa b2 ed 3f d5 31 1a fa 7d 39 03 40
       0.9280981393475715 2.4030723132366156
000350 7c 0a 72 b4 47 09 f3 3f 13 95 b6 8a 5f 7d fa 3f
       1.1897656487132329 1.6556086939320422
000360 69 13 e9 89 b1 3b e5 3f 51 39 f0 99 27 dd 00 40
       0.6635368054927372 2.1079856897769464
000370 fb 31 0d ea 7c 72 d4 bf 56 8a bc 68 8e 5e f2 3f
       -0.31948778969379504 1.1480850306767443
000380 14 d7 ba 8f f2 30 f4 3f 74 13 4f 78 2e 2a 79 bf
       1.261950074619965 -0.006143743060367569
000390 f5 d2 38 90 50 ee f7 3f d8 8e ca 90 c7 f0 bd bf
       1.4956822999640143 -0.1169552544111484
0003a0 81 8e 2f 82 02 f8 fa 3f 3a 0a 76 0f f5 d4 e0 3f
       1.685549267328412 0.5259957601522907
0003b0 3b dc bb 85 b7 ce ee 3f 7a 3c cd ba 0d 14 87 3f
       0.9627339946736194 0.011268718016849134
0003c0 04 cd 16 59 a7 b5 fb 3f 73 9a d8 cd 9f a3 f7 3f
       1.7318490486184723 1.477447322927813
0003d0 5b 6f 68 93 9a 5d d3 bf 92 3f 70 48 45 dd ed 3f
       -0.30258812327678236 0.9332605757535808
0003e0 b8 8e 39 9a d5 ba fb 3f f7 3b 97 38 5b 94 ea 3f
       1.7331138634116723 0.8306099038398987
0003f0 01 e8 18 a3 bb 56 fc 3f 23 09 df 38 92 e4 d2 3f
       1.7711750384319205 0.2952008777030121
000400 bf 5e 5a c7 2d 7b f2 3f dc ff 73 bf d0 e2 e1 bf
       1.1550729548670657 -0.5589374293631368
000410 eb a9 dd 62 e9 81 0a 40 7e bc 75 35 ce ce f6 3f
       3.313433430089608 1.4254896248128541
000420 67 5a 22 88 93 c7 f0 3f ca a0 b0 8e 6e 5c d4 3f
       1.0487246816388962 0.318141593309076
000430 d7 ef d0 7b 7e 13 ef 3f f3 3c 01 94 e0 dc f3 3f
       0.9711296480450028 1.2414251119078556
000440 36 6f ce 4b 34 e2 cf bf 4b 13 5b 96 13 b7 bf bf
       -0.2490907068394052 -0.12388727589411734
000450 da 9f 7d 31 85 ce f3 3f 07 38 ec f6 a8 cb ec 3f
       1.2379199918013826 0.8998608420095032
000460 2a 70 25 27 e8 71 de 3f 52 a4 29 70 33 fb c4 3f
       0.47570232222438114 0.1639160440129524
000470 24 c5 f2 66 45 8f 05 40 6c 87 67 7d 2d cb ea bf
       2.694956592830424 -0.8373019646935353
000480 52 13 1a 09 23 20 f1 3f 51 1f c9 05 22 06 de 3f
       1.070345912508135 0.4691243225574811
000490 3e b3 30 b6 e2 05 f3 3f 2e b2 bf ad 27 b7 fa 3f
       1.1889369122320228 1.6697155749381056
0004a0 2f 4a d0 f5 f3 b8 a7 bf 76 d5 fe a8 c1 c8 db 3f
       -0.04633295417456328 0.4341282034250392
0004b0 a5 f1 ad e0 e1 2c eb 3f 98 20 9f 55 95 1b f7 3f
       0.8492288006087177 1.4442342133134272
0004c0 e8 b7 e1 5a 76 50 f8 3f 55 42 62 0f dc b6 e2 3f
       1.5196441221300976 0.584821729704411
0004d0 ad fb c8 0b 17 37 fa 3f cd 02 ff d3 20 04 db 3f
       1.6384497127871598 0.4221269674563189
0004e0 7c 8d 3e 8f 73 5c f7 bf 4d 79 8f b8 1c da 6a bf
       -1.4600711436731606 -0.0032778321224064323
0004f0 ae f4 28 04 dd 1a c3 3f fa ec 94 bb d7 b7 f6 3f
       0.149257304221384 1.4198834731494672
000500 d6 50 97 21 ec 0a f6 3f cf 24 60 69 00 ad f3 3f
       1.377666598525186 1.2297367206795575
000510 56 03 6d 98 87 8c c9 bf bb 34 74 a6 98 bc c6 3f
       -0.19960112517039857 0.17763050201066286
000520 9e 06 ce 19 d6 b0 f1 3f eb 9e 80 6c 0d 9c f5 3f
       1.105672932434039 1.350598739469144
000530 db c0 a4 14 b8 9e e3 3f 9c f5 53 72 bf bf ef 3f
       0.6131248858637507 0.9921567185371489
000540 58 b9 47 52 5b 35 d4 3f 3d 9d 7d 4e db a1 00 40
       0.31575663600132975 2.0790315754017272
000550 87 4e 83 6b 5e db 8d bf 58 71 f7 24 de b7 c1 3f
       -0.014578569084199756 0.13842369847305735
000560 c7 0a 4f a9 10 ad f0 bf 45 64 6e 4e 4d 5d f9 3f
       -1.0422522176383369 1.585278803226417
000570 1a 3b 45 f2 cf 1e f4 3f 7a b2 76 05 6f 99 f3 3f
       1.25752253186119 1.2249593938278438
000580 28 c2 79 3e 7f a0 de 3f 74 77 bb 4a 31 f9 e1 bf
       0.4785459623445001 -0.5616690120329921
000590 89 e9 0f 01 64 61 bb 3f 65 85 1b bc 5a 01 00 40
       0.10695481325084279 2.000661344137074
0005a0 52 af bd 80 83 2a 07 40 df ba 72 1c 6d fd f0 bf
       2.8957586343657704 -1.0618716346031574
0005b0 41 2e f4 81 6f b0 e4 3f 08 e9 a1 a2 62 2d ad bf
       0.6465375459824331 -0.05698688731441065
0005c0 f6 aa 6f 32 61 2f cd bf aa c3 43 30 2c 39 ef 3f
       -0.22800841295914837 0.9757290785474784
0005d0 cf 4c ba 93 4a 9a fd 3f cc 26 fb f8 8d 96 ff 3f
       1.8501687784781102 1.9742564893553434
0005e0 13 60 55 02 fe 61 ed bf 5d a8 ce 4f b4 6b ff 3f
       -0.9182119412971609 1.9637950055571516
0005f0 57 fa 5d ff 45 f1 98 3f ba 45 17 a0 84 5b e9 bf
       0.02435788508545963 -0.7924216391349355
000600 df 7f 2c 60 77 41 aa 3f 37 3f a5 80 64 e2 e6 3f
       0.05128071831700231 0.7151358139617291
000610 5e 69 61 50 3c 09 e5 3f 92 51 d9 b9 95 38 c4 3f
       0.6573773927623667 0.1579768331017815
000620 78 2a cd 27 0b bb e0 3f 2e e3 3f 04 aa 3e d4 3f
       0.5228324677821794 0.31632471480365865
000630 18 b5 f8 ac 25 c4 ef 3f 4c 38 c6 e5 87 a5 f2 3f
       0.9926937464094037 1.1654128051336725
000640 75 0c 15 2d f4 35 fb 3f f2 09 a1 d9 36 36 d6 3f
       1.7006723176025649 0.3470589757236261
000650 24 36 0a 2a 14 59 f8 bf 2b 18 29 44 3a 4d dc bf
       -1.5217477457221174 -0.44221359878827354
000660 89 1d f2 f9 6a 31 08 40 42 73 10 a7 c6 27 cf bf
       3.0241298224461315 -0.24340136678156382
000670 09 fa 3d a4 00 2a f5 bf 82 91 d2 01 ff 6b 00 40
       -1.3227545180994886 2.0527324812302945
000680 ce ae 41 a0 69 65 01 40 dd 2b 85 59 d7 b6 f0 3f
       2.174517871860963 1.044638967216762
000690 71 f9 0a b7 ba dd e3 3f 3c 58 80 57 d0 a5 aa bf
       0.6208165717178372 -0.052046309167210286
0006a0 29 ef f8 6a 4e 20 b2 3f 7e b7 a6 80 45 6e f8 3f
       0.07080545531874506 1.5269217515410385
0006b0 4d b1 84 a7 4e 89 fb 3f 07 e3 6f c7 cf 99 f4 3f
       1.7210222762760907 1.287551669169433
0006c0 98 78 83 f2 96 53 b3 bf 1c 1f 95 05 48 6f e1 bf
       -0.07549422665349181 -0.5448341473611182
0006d0 72 49 5c b3 6f 99 f1 3f 9c ad fa 70 3c e7 c2 bf
       1.0999600416440356 -0.14768176571429315
0006e0 48 60 96 84 3a 90 e5 3f b7 19 4f 38 9d 33 e1 bf
       0.6738560285184656 -0.5375505542549978
0006f0 22 b8 1d 89 ef ba c5 bf cb 83 88 97 8f f5 d5 3f
       -0.16976732440110803 0.3431128482644083
000700 6f 63 74 75 71 66 a0 bf b3 70 7b 9a a3 06 cd 3f
       -0.032031579578137286 0.2267651085193215
000710 79 0a 42 54 e3 68 fa 3f 9b 1c ef e1 f4 54 e2 3f
       1.650607422955231 0.572870675351527
000720 06 ce b5 f5 91 1e e9 3f a7 c9 78 0b 0c bd d8 3f
       0.7849817084338049 0.38653851623817065
000730 56 c8 49 33 ec 66 fb 3f b7 88 8f dd a8 f1 f3 3f
       1.7126276019521547 1.2464989332880074
000740 09 14 d6 92 b3 53 cf bf 73 3b 7a b4 f1 ce 03 40
       -0.24474186582315863 2.476046953182441
000750 38 9e 87 6c 0d c4 f4 3f 16 58 ed 0e a5 04 d9 3f
       1.2978643645709678 0.39090849359252056
000760 42 2f c5 59 24 f6 c9 bf 46 94 73 09 d5 43 f4 3f
       -0.2028241575557051 1.2665605897139058
000770 44 12 55 c4 71 28 e4 3f f1 67 4d 60 0d d9 f6 3f
       0.6299370607963017 1.4279912721453878
000780 03 10 d3 24 2b 1d d8 3f 8e 5e d1 4d 4a 28 d0 bf
       0.3767803058256051 -0.25245912169837303
000790 12 6d be 53 08 c1 ff 3f 28 c2 a3 92 52 4a f1 3f
       1.9846270819896898 1.0806451538193276
0007a0 0a 6a c6 dd 26 07 ea 3f 69 29 f5 54 e0 dd f7 3f
       0.8133730250877431 1.4916690176638332
0007b0 56 f9 b9 84 fe 97 cc bf df 0a af 44 d2 b7 a0 3f
       -0.2233884952619955 0.03265244568276215
0007c0 6e 4a 64 07 f7 96 f1 3f d3 89 62 14 32 75 db 3f
       1.0993566788426068 0.4290280531951371
0007d0 f2 8e 77 95 65 76 eb 3f 70 9e af 80 0c 3a b3 3f
       0.8582027358320075 0.07510450498340915
0007e0 16 2a f6 3e ef 8d c9 bf d3 34 a0 7f d4 92 dc 3f
       -0.19964399885459788 0.4464617964120638
0007f0 b8 13 46 9b bc 02 d7 3f ad 1f 16 ed a0 17 8d 3f
       0.3595420376153089 0.01420522426157319
