experiment_pretrained/yin_yang_hwAware_WA/epoch_300/yin_yang_network.pt (torch, 14273 bytes, 6 tensors)

_delay_parameters f8 [4, 1]
0.19370966723116323 6.537157175104777 6.935709509522763 7.976167433295951
00000000: 4ca4 d676 7acb c83f 0b8c cf87 0c26 1a40
00000010: 6cd3 37a2 2abe 1b40 9bb4 856f 98e7 1f40

weights f8 [20, 30]
-0.10507938210181254 1.5165935984767784 0.3276313987510999 2.1 1.6087088218362646 2.1 -1.3299922146114131 1.3331487148020804
0.053650060725853724 -0.14880414437682485 1.8558531707713661 2.0979012587879393 2.1 2.0943289047707125 0.476534573440823 0.3760867711172342
0.8588562009770592 1.2699307600290326 2.099911916651976 0.4593197502141396 1.7504983462794739 2.098561421625022 2.1 0.5083000041896059
1.8824142014582976 2.099971159462713 1.3581710058328755 2.1 0.6141630579408186 0.9019713956046318 0.5842037026703079 -1.3007598198021952
-0.26191015649869737 1.6711158536620856 2.0887807571203556 1.1499898537377733 1.3879325244271394 -1.5031423188929391 1.8823870238026503 0.833141211902951
2.0999289592112493 -2.0996192743685014 0.4448457637220954 -1.7100752818541634 -1.4717119519337667 -0.5967764539632933 0.2449475926677485 1.1196162482990055
-0.33554512738609793 -0.3817920685723811 -0.08936963647693182 -2.0995576199496435 0.9101149169333412 -1.6020076083502082 -1.4015621948966246 -1.5949138821844093
-1.6550313140752444 1.7919641477157293 -0.03066986526511984 0.117229003732483 0.6923470405602806 -0.9085108464303399 -0.3024522324129683 1.6787417504730517
2.0744427779374917 0.9918665522739656 1.4618843671021726 -1.1829568396807024 1.8894914296219885 0.8321105309663419 2.099930622934185 -2.066578104502191
0.1685907712187192 -0.7268228855346407 -1.6102819450138959 -0.11887424666036772 0.07811223281403769 0.8096892137678081 0.6705784572898377 -0.1787547799635357
0.5209914884183158 -2.0995722275487 1.2819589429268519 -1.288557658347681 -0.9905964284416878 -1.0995824379238461 -1.4746456844241502 1.7896972045434743
-0.10802144986318661 0.015209881530889167 0.7547396091870614 -1.131825055047678 -0.32311096519085347 1.6523559061224609 2.0880399658596516 1.0372182312214657
1.3842700567858173 -1.6624588011507455 1.902081319302456 0.8434501131865799 1.9837377348150773 -2.0996214987454924 -0.20175226139700475 -1.7716154864600036
-1.6836681854366295 -0.4826633191655424 0.1298356014969279 0.905430374956142 -0.2511844751375466 -0.2908415661434313 0.08996772636079962 -2.0995787784293225
1.1483363913932714 -1.5573506368039343 -1.2671120394716253 -1.4853825804273117 -1.6919943484153661 1.780349509841183 0.24018974025609113 0.32663526489765216
0.010309478236210682 1.527170359944149 0.09955810279198313 2.1 1.8523464252808561 2.1 -1.2143657512631445 1.3045631214613718
0.2838946666400675 -0.12163895187129531 1.834741715505505 2.0979842364757944 2.1 2.094207828155618 0.1669482259757012 0.37637063748431504
0.8406369114611607 1.44111547928609 2.0999064698524745 0.4104554333671708 1.8375069626027836 2.0985818928792486 2.1 0.6770262713902108
1.925329056818276 2.099985737693985 1.6205299912929647 2.1 0.7316594556584066 0.8137899204885043 1.1277820745170224 1.6625163842947925
1.4049494315123898 -2.0630778218696726 -0.33412189564092276 0.05048459331369549 0.8208218168352549 1.2145749428884336 1.948256651991458 2.0853398703511803
-1.099146818242733 2.0967619209097887 1.076972769089996 0.8068705855761211 2.097404774840468 0.6230241290002495 1.52974638536852 -0.18718267736808525
-0.053020162773392054 0.9669642399199396 0.2474085079738904 2.0943128437179284 -1.2241131772992984 0.8547113414394227 1.9805611216035608 2.024860949786086
1.7737266606272122 -1.0339614652357203 1.1871243387001493 0.9766036509471139 1.1741676269786234 1.1370278272706271 0.8766799997787303 -0.4913220093656788
0.14521252773420373 0.8343622347271452 0.9235836134779407 0.17286618438783882 1.9540097434942947 2.0825218940533987 -0.7021258823484742 1.3132035369143586
1.3239737409854908 0.2054685706818154 2.0973976042697173 0.9079229065902833 1.2188037151801576 -0.1375390509560087 -0.09018620609719225 0.6123721109929967
-0.16966954568986006 1.8579938638491909 -0.40387224055624854 0.8210088757752316 1.0636081354241091 1.1217252131386846 0.70729960963339 0.2169301066430056
1.485059810273961 0.6936070472314937 1.1584826446155483 1.7192558919481902 1.3524526001514434 -2.019740514216341 -0.4801543184320532 0.03079690387481761
0.878556045122236 1.2389794373985807 1.8591196656690552 2.0831899448229856 -1.0191923817162911 2.038395608515135 1.4042251152903755 0.6611636527488032
2.0974033976925064 0.8951212441240337 1.4333363072200878 -0.2936245837330417 -0.34070104816874497 0.8243089735589852 -0.10855843949238446 2.0946554928342604
-1.2887177406299357 0.7400304726951532 1.9837759196411575 2.028599078269679 1.7896805856355809 -0.8790962992604218 1.4022873677899306 0.8815791555133978
1.000140062488431 1.5630215584896172 1.259742962140905 2.1 1.8921116472262194 2.0994115287236372 0.8826748354636931 0.8804033036625833
-1.6879049200917897 -0.06757094457606412 1.9503441121758092 1.9413927903625716 2.0989661935119086 1.6986786861463616 1.58127695913157 0.604290939262183
00000000: cf75 9c7d 7be6 babf d37d 2ca6 f743 f83f
00000010: 60d6 b1af e9f7 d43f cdcc cccc cccc 0040
00000020: d72c 2976 45bd f93f cdcc cccc cccc 0040
00000030: d50c 9bea a547 f5bf 4978 2cbf 9354 f53f
00000040: eaed 7d50 0578 ab3f efc9 cda2 030c c3bf
00000050: 3641 2a18 93b1 fd3f f9d9 8574 80c8 0040
00000060: cdcc cccc cccc 0040 3076 4883 2fc1 0040
00000070: 83dd 15de 8a7f de3f 5408 9a3f ce11 d83f
00000080: 8739 e5ff bf7b eb3f 5a25 a8ea a251 f43f
00000090: e001 749e 9ecc 0040 52e7 64aa 7e65 dd3f
000000a0: 0c8f cf8d 0a02 fc3f c236 1492 dac9 0040
000000b0: cdcc cccc cccc 0040 f5a1 d15e fe43 e03f
000000c0: 27a1 8c5a 5e1e fe3f 037c e3ad bdcc 0040
000000d0: 8ed7 4685 11bb f53f cdcc cccc cccc 0040
000000e0: a68c 0849 39a7 e33f 7494 c11d f3dc ec3f
000000f0: 7d79 a5f6 cbb1 e23f 4005 6087 e9cf f4bf
00000100: c7bc 29d1 22c3 d0bf 79e4 34fa e3bc fa3f
00000110: b4c4 82af d2b5 0040 a791 c8c2 5b66 f23f
00000120: 3182 17bc f834 f63f 780f cef5 de0c f8bf
00000130: c15a 1adb 411e fe3f db55 42c2 17a9 ea3f
00000140: 94e2 dd8d a7cc 0040 33b6 ab30 05cc 00c0
00000150: b2d5 bc5d 5a78 dc3f 922f 14e6 775c fbbf
00000160: 7101 ebd4 218c f7bf 3b72 19ef ca18 e3bf
00000170: e1f6 de55 715a cf3f 2a3b 28ba f2e9 f13f
00000180: 0126 1d45 9279 d5bf 0aff 1800 486f d8bf
00000190: 2d80 ecb1 ede0 b6bf b202 8edd e4cb 00c0
000001a0: 1b93 7a51 a91f ed3f c9ea dcba d2a1 f9bf
000001b0: 7541 e67a cc6c f6bf e9b1 3e6b c484 f9bf
000001c0: fdf1 7c1d 027b fabf 77b2 2099 e2ab fc3f
000001d0: 424a 25d1 eb67 9fbf 0f76 2c51 b802 be3f
000001e0: 930a 16fb b427 e63f c958 af56 8512 edbf
000001f0: 8b37 b49b 605b d3bf 8262 4b4f 20dc fa3f
00000200: c051 8574 7598 0040 246a 80ec 5ebd ef3f
00000210: c2cc b3dc e063 f73f 4f21 b026 64ed f2bf
00000220: 95c7 845d 5b3b fe3f 560b a543 a6a0 ea3f
00000230: 49f8 2a6d a8cc 0040 8fbb eb19 5a88 00c0
00000240: 435a 65e4 6194 c53f 5961 6b11 2242 e7bf
00000250: 83c8 3200 b7c3 f9bf c82f bee9 8a6e bebf
00000260: 9994 5acd 29ff b33f 65d0 a15a f9e8 e93f
00000270: 96c8 eef3 6075 e53f 5339 f9c6 6fe1 c6bf
00000280: 6e08 8857 f6ab e03f d44a 2786 eccb 00c0
00000290: 0df8 6a61 e782 f43f 6fd1 99a2 ee9d f4bf
000002a0: 6320 f647 f7b2 efbf cf38 22c1 e397 f1bf
000002b0: d1a0 bc12 2698 f7bf 091c 3489 99a2 fc3f
000002c0: bfcb 6d32 4ba7 bbbf ec76 02be 5b26 8f3f
000002d0: 3789 4eae d326 e83f 2292 c396 f41b f2bf
000002e0: 4451 1e9d d9ad d4bf e95f 22bf 0c70 fa3f
000002f0: 83dd 304c 4eb4 0040 1e94 de24 7298 f03f
00000300: 66a2 eb5b f825 f63f b33c 5e66 6e99 fabf
00000310: 0ac9 4bd2 ec6e fe3f 1834 7e17 8bfd ea3f
00000320: 36f3 6dc7 63bd ff3f 21b9 385b 06cc 00c0
00000330: 0c0e 4ca2 04d3 c9bf f0ec f67a 8958 fcbf
00000340: 7c41 1c0d 4ef0 fabf 3ede b2b0 f4e3 debf
00000350: e694 24f7 739e c03f 93bb 271f 49f9 ec3f
00000360: d2a2 7e0c 6813 d0bf 43d2 b9f1 259d d2bf
00000370: bf44 6afa 1f08 b73f 29d6 65f5 efcb 00c0
00000380: bd73 ddfa 955f f23f 8ba4 5780 e8ea f8bf
00000390: 3960 1e46 1746 f4bf fbbb 4f86 20c4 f7bf
000003a0: 8c5f 77aa 6812 fbbf ed7a 83c4 4f7c fc3f
000003b0: e208 9e93 89be ce3f 662a 1d99 97e7 d43f
000003c0: 5523 e8be 221d 853f 3817 f62f 4a6f f83f
000003d0: 8c1a 8bcb a37c b93f cdcc cccc cccc 0040
000003e0: be19 5701 36a3 fd3f cdcc cccc cccc 0040
000003f0: 3eec 30c8 0a6e f3bf 85e8 6394 7ddf f43f
00000400: 1d96 2e89 542b d23f 74f9 34f8 ba23 bfbf
00000410: d13f 0b21 1a5b fd3f 1d7f 99f5 abc8 0040
00000420: cdcc cccc cccc 0040 00a5 a708 f0c0 0040
00000430: ea6d 5839 8f5e c53f 15de cade 7416 d83f
00000440: 0028 5161 7fe6 ea3f a1b0 d41a cf0e f73f
00000450: c966 65c3 9bcc 0040 a7c2 b1dd e644 da3f
00000460: ecd1 68b3 6d66 fd3f 3727 af4d e5c9 0040
00000470: cdcc cccc cccc 0040 bbeb c4ff 32aa e53f
00000480: 182b 51d7 25ce fe3f 62b2 8b52 c5cc 0040
00000490: ada5 2cdb b0ed f93f cdcc cccc cccc 0040
000004a0: a895 3b17 c169 e73f 8b00 ca28 910a ea3f
000004b0: e30c 7137 650b f23f ccc3 b9c7 aa99 fa3f
000004c0: 7512 4e41 ac7a f63f e843 f0f1 2e81 00c0
000004d0: 3ef0 a9cd 4062 d5bf c1e6 77da 1dd9 a93f
000004e0: b7d2 641d 2c44 ea3f 43f3 a322 e66e f33f
000004f0: c448 c82a 0f2c ff3f 27a0 81ab c6ae 0040
00000500: 0fae 5df9 1a96 f1bf 0972 2e1d 2bc6 0040
00000510: 15c9 5ecc 473b f13f 02ec 2443 e2d1 e93f
00000520: fb4f 9327 7cc7 0040 3f99 554c d0ef e33f
00000530: e64f 8558 d779 f83f 043a d61a 9af5 c7bf
00000540: 70d7 4772 7525 abbf c671 5bfd 5ef1 ee3f
00000550: 7a00 40fd 14ab cf3f dde3 9a17 27c1 0040
00000560: 72a6 f1b2 f795 f3bf 6215 6099 cb59 eb3f
00000570: 1043 d0db 60b0 ff3f db3a 324c ea32 0040
00000580: a3fe f634 2f61 fc3f c22f 682d 1b8b f0bf
00000590: 570b 3017 76fe f23f 101b bf4c 5640 ef3f
000005a0: 6452 5efe 63c9 f23f f94e 4c17 4431 f23f
000005b0: 016c 0337 c30d ec3f 4af5 81de d171 dfbf
000005c0: 3e40 cbf8 5296 c23f 4375 e56d 18b3 ea3f
000005d0: dc4b e038 ff8d ed3f 73d9 43a8 7a20 c63f
000005e0: 38f9 85b8 9f43 ff3f 7d4e 213d 01a9 0040
000005f0: 3294 cbb2 d077 e6bf 839e 40b6 e102 f53f
00000600: 32ba e416 ff2e f53f e295 b74b cb4c ca3f
00000610: a360 2865 78c7 0040 6306 e356 b40d ed3f
00000620: be12 0f53 3880 f33f 24b4 e32e e19a c1bf
00000630: 9cdd bc75 7116 b7bf 2051 b665 8d98 e33f
00000640: 79bc ee4e bbb7 c5bf 4c6a 16c6 57ba fd3f
00000650: a1e2 3cf4 0ad9 d9bf 66c5 e567 b445 ea3f
00000660: 567f d6f6 8904 f13f ee77 1823 96f2 f13f
00000670: d12a 7bca 32a2 e63f 1056 c6a0 5dc4 cb3f
00000680: a6b0 5b13 cec2 f73f f24c 0468 0732 e63f
00000690: cab7 f918 2589 f23f eff6 5577 1282 fb3f
000006a0: 5ba6 7056 a5a3 f53f 28b9 f7b6 6d28 00c0
000006b0: c5b9 ac2d d9ba debf 6572 d73b 3989 9f3f
000006c0: 6d19 3091 211d ec3f b3b1 401a dcd2 f33f
000006d0: 7e62 3643 f4be fd3f 55f7 627d 5faa 0040
000006e0: 71dc bcab 9c4e f0bf 690f 575b a24e 0040
000006f0: cb4d 26c1 b477 f63f 3485 3bad 4028 e53f
00000700: 68de bc6e 7bc7 0040 3af6 ae4e d5a4 ec3f
00000710: fedf 3a0d f2ee f63f 7ed7 1bc4 beca d2bf
00000720: 6540 e6c4 0bce d5bf 8486 6736 bd60 ea3f
00000730: 1318 5363 7cca bbbf 19e1 30bd dac1 0040
00000740: 467d 5c7e 969e f4bf 809c c862 54ae e73f
00000750: b037 97d1 8bbd ff3f 81e9 4e27 923a 0040
00000760: 8574 191c 88a2 fc3f e375 eb8f 8e21 ecbf
00000770: dd06 04e1 c46f f63f ae7d 387d e535 ec3f
00000780: 52ea bcdd 9200 f03f 647e cae4 2202 f93f
00000790: 812e 7c3c e827 f43f cdcc cccc cccc 0040
000007a0: 117a d3dc 1646 fe3f 04b5 8545 98cb 0040
000007b0: 2433 ea4b df3e ec3f 48ad 908c 432c ec3f
000007c0: e3d3 e896 a801 fbbf ad30 1d55 544c b1bf
000007d0: 2fdc 1b07 9c34 ff3f 45c2 f4e2 f10f ff3f
000007e0: 9658 a4c9 aeca 0040 ee92 b6b3 c92d fb3f
000007f0: fa36 9611 e94c f93f 6dce acf3 5956 e33f

threshold_noise_fp f8 [30]
0.2698807932026112 0.18494287020152805 0.06721075058225807 0.11891084596635791 0.04429350988378933 0.07080179940983058 0.13393240115059907 0.08822276769913634
0.07498545261676388 0.04660382447980661 0.2520902381468669 0.21369382617656946 0.13855501864081837 0.0798754651853808 0.06045752546626043 0.10355742435059176
0.11115855968392951 0.15988728934407026 0.13683260595427327 0.2948687014984721 0.16387629449870117 0.06560900883292073 0.03786372899285413 0.19896561619084002
0.13918171590839132 0.17926845300643468 0.053538908500603305 0.19363856506441282 0.26332053119399934 0.11692854682350722
00000000: 97eb 2717 ba45 d13f 7e6c 923d 35ac c73f
00000010: cdbe b047 b934 b13f ffb0 90f2 f070 be3f
00000020: a079 c090 a3ad a63f 9a92 f614 1120 b23f
00000030: 8e85 6869 b224 c13f 04c8 076e c495 b63f
00000040: 9d2d aa22 3f32 b33f 22c2 04dc 74dc a73f
00000050: 45d3 1e18 3f22 d03f 6e8a 64bd 515a cb3f
00000060: 6e26 e1bc 2bbc c13f e057 b9ee b772 b43f
00000070: 186f 59ed 49f4 ae3f 5602 d846 bd82 ba3f
00000080: 2050 832a e374 bc3f 0cb2 63cb 2f77 c43f
00000090: b8ce cc17 bb83 c13f f431 63f9 20df d23f
000000a0: 4215 bbfe e5f9 c43f 96a7 4283 c0cb b03f
000000b0: 6a34 75eb df62 a33f 02b9 488f b477 c93f
000000c0: cb8b 03db b4d0 c13f c4fe 6ec7 44f2 c63f
000000d0: 84b2 25aa 7369 ab3f 3917 1904 26c9 c83f
000000e0: 22fd 755b 3eda d03f 8b65 937c 07ef bd3f

_delay_parameters f8 [30, 1]
0.6796375163154672 0.824453242711251 0.7159103684723467 -3.9562859495600575 -2.373427505802854 -4.057132582441171 1.5521492267334183 1.8282616869481825
1.1326592770767678 1.3557953131472544 -1.8569557096079894 3.1389611340993753 -4.219019109139876 1.9222447802830547 0.3054799552967993 0.43416776169133714
3.5228575041005725 0.9421293416269675 -0.3229819607185353 0.9677056687348268 -1.3120822366516216 3.1785853963365023 -3.562373050268576 0.32108649417892543
1.5709599772045888 1.012572287030439 2.4892666722953414 -3.876316944500686 2.1731752762989456 1.0129312994499038
00000000: 07b5 362d 97bf e53f c6d4 50c4 eb61 ea3f
00000010: de97 6edc bce8 e63f c6e0 773f 79a6 0fc0
00000020: 06cd 668f c7fc 02c0 c17b b4f6 803a 10c0
00000030: ba4e 756d 9ad5 f83f 458e 9f53 8f40 fd3f
00000040: 3be4 8855 5f1f f23f c099 206d 56b1 f53f
00000050: 4830 ae30 17b6 fdbf a0f9 b2a7 971c 0940
00000060: bdd1 9b8b 46e0 10c0 0e8f 23be 83c1 fe3f
00000070: b454 65cc fb8c d33f b146 5c94 67c9 db3f
00000080: 23a4 44ea cf2e 0c40 8b79 dc6e ec25 ee3f
00000090: effa 9e87 bcab d4bf 25d6 ebe0 71f7 ee3f
000000a0: ca4c 81f1 49fe f4bf c277 262e be6d 0940
000000b0: 4071 1871 bd7f 0cc0 cee3 eb5d ae8c d43f
000000c0: a5b2 d6ed a622 f93f 481b 9aff 7e33 f03f
000000d0: fb3f 24a5 04ea 0340 1f7d 4c75 b202 0fc0
000000e0: 1970 21b8 a962 0140 c3b6 4373 f734 f03f

weights f8 [30, 3]
0.9698296169915379 0.12284604012958403 0.4927766264260697 0.7742630813635161 0.5365478894850692 0.020613704498642856 0.9444098799249376 -0.10292832683252438
0.41720381326609823 0.49365037612614665 -0.019254902534282015 0.9338227976337269 0.5713160257485761 0.2948259423857375 1.3240086844656866 -0.050000272663802525
0.2697616819186718 0.4784030869343907 0.4051066811517725 1.6130283817851683 -0.32168405890676294 0.5871059658239145 -0.024315616145249477 -0.6288057784150353
-1.8872048490944995 0.5798037783500145 0.7061183968211933 -1.2756448848553645 0.5646053732365245 0.9007945294464587 0.9186701451718238 0.6521075402838551
0.6313130040509558 0.5027006825465409 1.4946458464645767 -1.0490807275523601 0.6829616011877871 0.7908919317108877 0.4707452339306836 0.14507562984723404
0.9083570061256524 -0.2465707544799415 0.5700848916262314 -0.7451273211718535 0.07755076006483334 -0.9659621943844171 -1.3343382971325788 -0.1854175147648455
2.0999513041291733 -0.7688999801831403 1.3154707851048588 -0.830393150342085 0.37617309398185683 1.2580034600862096 0.9703283225477931 0.7667526998314192
0.4793584360049189 0.15362519647081663 1.5484075690824757 0.9297025840571193 0.5237473110706429 0.45240894452323693 0.15550570650884105 0.7190784476467049
1.2803267355436259 -1.5608841544870367 0.4260759898984582 0.09672412748705768 0.6424119074339859 -1.2011017534459572 0.0711187837420261 1.856465310970448
0.9059508730007918 0.026483707544707084 -0.5222944931394247 0.8295629509142508 0.7160364632656975 -0.1770903794905639 0.7049511615448915 -0.446128147937952
-0.24518923058863779 0.3812339924376731 0.1515363579374334 1.2868779842998304 -0.006232233857472928 0.18439676029441981 1.704795043458733 0.42338017387487464
-0.5773228265772784 1.33470214983792
00000000: b277 f51e d808 ef3f fab6 cc8c d672 bf3f
00000010: 66ec aef9 a689 df3f 8e9b 9e5e c3c6 e83f
00000020: 2f70 c27a 662b e13f 5f2f af4a c21b 953f
00000030: 2880 8911 9b38 ee3f 97e3 93c5 8259 babf
00000040: f8a3 6f9f 77b3 da3f 6dac 47bf f797 df3f
00000050: ed8b b0a2 8eb7 93bf 1d13 0359 e0e1 ed3f
00000060: a0aa c88b 3848 e23f abc8 23a1 6dde d23f
00000070: d766 f6ba 232f f53f 88a4 c3bf a299 a9bf
00000080: 627f 6380 c643 d13f e412 2cfb 279e de3f
00000090: 9407 bc92 44ed d93f f697 34d9 f6ce f93f
000000a0: 998a 29bc 7896 d4bf b101 5073 92c9 e23f
000000b0: 64f5 8060 31e6 98bf 3f82 ba4b 2d1f e4bf
000000c0: 756a 3bb6 fd31 febf 9689 43a7 c08d e23f
000000d0: 646e ae9b 8598 e63f 3337 5c9c 0a69 f4bf
000000e0: bf4b a649 3f11 e23f 896c 8c0c 4fd3 ec3f
000000f0: c262 aaee be65 ed3f 29d0 dfa1 10de e43f
00000100: 2207 3e54 b733 e43f 4fdb e6bd 1f16 e03f
00000110: 77ae 5ac3 11ea f73f 6a38 7bdf 08c9 f0bf
00000120: 97cf b049 d2da e53f fbca ab98 fc4e e93f
00000130: dfba 1e9e b020 de3f fafa d196 d691 c23f
00000140: 67de 4cb6 4211 ed3f 3519 5267 a18f cfbf
00000150: cb4e afab 223e e23f 1f41 7940 15d8 e7bf
00000160: a326 42da 5dda b33f ffb5 418c 29e9 eebf
00000170: 90c1 3f1d 7359 f5bf 4da3 02d9 c2bb c7bf
00000180: 366b f344 b3cc 0040 2903 9921 d49a e8bf
00000190: a8e6 0d18 2b0c f53f 5555 f1a7 9492 eabf
000001a0: a461 1250 3813 d83f a833 753c c820 f43f
000001b0: bf35 77fb ed0c ef3f 2ba9 3cf5 3c89 e83f
000001c0: 42fb 6c01 cfad de3f 8884 578d fda9 c33f
000001d0: d568 e103 47c6 f83f 4b06 31a2 1fc0 ed3f
000001e0: bd52 8db8 89c2 e03f a54a 49a5 44f4 dc3f
000001f0: 12ff e569 9ce7 c33f 5ed5 fccd b002 e73f
00000200: 45ab 15e3 377c f43f eadc c5a9 61f9 f8bf
00000210: 8e61 8e3a d444 db3f 1582 4a94 e9c2 b83f
00000220: a9ad 9f6a a38e e43f 8e7f e378 b637 f3bf
00000230: faa4 4d32 d734 b23f ba6c 4cf8 14b4 fd3f
00000240: 0b46 6aaf 8cfd ec3f 0119 2087 8b1e 9b3f
00000250: 6e45 ddf0 a2b6 e0bf 7acc 049a c78b ea3f
00000260: 9607 0f4d c5e9 e63f da91 2cc6 e5aa c6bf
00000270: c799 03bd f58e e63f c9fc 4d13 5d8d dcbf
00000280: 3ed4 5a57 5c62 cfbf 1c2c 6942 2366 d83f
00000290: 5984 bf1a 8b65 c33f ab29 885e 0d97 f43f
000002a0: def8 9489 f886 79bf 1ef8 7923 509a c73f
000002b0: 4a9c e02a d746 fb3f f54f 2428 a918 db3f
000002c0: 3147 6cb8 6d79 e2bf b046 37a4 f05a f53f

threshold_noise_fp f8 [3]
0.02666987966235526 0.12005554710595923 0.10741024717353115
00000000: c895 c053 594f 9b3f f002 86d8 f5bb be3f
00000010: 7c97 ddea 3c7f bb3f
