experiment_pretrained/yin_yang_hwAware_W/epoch_300/yin_yang_network.pt (torch, 12599 bytes, 4 tensors)

weights f8 [20, 30]
000000 cf c3 4c d0 bd a0 e0 bf cd cc cc cc cc cc 00 40
       -0.5196217602116294 2.1
000010 f4 f4 3a e5 4d a2 cb 3f 3d f0 69 4c b7 29 ef 3f
       0.21589063351522209 0.973842286344286
000020 b3 b1 26 7e e0 b2 dc 3f 16 20 50 e0 56 78 e1 3f
       0.4484177810616316 0.5459398633111074
000030 c7 66 76 c7 9c b7 d9 3f f1 11 c3 bd a7 b6 f5 3f
       0.40183181265602425 1.3570935642793496
000040 18 b6 21 b0 37 3a c1 3f ad fc f9 25 44 f9 e5 3f
       0.13458915805988236 0.6866780034760233
000050 a6 b0 57 6e a2 c6 c1 bf c5 19 b6 da 67 e8 d3 3f
       -0.13887434375590607 0.3110599170544471
000060 a5 0c 4b 77 b6 79 d6 3f 14 0c 0f fb ab 90 c2 bf
       0.35117875718806096 -0.14504003294686696
000070 cd cc cc cc cc cc 00 40 ff 0f 5e f1 1c df ef 3f
       2.1 0.9959854807098053
000080 1f bd 52 2e 58 de c4 bf c7 92 e5 c0 28 cd f5 bf
       -0.1630354143321506 -1.3625876936941255
000090 73 b9 c4 43 bd 7f a2 3f 69 dd ed 2b a7 d2 d0 3f
       0.03613082363368649 0.2628572396274281
0000a0 e0 4d c5 0f ad 7f d8 3f 97 36 19 39 54 d4 de bf
       0.3827927259455617 -0.4817095334627565
0000b0 a7 e0 0f 31 36 ca fa 3f d6 07 2d 42 98 8d ec 3f
       1.6743680874333593 0.8922845165727675
0000c0 27 b2 42 ef 81 b0 f4 bf cd cc cc cc cc cc 00 40
       -1.293092665301751 2.1
0000d0 ad 0e bc 74 25 26 e1 bf d0 d9 72 f8 da a2 f6 3f
       -0.535906532284988 1.4147596077942701
0000e0 06 6f 8f a0 a9 fe c2 bf 82 47 34 62 19 5c e2 bf
       -0.1483966859803944 -0.5737425725985619
0000f0 e1 a3 f4 b6 89 da e6 bf cd cc cc cc cc cc 00 40
       -0.7141769955970824 2.1
000100 fb 29 f4 72 1b 95 d6 3f ce 32 54 42 10 40 ed 3f
       0.35285078264192266 0.9140702529417355
000110 79 ce 57 5a 4a 04 e5 3f cc 24 cd e8 ab 24 ea 3f
       0.6567737354766471 0.8169765040303445
000120 2a 00 51 30 04 04 e3 3f 0d a3 39 84 aa db f3 3f
       0.5942402785949572 1.241129414085836
000130 01 ab c9 d5 ca 98 a9 3f 45 9c 9d f3 32 ef e9 3f
       0.049993837926043845 0.8104491003149482
000140 9a 24 e6 7d 02 2a cd bf 1d 2e 3b d5 b5 ce d1 3f
       -0.22784453532611765 0.27824159453732183
000150 aa 10 09 7c fc ab e6 3f c2 3a 16 66 b0 17 b3 3f
       0.7084944174353229 0.07458021633486125
000160 cd cc cc cc cc cc 00 40 e4 3d 9e 7b 76 77 f2 3f
       2.1 1.1541657284577633
000170 07 00 74 5b ec 53 cb 3f 00 c9 0e fa e7 22 f0 bf
       0.2134986349628891 -1.0085220115548168
000180 06 f3 72 65 c1 bd 93 bf f2 bf 2b 59 a3 50 bc 3f
       -0.019278547112423737 0.11060543944381587
000190 92 bc ca 84 da 9c d2 3f 03 8d 76 f2 7d 74 d7 bf
       0.29082358329737545 -0.36648510625873615
0001a0 b9 6c 58 00 eb e5 fb 3f 12 b2 ab f9 e6 35 e7 3f
       1.7436323178761042 0.7253298641567787
0001b0 f3 3c 66 cc 31 cb f6 bf cd cc cc cc cc cc 00 40
       -1.4246080383634847 2.1
0001c0 cd 9f 47 24 78 50 e0 bf ce 99 1f 0d 2a 23 f6 3f
       -0.5098229130353445 1.383585025084915
0001d0 11 f0 2b e4 6c 95 ab bf 98 ba a4 58 8f f2 db bf
       -0.05387439999864808 -0.43667968422497827
0001e0 1e 2f 6e be 85 98 dc bf cd cc cc cc cc cc 00 40
       -0.44680923077315693 2.1
0001f0 70 33 3d 48 91 16 cc 3f aa a1 e3 39 6b 20 ee 3f
       0.2194387057046714 0.9414573794029384
000200 9b b1 ae cf bd 08 df 3f 60 e9 04 b2 7b 89 e0 3f
       0.4849085357807554 0.5167826153695323
000210 0f a0 db d6 6a e4 d8 3f bb 44 4e 42 72 c7 f9 3f
       0.38894148809640766 1.6111929502551863
000220 47 ef 7f c1 4d b2 9e 3f 8f e1 b2 2a cc 1a e4 3f
       0.02997704976586071 0.6282711824379009
000230 9e 65 67 35 b8 65 c0 bf 25 96 ea af a9 fd d8 3f
       -0.1281042347680285 0.39048235110598944
000240 73 17 7e d4 19 f5 de 3f 40 fa 9c aa 5a 60 bd bf
       0.4837097716448319 -0.11475149789200945
000250 cd cc cc cc cc cc 00 40 d0 05 77 9c d6 9a f0 3f
       2.1 1.0378023254310058
000260 8e f3 5e e4 27 58 77 3f 07 3f e5 96 63 d5 f3 bf
       0.0056993063243994235 -1.2395969290118403
000270 54 a1 ba d3 19 19 21 bf 91 f4 61 a7 f4 d9 d0 3f
       -0.0001304477717572009 0.2633029589267802
000280 d6 5d e4 7e 84 f2 d7 3f 29 29 ef 99 6b a3 d2 bf
       0.37417709724237846 -0.29122438461912964
000290 1c 2e e2 f8 8d a6 fd 3f 5a 34 ae 56 f8 f4 e6 3f
       1.8531627389919612 0.7174035733202218
0002a0 97 73 a0 01 d1 44 f7 bf cd cc cc cc cc cc 00 40
       -1.4543008864922962 2.1
0002b0 02 60 e5 a4 85 e0 d8 bf 2e 83 61 f9 54 98 f4 3f
       -0.38870373824238424 1.287190412658855
0002c0 30 01 c5 4a 9f 6b d1 bf 4c 09 ab 54 c4 11 e1 bf
       -0.27219373990739637 -0.5334188131021533
0002d0 9c d0 8f a1 44 84 de bf cd cc cc cc cc cc 00 40
       -0.4768230035545089 2.1
0002e0 44 8d 12 5b 35 3f ca 3f 4a da dc 03 d6 01 ec 3f
       0.2050539679231439 0.8752241206592057
0002f0 84 78 bb 0b 92 2f e3 3f b2 5b 8a 41 a9 e3 e7 3f
       0.5995569447657236 0.7465406684958593
000300 f9 bf 37 33 bc e1 d1 3f 81 62 e8 36 37 c0 f3 3f
       0.27940278054938933 1.234427656634722
000310 84 51 e3 6a 49 8e c9 3f c9 0f e5 a5 19 31 e2 3f
       0.19965474814547346 0.5684936752445476
000320 a3 37 69 01 51 d8 b3 bf 36 8f 7d 77 ef 5b c7 3f
       -0.07751947674225206 0.18249314627166208
000330 46 cd 50 b9 bc 55 e3 3f 1c 51 ae ae 7a 82 c5 bf
       0.6042159671255056 -0.16804441003171966
000340 cd cc cc cc cc cc 00 40 c5 45 d2 94 1f e2 f1 3f
       2.1 1.117705899556641
000350 69 32 32 df f6 de ab bf 91 69 55 07 0d ec f4 bf
       -0.054435457940688554 -1.307629612586059
000360 a0 1e 95 7f 56 85 95 bf 5f 49 69 06 2b 2a ca 3f
       -0.02101645616246961 0.20441186726618363
000370 3a 52 72 22 79 22 c9 3f a1 7d a0 d0 3c 55 df bf
       0.19636453802071846 -0.4895774876949535
000380 9b 39 b0 91 21 ac fa 3f 04 f0 6e 79 a6 34 ea 3f
       1.6670242014839463 0.8189270374055018
000390 6f 7c ed dc 67 16 f6 bf cd cc cc cc cc cc 00 40
       -1.3804701452243326 2.1
0003a0 40 ca f2 7a a6 67 d8 bf fc b4 a3 91 3d 65 f1 3f
       -0.3813263130825 1.087216919807644
0003b0 f6 7a d2 28 5b f5 b1 3f 98 2d f3 b2 6d 4f da bf
       0.07015008684764354 -0.41109793162896713
0003c0 71 05 f5 02 82 4b e4 bf cd cc cc cc cc cc 00 40
       -0.634217267776121 2.1
0003d0 f6 a2 3c 73 9d 17 c9 3f c0 dd 94 0c 2e b5 ed 3f
       0.19603317381667978 0.9283666845066634
0003e0 f0 76 3a d3 79 19 e2 3f 48 48 58 a4 36 6f e1 3f
       0.565609848552155 0.5448258600101861
0003f0 4a a5 7e f0 87 96 c6 3f 77 c0 58 dc db bc f6 3f
       0.17646884196191542 1.4211081130306675
000400 84 e5 91 49 b9 05 b9 3f a9 fd 27 fd f7 eb e5 3f
       0.09774358793392507 0.6850547737557707
000410 68 ba b2 d4 24 f5 c8 3f d6 b1 9a c7 d5 a1 cb 3f
       0.19498119722034635 0.21587631460478346
000420 9e 42 a9 dd 13 b5 e2 3f b4 24 fb 92 65 9c bd bf
       0.584604199344614 -0.11566767538455985
000430 cd cc cc cc cc cc 00 40 05 82 f2 e6 e3 af ef 3f
       2.1 0.9902209768952736
000440 97 69 2e b5 e1 85 a2 bf 6d a8 0d 2d 5b 63 f0 bf
       -0.036177686087472676 -1.0242568740746052
000450 28 4d 80 ec 22 77 cb bf f1 b2 af f5 d1 98 c2 3f
       -0.2145732550421624 0.1452887010231261
000460 82 f4 1c 22 2b a0 d7 3f 1f 92 81 cc 11 e7 d3 bf
       0.369150908769207 -0.3109783646707757
000470 4a 2f 1d 4c f2 13 fa 3f b6 25 b5 cd 16 cf ea 3f
       1.6298697446063266 0.8377794282652562
000480 f3 6a 1e 5b e8 0e f5 bf cd cc cc cc cc cc 00 40
       -1.3161395606354602 2.1
000490 ec 4f 7a 39 8d 09 d7 bf 04 1b 81 33 2f 4c f2 3f
       -0.35995798695625925 1.143599702061409
0004a0 3c ea 90 02 8e c0 b6 bf d4 c8 10 08 75 21 e2 bf
       -0.0888756519570188 -0.5665841252832942
0004b0 93 45 13 28 94 ca 00 40 e8 37 39 74 dd 41 f2 3f
       2.0989153986817626 1.1410803356152375
0004c0 2f 3b 9c 23 aa 45 f4 3f 44 b1 97 86 1f 01 cd 3f
       1.2670079604174125 0.22659677574064052
0004d0 b4 7c 24 10 18 dd fe 3f 76 3e e2 00 f7 89 d6 3f
       1.928978026444196 0.3521707066183589
0004e0 f8 58 40 31 ba 87 f6 3f 2f 0f f3 ce 2a 88 cb 3f
       1.408136551273456 0.21509299378350863
0004f0 f8 1c 93 db f9 85 ed 3f da 1d 4e e3 ca e6 df 3f
       0.9226044930045694 0.4984614581848895
000500 79 f0 33 70 fc d7 fb 3f c2 47 5f cc 38 20 fa 3f
       1.7402309782910648 1.6328666671074505
000510 e6 d5 bb 8c 1d e8 fd 3f 2f c1 be ef 2f b7 f9 3f
       1.8691688058291844 1.6072234501880975
000520 c0 6d d4 b3 c5 4f f6 3f 35 79 70 05 55 b6 f0 3f
       1.39447565313354 1.0445146763300504
000530 4b f5 87 e2 d2 95 e6 3f 9a 95 a1 55 54 c6 00 40
       0.7057890343127523 2.0968405427872314
000540 57 cc 7b b8 95 26 f7 3f 7b 7c 23 3e 32 e5 f3 3f
       1.4469201284780604 1.2434561183252117
000550 da 95 dc 4e 8e ff e5 3f 33 ac d6 55 a9 c3 00 40
       0.6874457874552562 2.0955378252160926
000560 7f c4 20 64 59 41 f1 3f d9 9f e0 f3 9e 39 f6 3f
       1.0784543906450208 1.38906760468125
000570 3c c4 c2 03 a3 c3 00 40 9d d8 ab dd ba fc f2 3f
       2.0955257695973426 1.186701646712698
000580 71 1c 14 05 f2 df f6 3f ff d8 50 23 dc ba ad 3f
       1.4296741674786768 0.05806625300503931
000590 1d 04 12 34 64 f0 f7 3f cd cc cc cc cc cc 00 40
       1.4961893114089044 2.1
0005a0 93 45 13 28 94 ca 00 40 1e a2 e6 01 2e f7 ec 3f
       2.0989153986817626 0.9051733052375004
0005b0 e3 42 0d 6e e3 66 f6 3f 9f 16 50 96 e4 27 d2 3f
       1.400119237794734 0.2836848705195311
0005c0 b4 7c 24 10 18 dd fe 3f ae fd 35 7c 7c ac c7 3f
       1.928978026444196 0.18495136322961286
0005d0 3c 92 ab 97 24 8f f6 3f 8c b5 98 c3 40 e2 9b 3f
       1.4099470066659157 0.02723027414156358
0005e0 fc a2 e8 a6 43 df e2 3f 17 4e 0b 01 61 07 e3 3f
       0.5897539386688488 0.5946507473367458
0005f0 ff d7 09 5c be f8 f8 3f ac 4a a0 13 02 47 f7 3f
       1.5607284159900698 1.4548359648366995
000600 e6 d5 bb 8c 1d e8 fd 3f 77 ef ea ed 88 bc f9 3f
       1.8691688058291844 1.6085290235195921
000610 f2 12 19 e2 38 b5 f3 3f b2 f2 4c f4 7a 50 ec 3f
       1.231743701167201 0.8848242541785878
000620 b9 c1 74 5d 13 1f ec 3f e9 49 f8 c3 44 5b fd 3f
       0.8787934136690218 1.8347823767732
000630 c9 fc a2 3d 8c 45 f9 3f 4d 9f 5c 00 50 8a f8 3f
       1.5794794471437845 1.533767701543144
000640 62 e5 6e c7 f6 9a e7 3f 35 9c 0c d1 ba 06 fc 3f
       0.7376665015391775 1.7516430059420263
000650 a7 05 d4 4d e9 ff ec 3f 87 7f 98 88 1b 57 fb 3f
       0.9062391777117015 1.7087664924401638
000660 3c c4 c2 03 a3 c3 00 40 bd 8f 4a a3 10 48 f5 3f
       2.0955257695973426 1.3300939920963935
000670 71 60 d3 89 50 bd f6 3f eb 5e 08 26 a8 ac c8 3f
       1.4212193855110196 0.1927690683084998
000680 7f 34 f9 c7 03 dd f8 3f cd cc cc cc cc cc 00 40
       1.5539586841071296 2.1
000690 bf 40 9b 6f 13 0e 00 40 32 bb 4a 3b 1f a5 ee 3f
       2.006873008656924 0.9576564939542094
0006a0 5d eb 25 83 4f a1 f8 3f b5 f4 e1 bf e5 5d d4 3f
       1.539382469460825 0.31823104609049874
0006b0 b4 7c 24 10 18 dd fe 3f 88 56 74 f6 dd 95 d1 3f
       1.928978026444196 0.27477215831582
0006c0 fc b9 b6 62 b7 a6 f5 3f 44 88 8c f2 b2 b9 d1 3f
       1.3532022338873722 0.2769591683046466
0006d0 a0 00 8d 55 cc 60 ea 3f 39 e5 99 c8 4d 97 e0 3f
       0.8243161841310389 0.5184697072974479
0006e0 5d b8 18 e2 8e 1d f7 3f 68 d2 60 66 4b 5c fa 3f
       1.444716342153263 1.647532844462285
0006f0 e6 d5 bb 8c 1d e8 fd 3f b1 26 f3 3f 49 2f f7 3f
       1.8691688058291844 1.4490444658317012
000700 e6 c7 5d 70 20 fb f5 3f 1d 5f ab 3a 48 e5 f2 3f
       1.3738102330503295 1.1809770862364026
000710 b9 73 33 be 95 46 e9 3f 87 98 b3 16 d9 45 ff 3f
       0.7898663248885135 1.9545527350215097
000720 5b cc 9a c7 c3 4f f7 3f 31 2f 0e 69 69 80 f9 3f
       1.4569738194520798 1.5938505271651133
000730 8e a3 d2 12 69 3f e3 3f 55 3f 03 28 ea 17 00 40
       0.6014905326493236 2.0116770864478135
000740 a3 f8 01 d9 4a 07 ee 3f df 6e 21 d2 0e b8 f3 3f
       0.938390182345547 1.2324360092379079
000750 3c c4 c2 03 a3 c3 00 40 65 da 59 20 37 f1 f5 3f
       2.0955257695973426 1.3713904632292266
000760 5f 3b 50 ba db bd f5 3f 63 3e 80 1b 6b 47 c5 3f
       1.3588521268718166 0.16624201624698562
000770 b5 51 7a 49 76 84 f9 3f cd cc cc cc cc cc 00 40
       1.594839369795506 2.1
000780 93 45 13 28 94 ca 00 40 84 5e 35 06 4d 96 ef 3f
       2.0989153986817626 0.9870972749003646
000790 b5 d9 0c 8e b1 cc f8 3f da d7 47 82 fd 66 ae 3f
       1.5499740170322245 0.059379503396413916
0007a0 b4 7c 24 10 18 dd fe 3f 1c 22 f3 e7 2e aa d3 3f
       1.928978026444196 0.307262159837167
0007b0 40 0c e1 3a 10 9b f9 3f d1 e5 d3 10 44 d2 cb 3f
       1.600357275005777 0.21735430547395976
0007c0 bc a3 ee 46 95 05 e8 3f 89 e8 c6 26 35 cf db 3f
       0.7506815324205642 0.43452194964232455
0007d0 2b 89 78 1e 52 ec f8 3f 40 9f 2e 6c 0c ea f9 3f
       1.5576955023066812 1.6196407533515895
0007e0 e6 d5 bb 8c 1d e8 fd 3f 03 02 66 0f 73 ed f8 3f
       1.8691688058291844 1.557971058035151
0007f0 99 59 a0 97 20 c8 f1 3f ab 0f fa c8 db 2e f5 3f
       1.1113592074303595 1.323940072122222

threshold_noise_fp f8 [30]
000000 b8 7c f6 30 48 d6 a8 3f 42 10 09 d6 1f 07 c6 3f
       0.048509841896924255 0.17209241820285298
000010 59 ea 2e c5 d2 ff d2 3f 03 fd d8 af ed 01 c2 3f
       0.29686421638658583 0.14068385206517328
000020 3c 85 65 a4 9d 88 a3 3f 08 63 ce 66 3e f4 ca 3f
       0.0381516707591438 0.21057872791131893
000030 aa 7a 03 d4 ef b0 b7 3f d2 45 96 c6 7c 43 cd 3f
       0.09254359174836205 0.2286220521605587
000040 80 2b aa f3 d1 29 bf 3f 8e 76 78 58 c4 8e cc 3f
       0.1217318744549356 0.22310690231181635
000050 8c ab 3e 48 ed 4c cc 3f 20 72 c9 90 0b 23 c7 3f
       0.22109762218073248 0.1807569939582132
000060 20 1d ad 85 fc 91 ac 3f f3 d7 a4 08 d1 74 c5 3f
       0.05580128795423378 0.16762745782915509
000070 aa 49 e3 00 51 5f b6 3f 1c c8 09 74 6c cd b8 3f
       0.08739191314388131 0.09688451607669929
000080 e0 d0 43 de 0e 4b 8c bf 97 3d 44 e1 dd bc d2 3f
       -0.013815036924349433 0.29277750967681854
000090 e6 8d 45 02 fc 20 c5 3f 77 6e 1b 59 fb 59 c6 3f
       0.1650691042988079 0.17462102747855443
0000a0 40 2e 68 b0 5d 68 c7 3f 56 6f 1a 1e 3f ea d2 3f
       0.1828724967348183 0.29554727496883026
0000b0 dc 7a 19 33 c5 e6 a3 bf ec 14 62 bc db 3d cf 3f
       -0.038870012748466215 0.24407526682276826
0000c0 08 03 87 c6 30 9f cd 3f a6 84 e5 95 72 5c c4 3f
       0.23142060941429343 0.1590712768475317
0000d0 ca 74 82 b9 8d b6 ce 3f 88 fb 4f fb 05 36 c5 3f
       0.23994609411321327 0.16571116229166827
0000e0 82 06 24 b7 ed 3d b6 3f 8c 8b 45 73 89 66 cb 3f
       0.08688245507439699 0.2140666783189683

weights f8 [30, 3]
000000 08 88 2d 21 d4 9e f1 3f 6b aa 8b ac 84 3b f1 bf
       1.1012765213022266 -1.0770308246671003
000010 72 8f c8 12 0d 11 e1 3f 03 df de 78 79 1f e7 bf
       0.5333314291824378 -0.7225921021226615
000020 cd 1a 88 e1 36 7b e5 3f 3f 18 f1 7b 68 2e f1 3f
       0.6712908177294935 1.0738301125980028
000030 bc 15 72 a1 65 81 ec 3f 68 9e 26 3f e3 87 df bf
       0.8907955315814244 -0.49266892592502254
000040 82 90 09 36 77 ad ef 3f 65 e2 28 ab f2 80 df 3f
       0.989925008336755 0.49224535670103925
000050 c9 a4 d6 53 24 05 e3 3f 5a 4d 03 91 e4 3e eb 3f
       0.5943776738614811 0.8514273483546433
000060 ff c8 1a 42 5f ae e3 3f f2 1e 7a e5 54 5e ee 3f
       0.6150356570344967 0.9490150911305746
000070 07 1d 7a 8b 1d 33 f9 bf 67 8c 4e b6 a8 d5 e1 3f
       -1.574979348022511 0.5573314247780105
000080 56 d1 b4 ca 2a 97 f2 3f 66 05 75 c2 a8 43 e7 3f
       1.1619060438361735 0.7270091817846775
000090 dc 36 52 4d a8 50 ed 3f 43 a2 6c f9 03 32 e1 3f
       0.9160958776644423 0.537355410725532
0000a0 55 be af 10 58 0b b0 bf 75 03 d5 25 3f 38 f5 3f
       -0.0626730957735558 1.326232097417429
0000b0 df e1 d3 e9 d2 3f d7 bf 9e 08 2a 6c 4c 82 c6 bf
       -0.36327050051434456 -0.17585139543013367
0000c0 08 9f 8c e1 f3 2b d4 3f f6 06 15 6b d0 39 e3 3f
       0.31518265749262797 0.6008073893974302
0000d0 ae 14 35 e6 d0 16 f4 3f c7 76 dd 0d 43 f9 e0 3f
       1.2555703155970082 0.530427481727849
0000e0 52 cf 2c ec 19 65 e0 3f 13 30 2d 61 4a cf a7 3f
       0.5123414624017448 0.046503376352660684
0000f0 e0 03 11 db 95 02 f3 3f 08 55 2b b1 9e 86 de 3f
       1.1881311948093227 0.4769665460747352
000100 74 ee 97 a6 b3 49 b4 bf 64 98 2b dd 5f d0 ec 3f
       -0.079249599621045 0.9004363364918047
000110 60 93 1f a3 85 0c e9 3f 99 b5 a7 2d 61 38 b4 bf
       0.7827785669329437 -0.07898528446795296
000120 47 dc 19 88 3a e7 e0 3f 0b c4 de e6 fe bc e0 3f
       0.5282261522505757 0.5230707654174024
000130 7f 6e 0a 3c 89 c3 ee bf b6 1b 8a 8b 6d f0 f3 3f
       -0.9613691494627828 1.2461982203255793
000140 6a 59 4d 8e 0a b5 e6 3f 8a 28 34 8a 8d 24 a0 bf
       0.7095997599924833 -0.03152887641961495
000150 72 ee b7 1c 96 5a eb bf 3b 15 1b 85 bb ac e2 3f
       -0.8548079071910719 0.5835855102274431
000160 76 8e b1 47 9b 43 f2 3f e6 d2 3c 8b 7c 4b d3 3f
       1.1415055084734411 0.30148233029767224
000170 92 95 e0 2b 5c 3e f0 3f da 2b 9d d7 26 a3 da bf
       1.0152246202427233 -0.41620799118089524
000180 70 23 49 40 8b 48 d6 bf ca 19 4b 86 d6 d3 cf 3f
       -0.34817773130321594 0.24865228230755881
000190 75 a9 22 cd 8a c7 00 40 23 69 e9 08 ef fc f3 bf
       2.0974327112391458 -1.249251398860516
0001a0 f7 ba f2 e0 3a 16 ee bf 14 58 66 1e ea 12 c4 bf
       -0.9402136224287848 -0.15682722553600625
0001b0 f4 fd 87 d6 81 8c f0 3f cb 5f 88 cd 85 36 e5 3f
       1.0343035106778844 0.6629055990515494
0001c0 4f d2 5e 1b 7a 8e b5 bf d3 2a 4c c9 48 67 f1 3f
       -0.08420527618620464 1.087715898817511
0001d0 61 87 fe 9d 44 40 eb 3f bb a6 d1 02 95 2d d3 bf
       0.8515952192139872 -0.29965710902488824
0001e0 91 e7 89 6d d2 a8 f0 3f 24 73 2f 2b 5c 3d f0 3f
       1.0412163046698633 1.0149804770400772
0001f0 0e 89 c3 1c 13 20 e8 3f 9b bc 98 f9 7e 1f f4 bf
       0.7539153634827771 -1.2576894521587636
000200 cd cc cc cc cc cc 00 c0 16 6c e7 b7 16 89 ed 3f
       -2.1 0.922984465777861
000210 60 df 0d 41 5f 29 e2 bf bb 35 13 24 51 53 f0 3f
       -0.5675503035154001 1.0203410538846203
000220 06 59 be 83 4a 1a e8 3f 42 d0 49 98 48 fc e7 3f
       0.7532093594661837 0.7495463346845173
000230 3e a5 d0 48 92 ba e6 3f b8 6b ef 50 2a 61 e1 bf
       0.710274831978644 -0.5431109982267719
000240 c8 17 f2 f7 6c 8e fa bf 87 18 c6 82 75 6a f4 bf
       -1.6597718892457909 -1.2759909733154318
000250 e9 28 fa 88 2f b1 e9 3f a6 6a 38 db e6 ec ed bf
       0.802879111798828 -0.9351686746261592
000260 b8 3a a0 ee 6c 42 ec 3f 7a d8 a0 6b 41 3f eb 3f
       0.8831085835134536 0.85147162457612
000270 31 4e 93 27 35 ba fb bf 65 8a f0 73 99 07 ca bf
       -1.7329608484186674 -0.20335691605676512
000280 d7 f1 f2 59 85 34 e4 3f 90 aa 14 39 52 bd f2 3f
       0.6314112431351145 1.171220992061226
000290 25 f8 96 ad 28 98 d9 3f a4 ee a2 68 a4 58 cf bf
       0.39991204216119264 -0.24489264592363214
0002a0 a3 fb ac 36 65 2c d8 bf d8 8c 16 93 48 be f4 bf
       -0.3777096780722166 -1.2964559312466033
0002b0 6f fe 3b a6 90 cc 00 40 f4 bd da c9 d9 93 f9 3f
       2.099885271745556 1.5985963711681253
0002c0 8b ce a7 26 68 ac d0 3f d5 98 78 f8 67 d8 cf bf
       0.260522878407962 -0.24879169113518765

threshold_noise_fp f8 [3]
000000 ca 9a e9 5b 68 a9 cb 3f 4e e8 45 ee cb 0d aa 3f
       0.2161074112693398 0.05088650973898777
000010 59 af 49 da e4 1e c5 3f
       0.16500530870996036
