experiment_pretrained/yin_yang_hwAware_W/yin_yang_untrained_network.pt (torch, 12827 bytes, 4 tensors)

weights f8 [20, 30]
0	0x3ff071005f23ad7e	1.0275882450467573
1	0x3ff024a80b313946	1.008949321479649
2	0x3fecada9bf9cf57e	0.8961991064494865
3	0x3ff011edc2a5d4dd	1.004377136557472
4	0x3fea9907ea6645f3	0.8311805322757081
5	0x3fec53a850c2014e	0.8852120950032629
6	0x3ff123f5dc5b2373	1.0712793929726245
7	0x3fee1ba48537119c	0.9408743478639283
8	0x3ff1f3eef09a7c36	1.1220540426800318
9	0x3ff11ac8d1cbbed8	1.0690391726638406
10	0x3fef2589f30a45dd	0.9733323809506903
11	0x3ff0e87e11555b3a	1.0567608525359007
12	0x3fec19b8066ea1d7	0.8781395078304354
13	0x3fec3a1817627090	0.8820915657738784
14	0x3ff1e1f5e1b55b63	1.117666131661928
15	0x3fefcc7629a34920	0.9937086880911785
16	0x3fec1116ecc92b61	0.8770861267779361
17	0x3feb6ce462d651c7	0.8570424967206741
18	0x3ff12782766e4858	1.072145903225211
19	0x3ff1bcdda735525a	1.1086098224233383
20	0x3ff1619d3b42080a	1.0863315882456868
21	0x3fe99e6c7048ad5f	0.8005888169331391
22	0x3fed5d2a8b9f6df6	0.9176228262908228
23	0x3ff20bc51c33602a	1.1278735257710744
24	0x3ff0bc1c0449dc67	1.0459251563568388
25	0x3fef6933b5dafc77	0.9815920402396746
26	0x3fec992359162bb1	0.8936936130497682
27	0x3ff483699db09697	1.2820831451184966
28	0x3fee1477d406840a	0.9399985448000063
29	0x3feec4a2195f3848	0.9615030761285732
30	0x3feaa834d79f7b07	0.8330330096613076
31	0x3ff070d956bff060	1.0275510204947054
32	0x3ff087d1ffe426ad	1.0331592555761901
33	0x3fee3a347b35ec1b	0.9446051031549162
34	0x3ff0a1f102d55de6	1.03953648669073
35	0x3ff27ffeac9f8300	1.1562487357224995
36	0x3ff43810c2a609ed	1.2636878589115625
37	0x3fea65aa122433c0	0.8249101976704125
38	0x3ff0996e514492b6	1.0374587225461886
39	0x3ff315c0389d8eb1	1.1928102695027685
40	0x3fec4cb1ef26a8e9	0.8843621893804797
41	0x3ff062118ff6a053	1.023942530018776
42	0x3ff3c46ca3691651	1.2354551680777102
43	0x3ff1a09c91747d75	1.1017118150556062
44	0x3ff1e25cb6f3a726	1.1177642008355604
45	0x3ff26e2317c0da6b	1.1518889358391344
46	0x3ff40ed4079d6d7a	1.253620176072984
47	0x3ff360b2f841f2ad	1.2111081788599833
48	0x3ff0448d86ba56c3	1.0167365324791013
49	0x3fee9a7c23992e03	0.9563580222397267
50	0x3fefd1d13106c76d	0.9943624455975005
51	0x3fed4e57939a022c	0.9158132441371598
52	0x3fef94942a308618	0.9868870567335675
53	0x3feebfd8efe56a71	0.9609188733550821
54	0x3fed42d84e4ca36d	0.9144097832951111
55	0x3fed969c1a52a476	0.9246349825017564
56	0x3fed6ed0a98a9aa9	0.9197772322994143
57	0x3ff403b8b25d569a	1.2509085624091427
58	0x3ff08d65b6f3d05a	1.0345208307817502
59	0x3ff193b9e7a0913d	1.0985659645021564
60	0x3ff19b3dd7ae83a3	1.1004007744852309
61	0x3ff2b9ab60877cfc	1.1703294535325872
62	0x3feccaba985d8517	0.8997471786389352
63	0x3fef1a8f72c55b00	0.9719922296161201
64	0x3febc3f6932a45e1	0.8676712869948312
65	0x3feb64cd2276ca99	0.8560548470616879
66	0x3ff0ef29603471c5	1.058389068413008
67	0x3ff3494a6b96ce51	1.205393238324991
68	0x3ff04771319c450b	1.017441934386002
69	0x3ff02b8cd4283148	1.010632351625718
70	0x3fef7dc48146589b	0.9841024899385674
71	0x3ff22dce86a27a4a	1.1361832865874413
72	0x3ff02bb4da84139c	1.0106705222872057
73	0x3fed3237c0d29447	0.9123801008287352
74	0x3ff0c47a998337e4	1.0479684826454951
75	0x3ff091833899a250	1.0355255328123754
76	0x3ff0bbaea4134c46	1.0458208474344857
77	0x3fef5c6eb6d6f923	0.9800332614029553
78	0x3ff092fbc38184bc	1.0358846318197683
79	0x3ff1beb106125824	1.1090555417226904
80	0x3ff13e531709cc0c	1.0777159595425045
81	0x3fefb6e0bfddb425	0.9910739657767677
82	0x3ff18aed0da20457	1.0964174778494191
83	0x3fee7eea4ce7ecb0	0.9529925825185241
84	0x3fec4f99e3d83627	0.8847169351662999
85	0x3fee44a15d108983	0.9458777253787932
86	0x3ff0a782fdafc537	1.0408964070923739
87	0x3ff278e39e9f3ffd	1.1545139499830832
88	0x3fea1e5296c7df0c	0.816201490873
89	0x3ff0077b93743b49	1.001826835624984
90	0x3ff1204e1ee61b44	1.070387001703879
91	0x3ff2ad3f8f644723	1.1672969437826815
92	0x3fec54e39d12db99	0.8853624408574091
93	0x3fecfbfa3cbe93be	0.9057589708723908
94	0x3fef6f29b70e65ab	0.9823196959798016
95	0x3ff15f7d58fe1e72	1.0858129001880141
96	0x3fee5cfb6e96f371	0.9488503608659881
97	0x3fea2ec37781b2b2	0.8182084402192997
98	0x3ff2fe7127f2af9a	1.1871196327656208
99	0x3fee6d67238290e7	0.950854844432368
100	0x3ff08e1437398582	1.0346872479643427
101	0x3fedb3c4132f0d5e	0.9281940817531156
102	0x3ff2194cc20cf48a	1.1311767177678882
103	0x3feb7da46a7a9f37	0.8590871886890231
104	0x3fee1faf2f846696	0.9413677146978496
105	0x3ff1d8cc30f4e241	1.1154291069380096
106	0x3fef8abd8a6ab76f	0.985686083169396
107	0x3fed2f1bd5f6a406	0.9120005778287357
108	0x3ff03d6f3251ce13	1.0149986234290551
109	0x3ff0cd793d070425	1.0501644500620924
110	0x3feccc02373dfdc0	0.899903400320845
111	0x3fe95df8248509e0	0.7927208627009428
112	0x3fed21014ce01fe4	0.9102789403414104
113	0x3ff0df4c37d45441	1.0545160466038086
114	0x3feeac6c2d3e245c	0.9585476764342604
115	0x3feef6988509cf8a	0.967602023926234
116	0x3ff0c5bac82c6aa9	1.0482738322522585
117	0x3fee8b986dc2e3da	0.9545404571318798
118	0x3ff28966d0a2578f	1.158545317628043
119	0x3ff1fc82510cf47f	1.124147717098168
120	0x3fed373c8b9f197e	0.9129927374822697
121	0x3ff024eb2d318306	1.0090133443229106
122	0x3fec0afda31d611a	0.8763416467509473
123	0x3feeaf524576971e	0.958901534719846
124	0x3fee59117e8d6423	0.9483725997662343
125	0x3fec4a8814ca2982	0.8840980917023418
126	0x3feb11bf511abcdc	0.8459164222785165
127	0x3ff0140661313749	1.0048888966152438
128	0x3ff15d038f2f63c6	1.0852084725540734
129	0x3ff11422bd62bf5a	1.067415942943589
130	0x3ff4ea3de1e6704e	1.3071879219269422
131	0x3feec53da7365613	0.9615772500862384
132	0x3ff1c8f854392f2d	1.1115649499869946
133	0x3fed2ab663c6cef9	0.9114639233361849
134	0x3ff17c42e2a4115b	1.092837224307991
135	0x3fef9d3d1f37bb14	0.9879441842766448
136	0x3ff010276e8579fd	1.0039438550226116
137	0x3ff3203fc5431340	1.195373316340195
138	0x3fea49405d8031a9	0.8214418245493579
139	0x3fefb69c35dfa2b2	0.9910412838190352
140	0x3ff129bcbfd7f1b9	1.0726897710693335
141	0x3fef150da6947f9b	0.9713199857251199
142	0x3febf0a2c1ba0b20	0.873124483463787
143	0x3ff12c8461f76f1d	1.0733684374635637
144	0x3ff05db5986e23a0	1.0228782610231306
145	0x3ff2867ba08e4e1e	1.1578327438081781
146	0x3ff11d41188a8944	1.0696421583785005
147	0x3ff02cbdd8bed7e4	1.010923239385641
148	0x3feffc107bd8426e	0.9995195788233795
149	0x3feeff467382b6fb	0.9686615234438415
150	0x3ff191febd1359f4	1.0981433282628332
151	0x3ff103663def2a5e	1.0633299273782977
152	0x3fe64017fe4e619d	0.6953239409368056
153	0x3ff048e164b5aa5e	1.0177930768938022
154	0x3ff1c2e30ae49c6a	1.110079805899455
155	0x3ff185bd061e85e2	1.0951509703667104
156	0x3fee56d057281d93	0.9480973913459131
157	0x3fef79318ddac086	0.9835441370578486
158	0x3ff2f7d4d46af366	1.18550570464796
159	0x3fef49b0c51cb4b7	0.9777454233023012
160	0x3ff4eb8c0667fc0f	1.3075065851442138
161	0x3feff23eadf95ebf	0.9983209035808257
162	0x3ff059e448750de9	1.021946223293407
163	0x3ff2a734e8c895dd	1.1658219426257042
164	0x3ff188a668303078	1.0958618230679615
165	0x3ff012e461835cc1	1.004612332258873
166	0x3feba246a75a798f	0.8635590809461052
167	0x3ff115af022f8f37	1.0677938542730325
168	0x3feefa8033df0e09	0.9680787098990901
169	0x3fe8d578720c9b15	0.7760584094547506
170	0x3ff0a8a4fd7b2b68	1.041172971878689
171	0x3ff0bf4925f5af81	1.0467006190110342
172	0x3ff0fb2f46100e36	1.0613243805718304
173	0x3fed757229b6691c	0.920586663694198
174	0x3ff32cd33c255966	1.1984436368416822
175	0x3fef0fb13d173557	0.9706655686547191
176	0x3fedc9b22128e3be	0.9308710715914612
177	0x3feccd74593e7c0c	0.9000798934029048
178	0x3fee12553fff4252	0.9397379159873458
179	0x3ff1006fbb2d565c	1.062606555138152
180	0x3fecbce44966a082	0.8980580743418758
181	0x3fea7a3f95528678	0.8274228970005444
182	0x3fea828a93307118	0.8284352183141293
183	0x3ff132b69976b9e7	1.074881171672695
184	0x3ff4ca8ff9f36e71	1.2994537128169237
185	0x3fedb19daad96bf5	0.9279316269779644
186	0x3fee65a523fe901a	0.9499078467383726
187	0x3fe97638e03ac27e	0.7956814174159061
188	0x3feb48f3742b6cb9	0.8526551503122369
189	0x3ff12ed62a407a18	1.0739347124541663
190	0x3ff20c4df23de396	1.128004022843219
191	0x3fea3fd13c7b6489	0.8202902013100736
192	0x3ff0f23b955c05ee	1.0591388544420357
193	0x3ff2ac8de6f4c426	1.167127515957199
194	0x3feddc332ce9ab4c	0.9331298711016216
195	0x3feb0999ac72b992	0.8449219101074041
196	0x3ff095c39123a302	1.0365634603023755
197	0x3fe8bbccb6f008df	0.7729247639656726
198	0x3ff19c369f16b778	1.1006380285648145
199	0x3ff10fd9fb3f7072	1.0663699926726875
200	0x3ff1765939c4532a	1.0913936859626099
201	0x3fe56e4ad4ffc351	0.6697134170663991
202	0x3fec739511b29985	0.8891091676385235
203	0x3ff3d835a9931400	1.2402855514530984
204	0x3fee4097999877ba	0.9453847885049449
205	0x3ff1d32e642a51c5	1.114057914038413
206	0x3fed846f2aa76bbc	0.9224162896238037
207	0x3ff08e785045c313	1.0347827087063635
208	0x3fefeb9467cda313	0.9975072886855706
209	0x3fead7a63c8266af	0.8388243848632636
210	0x3fe802cd8abf4329	0.750342150679079
211	0x3fec2830ceb69f87	0.8799060857172528
212	0x3feef762bd61c24b	0.9676984499802271
213	0x3ff1c036e3db3170	1.1094273472436633
214	0x3ff1e27af24bf25b	1.1177930321420237
215	0x3ff048b6c3830be3	1.0177524220641707
216	0x3fec94caba14df99	0.893163073959829
217	0x3ff0ba0029b22084	1.0454103115789914
218	0x3ff1653e1167e52b	1.0872173957744262
219	0x3fefed991c0f8b33	0.9977536724148649
220	0x3ff0311e784cc3f3	1.011991949006412
221	0x3ff03531f0fe3a05	1.01298708093566
222	0x3fee797c818889ae	0.9523298768947848
223	0x3ff01f4e38fcfb60	1.007642958269308
224	0x3ff1340124b98a9e	1.075196402984751
225	0x3ff241d796be42b4	1.1410747421652276
226	0x3fee53098305f805	0.9476363715218673
227	0x3fec90f55c66a604	0.8926951222139796
228	0x3fef4cdc521d0e14	0.9781324008731098
229	0x3ff205f363f1003f	1.1264528182946518
230	0x3fee9124beec6488	0.9552177170727569
231	0x3fedc07dd2f38831	0.9297474975721852
232	0x3fed7af69ce08c58	0.9212601722723646
233	0x3fe87251e6380728	0.7639550682508558
234	0x3ff0a57133db6f95	1.0403911615057713
235	0x3ff27c54e1399c6e	1.1553543851712464
236	0x3feb85858ba1218f	0.8600490309845997
237	0x3ff021d0aef4bf03	1.0082556566448495
238	0x3ff09d3cb567eebf	1.0383879743739468
239	0x3ff03d1bf44812c3	1.0149192373511802
240	0x3ff267232061a166	1.150179983606074
241	0x3fed195e99a1431b	0.9093468666634154
242	0x3fef4e26d32f9efc	0.9782899975516268
243	0x3feb37eabfe9e5f5	0.8505758045495769
244	0x3feea4ba8f0d7a3f	0.957608489417744
245	0x3ff0cdcaffe2bec9	1.050242423585518
246	0x3ff23ebe3534c214	1.1403181150782347
247	0x3fef8bb7de52f632	0.9858054487483001
248	0x3ff037a28a18b6ba	1.0135827440639518
249	0x3fed3de5e6d91a0d	0.913805914759736
250	0x3ff1ffe1b4ac94c1	1.1249711091598302
251	0x3fef85e5ed980dba	0.9850949898249646
252	0x3ff12921c9e0c9c6	1.07254198893189
253	0x3ff1dd78086fd6b2	1.1165695504727577
254	0x3fea020297f838dd	0.8127453773647876
255	0x3ff48b6b250cf341	1.2840377280510469

threshold_noise_fp f8 [30]
0	0x3fa8d64830f67cb8	0.048509841896924255
1	0x3fc6071fd6091042	0.17209241820285298
2	0x3fd2ffd2c52eea59	0.29686421638658583
3	0x3fc201edafd8fd03	0.14068385206517328
4	0x3fa3889da465853c	0.0381516707591438
5	0x3fcaf43e66ce6308	0.21057872791131893
6	0x3fb7b0efd4037aaa	0.09254359174836205
7	0x3fcd437cc69645d2	0.2286220521605587
8	0x3fbf29d1f3aa2b80	0.1217318744549356
9	0x3fcc8ec45878768e	0.22310690231181635
10	0x3fcc4ced483eab8c	0.22109762218073248
11	0x3fc7230b90c97220	0.1807569939582132
12	0x3fac91fc85ad1d20	0.05580128795423378
13	0x3fc574d108a4d7f3	0.16762745782915509
14	0x3fb65f5100e349aa	0.08739191314388131
15	0x3fb8cd6c7409c81c	0.09688451607669929
16	0xbf8c4b0ede43d0e0	-0.013815036924349433
17	0x3fd2bcdde1443d97	0.29277750967681854
18	0x3fc520fc02458de6	0.1650691042988079
19	0x3fc659fb591b6e77	0.17462102747855443
20	0x3fc7685db0682e40	0.1828724967348183
21	0x3fd2ea3f1e1a6f56	0.29554727496883026
22	0xbfa3e6c533197adc	-0.038870012748466215
23	0x3fcf3ddbbc6214ec	0.24407526682276826
24	0x3fcd9f30c6870308	0.23142060941429343
25	0x3fc45c7295e584a6	0.1590712768475317
26	0x3fceb68db98274ca	0.23994609411321327
27	0x3fc53605fb4ffb88	0.16571116229166827
28	0x3fb63dedb7240682	0.08688245507439699
29	0x3fcb668973458b8c	0.2140666783189683

weights f8 [30, 3]
0	0x3fc0662c2f812a53	0.1281180602985211
1	0xbfd10679e642f11f	-0.2660202740332966
2	0x3fd06a757ec8fbb6	0.2564977396140721
3	0xbfb673d02a7d66b5	-0.08770466840123954
4	0x3fbd7af62cd66fda	0.11515749544781731
5	0x3fbd7ab85a6c5d80	0.11515381057357921
6	0x3f9bb1c46c055042	0.02704531583124515
7	0xbfcf9a136a2dd344	-0.24688952145120358
8	0x3fb27bce8955d78d	0.07220164158738225
9	0x3fa414a50e5518fc	0.03922000694233138
10	0x3fd49516f5a96a79	0.3215997122803525
11	0x3fc3d52450b0395e	0.15494207324850157
12	0x3fdd8ea03e090a1a	0.46183019693504124
13	0x3fe076234e0960d3	0.5144211315300943
14	0xbfbcbceddd907aa4	-0.11225783023153696
15	0x3fcdd67bfea3eecc	0.23310804303752375
16	0x3fd1c71b2d0824b2	0.2777774753345269
17	0x3fc7b7345de38f8f	0.185278459400362
18	0x3fa5dc4a63747f0e	0.04269630874682494
19	0xbf8ce9f0242ecb30	-0.014118076423846299
20	0x3fbe6d0bc98e5bad	0.11885141058733835
21	0xbf42b0725efcb700	-0.0005703504993783415
22	0x3fa97d0adceba96a	0.049782123058167496
23	0xbf8b70cb8f5ae2ad	-0.01339873343691641
24	0xbf99bea5ded7ce43	-0.025141326643234995
25	0x3fcb58a874bf86e0	0.21364312840073918
26	0x3fc0d775e94c1b9d	0.13157533542127178
27	0x3fa2e36ae947ddb3	0.03689130876221771
28	0x3fa28da5f722a107	0.03623694078243216
29	0xbf809e9f40e69da6	-0.008115047615162418
30	0x3fb98e50cc1558c1	0.09982781393532304
31	0xbfb1b54fc0048747	-0.06917284429485192
32	0x3f86c11b8c2e7f78	0.011110511031631395
33	0x3fb968db1ba2eb61	0.09925622391430756
34	0xbf73848e204743cd	-0.0047650863457002314
35	0xbf6f54364e349700	-0.003824335160646508
36	0x3fc61d6bbb3ee570	0.17277285235267525
37	0x3fc5a962768367ac	0.16923170840055712
38	0x3f9e54b5ff7e5dbc	0.029620021552174455
39	0x3fcd214948f86bcf	0.2275783163357503
40	0x3f7c7714c1072ab9	0.006949502058385342
41	0x3fb4abe0b9433d24	0.08074764750493962
42	0xbfbe1f4dd24b2640	-0.11766516098136837
43	0x3fb1de9ebb792110	0.0698031623552462
44	0x3fc307d2561548c7	0.14867619708326726
45	0x3fc354609374ddca	0.15101248931908479
46	0x3fd63adfbc1c19f6	0.347343381596516
47	0xbfc68fb03682196a	-0.17626001988919465
48	0xbfb117f435c72b38	-0.0667717582029298
49	0xbfa94ca5ce792a96	-0.04941290040422534
50	0x3fd17303754e2d28	0.2726448674736326
51	0xbfd31b2394ad23be	-0.29853143233463786
52	0x3fa6a06e76349d2e	0.04419274514139669
53	0x3fcea8026048924a	0.23950223637906937
54	0x3fa3aeb5a46a2c99	0.03844230300918489
55	0xbfa67142c9d8e105	-0.04383286203341367
56	0x3f797e01127e5196	0.0062236825832723466
57	0x3fc5f91aebcefa30	0.17166458620154534
58	0x3fa5b2e2d18eac2d	0.04238041694710435
59	0xbf9238bf1869f9e5	-0.017794595589743074
60	0xbfb77cbbfe164f79	-0.09174704507159771
61	0xbfb25a5c449aadfe	-0.07169129061610843
62	0x3f9db0deb366b34e	0.028995017719057707
63	0x3f9a75c4b0d0a96f	0.02583987549966465
64	0x3f9eb8613be190c0	0.030000228195050438
65	0x3fae171aa5b749f0	0.058770020226479036
66	0xbfbfaf4a0c202668	-0.12376845165285888
67	0x3fd4fa8cf58dff54	0.32779239635418844
68	0x3fc17e27fcecd936	0.13666248178351176
69	0x3fd60eaf2ec135b4	0.3446462589825743
70	0x3fd2fb5832ab4037	0.2965908522428466
71	0x3fb7344a9eb763bc	0.09064165472899693
72	0x3f89f924a8923d16	0.012682234186540724
73	0xbfb021fe4d3fcce8	-0.06301869760482115
74	0x3fd03b298bfdd978	0.2536109797578301
75	0xbfc7a40d6cf93b99	-0.18469398327803502
76	0x3fd615a5bbfc972f	0.3450712524230423
77	0x3fb71ed746b8e202	0.09031434513679673
78	0xbfbf9c8a586fff7c	-0.12348236712568722
79	0x3fcc813c6f84665b	0.22269397206473482
80	0x3fd0e20dedcd9648	0.2637972662253998
81	0x3fb1c8a87f2f07ad	0.06946805100508753
82	0x3fc3e0adc634210f	0.15529415300284952
83	0xbfaffbf342d98000	-0.06246910277400275
84	0x3fcb2b787d40ba2e	0.21226411929952022
85	0xbfc5530db0665bfe	-0.1665970908477163
86	0xbf85e4ae181908d3	-0.010690078840643135
87	0x3fd577104aa01828	0.33539206779130604
88	0xbfb9a881444475fb	-0.10022743145642458
89	0xbfae48a13b83ed6e	-0.05914787150865207

threshold_noise_fp f8 [3]
0	0x3fcba9685be99aca	0.2161074112693398
1	0x3faa0dcbee45e84e	0.05088650973898777
2	0x3fc51ee4da49af59	0.16500530870996036
