experiment_pretrained/yinyang_et_300epochs/yin_yang_network.pt (torch_old, 30948 bytes, 4 tensors)

weights f8 [5, 120]
0	0x3ff7305d1587875e	1.4493075219147253
1	0x3fd371e9b561c2ee	0.30382769311022073
2	0x3ff02a8549e2415c	1.010381020172722
3	0x3ff03aa2ece6e64f	1.0143155340178003
4	0x3ff1781f878e297a	1.0918269438867285
5	0xbfaa7ef75c5dad1d	-0.05174992563737588
6	0x4002b5ac5757b51f	2.33870762096798
7	0x3ff74006e46a96ce	1.4531315729631618
8	0x3ff40ac686403fad	1.2526307338884906
9	0x3fe99e7602cd3687	0.8005933813780793
10	0x3fe26046046f1df4	0.5742521368601374
11	0x3ffe6a7bd16c6d16	1.900996988354398
12	0x3fb1f63b74c9e375	0.07016345597538794
13	0xbfdfaa6cabee8928	-0.4947768858929913
14	0x3ff8d3edd0fb1ac9	1.5517404712024236
15	0x3ff7e2cf54bb9e69	1.4928735074880939
16	0xbfc6fd6b9436b698	-0.1796087716770003
17	0xbff049a0afeeffa4	-1.0179755089193145
18	0x40014038a341f333	2.1563580278874723
19	0x4009cefbc65edea1	3.226066159982864
20	0x40069abd8f540944	2.825556869270402
21	0xbfda21d6ba9ee70d	-0.4083153555362607
22	0x3fe0b92bb6453209	0.522603851315183
23	0x3fb7246799aafc7a	0.09039924146326142
24	0x400a39f70ffa61ca	3.2783032654080886
25	0x3ff2fb5327a41d3e	1.1863585995177597
26	0xbfbc2f045ba94220	-0.1100924228460447
27	0x4003bbddc9c8a894	2.4667316212044827
28	0x3ff2e479db2d9c6d	1.1807802735945885
29	0x3fe11f4224f38b59	0.535065719767185
30	0x3ff1624e90b0c35a	1.0865007068607242
31	0x3ffae2c4375de3df	1.6803629076732631
32	0x3ff65d95e610ea20	1.3978480326610523
33	0x3ff0915f0e12cee3	1.0354910421128174
34	0x3ff56aa35e0153be	1.3385347053601744
35	0x400307f32f1e7349	2.378881805531283
36	0x401419d830ac2cf8	5.025238762387055
37	0x3fee68c7a1428641	0.9502905034643804
38	0x4005b43ee14bdfad	2.713010559204085
39	0x40124ee49f737a25	4.577044001982846
40	0xbfd2b363caa697bd	-0.29219908514130194
41	0x3ff8b2e8ab9e5e4b	1.5436789230206098
42	0x40023edaf0c9b147	2.2806910335113204
43	0x3ff12ca161c97acc	1.0733960933500155
44	0x3ff669f2abfa5ebb	1.400866195477575
45	0x4001a676113acd12	2.206279883009878
46	0x400ce0483b7567f1	3.6095127721027827
47	0x400c53b9d08c322d	3.540881757048075
48	0x40047b62d273f33b	2.5602470819125336
49	0xbfb29a2bf16629e6	-0.07266497272045278
50	0x3ffe706b77558e12	1.9024462377063895
51	0x3ff43c8d5c7f7977	1.2647832501603185
52	0x3ffa24812a5303be	1.6339122441570306
53	0x3ff43dd1b5e11d9d	1.2650925736105372
54	0x3ff495a577fd1d70	1.2865347563800604
55	0x3ff02fba702458e0	1.011652410559286
56	0x3fe010587aa93866	0.5019953151438699
57	0x4013faf7fe0308b2	4.995086640296153
58	0x3fe091fb63c09918	0.5178200672424138
59	0x3ff9f3b72bbcced5	1.6220008572099023
60	0x3ffebaab9c73c253	1.9205738173879083
61	0x4002651360fbf85b	2.299353368463057
62	0x3fefd0c515cc44e3	0.9942346025219674
63	0x4001979d55c8e496	2.1990305616314556
64	0xbfbba7ea8a21d8ec	-0.10803094742172775
65	0x3faf34985bc62a08	0.060948144152536854
66	0x3ff2a449e675cec8	1.1651095392561945
67	0x40023f96de648bd0	2.2810494780000923
68	0x3ff23746a0e93621	1.1384950910172693
69	0x3ff709aa108d756a	1.439859451921928
70	0x3fea00da0cbaf701	0.8126039742125785
71	0x400857d312280fb7	3.042883054587914
72	0x4003c9c97983572a	2.4735288136679587
73	0x3fefc54fa05bb097	0.992835820388353
74	0x400a84fd0bebf2ed	3.3149357730275057
75	0x3ffbc6b50c37be58	1.7360125043159282
76	0x4003fba526a85e2a	2.4978735942966255
77	0x3ff2e0f5a7059cb9	1.1799217724126676
78	0x40024dd6e403b10b	2.288007527697237
79	0x3ff5ac9e4214154c	1.3546431142034008
80	0x3fee1718298a7f27	0.940319138655444
81	0x3ffe692d70b92910	1.9006781008961902
82	0x40012485f285347e	2.1428336092854456
83	0x3ff05dec6ef7d396	1.022930558651955
84	0xbfbe676397d72825	-0.11876509148638144
85	0x40029aa8025d3b30	2.3255157646848588
86	0x3fed027df030354f	0.9065541926553723
87	0x3ff9f634b29a4baf	1.6226088501614233
88	0xbfa770bdce0509d4	-0.045782023810278766
89	0x3fef9d6ec77f0b2a	0.987967862740651
90	0x3ffbcc0fdad9d114	1.7373198078976815
91	0x3ffdb9148b54a04c	1.8576856081581523
92	0xbfb3872bc63dd320	-0.07628129567985953
93	0x3ff320cad8a74200	1.19550594930854
94	0x4009532552b2b1bc	3.165598531797711
95	0x3ff163ae666c1aa0	1.0868362427587854
96	0x3fe8ca920fd1f1f5	0.7747278508173269
97	0x3fd1c10fef079255	0.2774085840485772
98	0x400375be62c309e9	2.4324920383235065
99	0x3fd6fe8245792634	0.3592839888047792
100	0x3fe06f9ab1551816	0.5136235679171957
101	0x3ffaade9904ed124	1.6674590718294633
102	0x3ff191c75267ad1c	1.0980904787964567
103	0x3fdc2a5b1bb33db7	0.440085198450983
104	0xbfdcb9e287d38ae6	-0.4488455130032619
105	0x400887ea6aa18e48	3.0663650827935136
106	0x3fe50ad393a2477f	0.657571590754955
107	0x3ff26c50a1f04f54	1.1514440847140195
108	0x3ffefa76bba81de4	1.9361483888950426
109	0x400805fdd0a46a7a	3.002925519959999
110	0xbfde335ca9949ebb	-0.471884885412219
111	0x3fbd3c4f837914bb	0.11420151672162408
112	0x3feb7db2395fd2eb	0.8590937729446443
113	0x40071b2efe339fa1	2.888273225737024
114	0x3fff68e546da78e8	1.9631092803679682
115	0x40011112b3e54b19	2.1333364538526323
116	0x3fe78cb97a277caa	0.7359282861542813
117	0x3fca423e8b9b20f4	0.2051466161412986
118	0x40025b7614aa68d6	2.2946588148598535
119	0x400633b2ac60b439	2.77524313612096
120	0xbfc8ba4a0eb85465	-0.1931850978732285
121	0x3ff208bc8d7b09c4	1.1271329428278571
122	0x3ff135246c6c0c51	1.0754741893040498
123	0x3fe1bde4406df56e	0.5544301279439148
124	0x3ff54451301bcfff	1.3291789893382882
125	0x3f715f2550d8bdbf	0.004241128697273166
126	0xbfffb4bbf145457b	-1.9816245484001616
127	0x4003aa4f66440e04	2.458159254981867
128	0x3fd92bc05fc36452	0.3932953772724136
129	0x400585d9183e3689	2.690355481527892
130	0x400d0277b222feb9	3.62620486420914
131	0x3fc6b6d24e900297	0.17745426975308895
132	0x4004033004190d7b	2.5015564270158257
133	0x3fc982206db9fd4a	0.1992836509489087
134	0x3fe0456a78202364	0.508473620052524
135	0x3fff87ffb25a970f	1.9707028357456158
136	0x3fec5375e3aa1fd1	0.8851880499432757
137	0x3ff7d4b593ec79d5	1.4894309786101207
138	0x3ff5f10c20396e8f	1.3713494547618301
139	0x3fd17480c5483082	0.272735779436296
140	0x3fc84b78bec5345c	0.18980321230847863
141	0xbfd0041386a93262	-0.25024879599076233
142	0x3fd4860d118aa1a5	0.32068182671585027
143	0x40112b3e70007c55	4.292230367688792
144	0x3ffa31fe93178205	1.6372056718611259
145	0x4011ffa6f083516d	4.499660261168498
146	0xbfa2903c646e1186	-0.03625668264342878
147	0xbff73c20ddf64621	-1.4521797819510385
148	0x4002eb8fd0172dcc	2.365020394999851
149	0x3ffd6c6fd5eaf302	1.8389738422549162
150	0x400c65630487b9a3	3.5495052675170924
151	0x4002e8c7bde89eea	2.3636622273078176
152	0xbfe949f2268a5535	-0.7902765991918047
153	0x4007df4bf1415eea	2.9840315673899243
154	0x401134783946a9e2	4.301239867151226
155	0x3fd04ca1f51cf7d0	0.25467728554565117
156	0x3f47e12e841b7dfa	0.0007287480477450863
157	0x4001d043ade84824	2.226691588069132
158	0x400692599c385701	2.821459980458599
159	0x3ff386e6de50fa5a	1.2204350170356038
160	0x4003cc81e110fe0a	2.4748570998488093
161	0x3ffe33d8ef58fb2e	1.8876580571665715
162	0x3fb1cfc906c31c8d	0.06957680144397412
163	0x4004d0963224ff7f	2.601848975900736
164	0x3ff077b867c9a321	1.0292285970883273
165	0xbf7a046428f77463	-0.006351844072438248
166	0xbfffeedccd88c190	-1.9958160427741838
167	0xbfd259f04f7bf49b	-0.2867394233906652
168	0x3ff674bfc3031376	1.4035031907708038
169	0xbfc4ac1ba0adcce6	-0.1615023169102649
170	0xc001804d31c66116	-2.1876472366967716
171	0x3ff80f4b6f7f218b	1.5037340503059535
172	0x400b8bb6859d5cc1	3.4432192267082375
173	0x3fb8dfc5035a9e92	0.09716445285686806
174	0x40122aefd7cceb01	4.541930553323938
175	0x3ffe7a5c3a5def73	1.904873111720886
176	0x3fe63e5f740a82b0	0.6951138750483405
177	0x4003cbc8467dfc90	2.474503088683896
178	0x3ff244ae3c8c336f	1.1417677273886644
179	0x3fcf7b1479de804f	0.24594360304490911
180	0x3ffc71f722845994	1.7778235767669672
181	0x3f855e99e389c66f	0.010434343582548437
182	0x3fd60cf566c8d5aa	0.3445409301524146
183	0x400ce35a743d069d	3.611012371170388
184	0x4006c6173592e91d	2.8467239556749875
185	0x3fe5f350dfbed185	0.6859516496684114
186	0x3fdcbc5de7de3d29	0.4489969982468716
187	0xc0000c5a62605ea5	-2.006031769338579
188	0xbf7c423f4ba73be6	-0.006899115799071409
189	0x40127c65469b61f3	4.62148008654957
190	0x40122dc358e23d85	4.544690502937901
191	0xbff189ac177291ac	-1.0961113849562976
192	0x3ff085f5253ade14	1.0327044920248953
193	0x4011fecaf6b18a94	4.498821119867575
194	0x3ff4fad42a13fd9e	1.3112374919581735
195	0xbfe0804ceece1cee	-0.5156616844332385
196	0x4002feb19272d470	2.374362129334763
197	0xbfceee2f5f91dcc7	-0.24164383093350336
198	0x3fff8cf9022015d3	1.9719171603222676
199	0x400130aaf4b6d873	2.1487635725307483
200	0x3fd98fc6d6f5be9e	0.3994004344194567
201	0x3febff4af172f9e7	0.8749136653712498
202	0x3ff4ee173d7e0873	1.3081276323360072
203	0x4009b4837331c7bb	3.2131413459364615
204	0x3fbe404d7f79acfe	0.1181686817378029
205	0x4011d6829b41c586	4.459482599152926
206	0xbff2ad76adca31d6	-1.1673495091118773
207	0x3fd7f6a6d2d35dcf	0.37442942226831816
208	0x3fed9dd1bb24f1f9	0.9255150466120191
209	0x3fa89d2ac021fd7e	0.04807408900614528
210	0xbfa4c5c47aa6a68d	-0.040571346256297415
211	0xbf811150e4c72f62	-0.008333808881523633
212	0x3fb08b3f7c380f92	0.06462475569429518
213	0x40014bb5b685d0c5	2.1619676837527515
214	0x4012618000360b17	4.595214846895735
215	0x3fe2d2483846ee26	0.5881692027246046
216	0x3fd7366bdfacd4c8	0.36269661753915416
217	0x3ffef40dbfd819f6	1.9345834249412497
218	0x3ff929a6c5e9f535	1.5726688128482469
219	0x400344a1e5da017e	2.408511920657644
220	0x3fced27c02d62a15	0.24079847467903961
221	0x400695242a00bbb6	2.8228228837465066
222	0x3fd37375febebe6e	0.303922175192361
223	0x3ff6e5180b4aeb06	1.4309311333769883
224	0x3ff73d42491b5652	1.452455792973883
225	0x401431d849ca604c	5.048676636673985
226	0x3ff9a82bb764d220	1.6035573161908658
227	0xbfe8aff18f366ccc	-0.7714774891968772
228	0x3fe84c638dabbdcd	0.7593248145112114
229	0x3fe5e222b1eb1926	0.6838544344871351
230	0xbffb6754c1b1e9a7	-1.7127273145875763
231	0x3fe5bc1c332cab32	0.6792126655103401
232	0x3ff55b44e3de857c	1.3347824956075263
233	0xbff8baf02b3bf638	-1.5456391991459792
234	0x4001c1c0bf0fd46e	2.219605915709102
235	0x40136ecc9e0c65fc	4.858202428347337
236	0xbfc0986ddf39af99	-0.1296517696349582
237	0x3fd72c69202081d5	0.3620856107463884
238	0x3ff6015120178c8d	1.375321507796602
239	0x3ff225a20dcd2282	1.1341877497781359
240	0x3ff96b0501178f76	1.5886278193147212
241	0x3fd02077581031b6	0.25198157882621375
242	0x4000cdffdaab0150	2.1005856593548415
243	0xbfc1552c66baa6f4	-0.13541178718633484
244	0x3feb31420a297cc6	0.8497629354932534
245	0x3ff22aac120c7a78	1.1354180054692318
246	0x400195bb5f12fba2	2.198111288801969
247	0x4003369e58c20f50	2.401669209882961
248	0x3fce94dfd89c84a9	0.23891828610161284
249	0xbfd4361c8a745280	-0.3158027031034081
250	0x3ff99a47b2939c1b	1.600166032376143
251	0x3ffaa98799fe041a	1.6663890853235501
252	0x4009b518e129f071	3.213426360218414
253	0x4002d7b37cb11efa	2.355322813182167
254	0xbfe11d58b532d99a	-0.5348323382411764
255	0x4010be71ceb5b982	4.185981016007988

weights f8 [121, 3]
0	0x3fcca60dfeca0f5e	0.2238175863350262
1	0xbffbf47032615dbd	-1.7471773117048166
2	0x3ffdb845efb98f26	1.8574885715724547
3	0xbff0c069563360c7	-1.0469754569258372
4	0x3fe4c06499e992a0	0.6484854703999936
5	0x3fe9d6550202694a	0.807413581776282
6	0xbfe3b9062a0a7f8c	-0.6163359471429302
7	0xbff72f1ee47a6e6c	-1.4490040707522907
8	0xbf9ae81d4f3b4cbb	-0.02627607151118803
9	0x3fdaaf56865f10b7	0.41695178148462325
10	0x4014acab678ef07e	5.168622606372194
11	0x401b16e3f9cbc143	6.772354033528532
12	0x3fce181a3c9bef14	0.23511054953984767
13	0xc0064f7c0cdd1018	-2.788810825821212
14	0xc008ae378d173941	-3.085066892882566
15	0x4005a9404e5165c5	2.7076421850767667
16	0x401203d5397f8241	4.503743074805755
17	0x4018dd49ad5e4b70	6.21610136878995
18	0xbfe779c7562ac02d	-0.7336155589055174
19	0xbfb124500023fb8f	-0.06696033481055806
20	0x3ff277e80dc9f54f	1.1542740381840593
21	0xbfe3bfbd77ffbe78	-0.6171557754259558
22	0x3fe08f9e2167b465	0.5175314571803368
23	0xbfd139b5145db346	-0.26914717663639853
24	0x3fe9af9125a18bff	0.8026815161687181
25	0x4006245e26eebc4b	2.767757705841665
26	0x40040b2f7d6477e8	2.5054616733823316
27	0xbfabf56913a450de	-0.05460670819062029
28	0x3fd80122919952fa	0.3750692769875027
29	0xbfc361a64f46216b	-0.15141753073499883
30	0x3fe5e262fe9a7feb	0.6838850949025049
31	0xbff7b0a540e5497d	-1.480626348017352
32	0xbfcfa9951f9422bb	-0.24736274759222518
33	0xbfc3466f14cc4afe	-0.15058697238472257
34	0xbfbe1a6c9d75632d	-0.11759070247843502
35	0x3fe3c63c93d301cf	0.6179488074486076
36	0x3fe8c2625277a6aa	0.773728524273982
37	0x3feccb414e359592	0.8998114135289816
38	0xbfde874269bbffb9	-0.4770055801927771
39	0x3ff95706a565ca9a	1.5837465725750577
40	0xc0060397c28832fc	-2.7517543027701077
41	0x3ff247c211fd9b05	1.1425190642127643
42	0x3fcd9bec447539e0	0.2313208898799095
43	0x40061088c45b6be3	2.7580733623885734
44	0x4015e245278d1d12	5.470966928470505
45	0x3ffbce7b359a2712	1.7379104703745196
46	0x3fffe8982b58c6f4	1.9942857449754543
47	0xbff3a5452bd9dd80	-1.2278491700106713
48	0xbfe5899963cadec0	-0.6730467747756492
49	0x400461c96890b93f	2.547747437397589
50	0x401a468758593938	6.568875675626536
51	0xbfe4cb86b8a1253f	-0.6498445135158945
52	0x3fe4ea85922e16b6	0.6536281447485723
53	0x3fff86d3351425b0	1.9704162667643281
54	0xbfdfe9400340c9a7	-0.4986114532249765
55	0xbfc3b8dcebcce456	-0.15407907022179995
56	0xbfbca7a45d47ea78	-0.11193301465383765
57	0x3ff9bbda4106d771	1.6083624401194039
58	0xbff02ab1ef5c3337	-1.0104235982900727
59	0xbfefe5b9bcad18a8	-0.9967926678734971
60	0xbfe2eb1d01786159	-0.5912003544536147
61	0xbfe3e3e1a39437a5	-0.6215675539876783
62	0x3fda60a653bda5cc	0.41214903047383866
63	0x3fe2df9d9a68c668	0.5897968307310295
64	0x40005d6152edf876	2.0455957869408463
65	0x4012f4a18a48e7f8	4.7388974768637055
66	0x3fe9096f0fcf4223	0.7824015911847407
67	0x40146ac1629a283b	5.10425333085919
68	0x4018edd70e069f6e	6.232265681413862
69	0x3ffee048aac61fd2	1.92975680073322
70	0x3ff6c5ff871d68ad	1.4233393934178296
71	0x3fe50566991ea17e	0.6569092741602132
72	0x3fd912b2c96a0738	0.3917662589011459
73	0xbfe1ad32ddc71f63	-0.5523924190137958
74	0xbfdaad9dd0baf380	-0.41684670814338887
75	0x3ff73d2b98a93cac	1.4524341548274533
76	0x3fd159a8bfa40a81	0.2710973617069286
77	0xbfe7f579bae413f4	-0.7487152719701258
78	0x3ff2899075292078	1.1585850311840016
79	0x400f5b82d7eafc18	3.91968315778605
80	0x401463effe584ca4	5.097595190181128
81	0xbff0faae482b2d16	-1.0612013644302514
82	0xbfc05bc5775bbe1d	-0.12780063941998857
83	0x3ffce9d3657af937	1.8070863689495817
84	0x3ff0a32e861e2de6	1.0398392905216212
85	0xbfa031e17cfe251b	-0.03163056040564013
86	0xbfeebd5d2e907048	-0.9606157216508189
87	0xbfd3fa797d575ec0	-0.31216275444374375
88	0xbff40b2fc5f0f23e	-1.2527311069562894
89	0x3fd137259439615d	0.2689908931256662
90	0x3f967c09f9578d3d	0.021957546085002767
91	0xbfed21c439bbaba2	-0.9103718879317635
92	0xbff092525eecb1da	-1.035723086165595
93	0xc003a27f707ee29f	-2.4543446339342405
94	0xbfef5807a8bc5842	-0.979495839654881
95	0xbfe7e3806617692c	-0.7465211862538914
96	0x3ff432b5f23dc15c	1.2623805487201798
97	0x3fe27fb4260df0ef	0.5780888312579274
98	0xc000a03599cdd133	-2.078227235406439
99	0xbfe99823caa19fac	-0.7998217542308246
100	0x3fc57be0c16e24f6	0.16784295506321428
101	0xbfe777fdff7ada3b	-0.7333974828569078
102	0x3fee23c6b4ff6e2e	0.9418672118294518
103	0x3fd24631492e2de2	0.285534211602423
104	0xbfeb7673f99bbd95	-0.8582095980799972
105	0x3fe6204046a82dfa	0.6914368991869531
106	0x40060141e0c6d45c	2.7506139336278874
107	0x40075862c4ce3d46	2.9181571364821677
108	0x3fcf715275c17a6b	0.24564581632417357
109	0x3ff6c98dd6f751ef	1.4242075345147176
110	0xbf9bab606abd0d9b	-0.02702093745689425
111	0xbfd8b53b1cc99991	-0.38606145678786513
112	0xbf978b481aea1312	-0.022992254870149394
113	0xbfdac3bdf0ca2a32	-0.41819714083308945
114	0x3fdf9be48137d60b	0.49388992899852785
115	0xbff2ffc0a6d2f5b3	-1.1874395863118081
116	0x3ff6a60a0d1d4c8e	1.4155369293482951
117	0xbfe9ffa0d93a2ad0	-0.8124546282500322
118	0x3ffcefcfe42e4bc9	1.8085478699983801
119	0xbfc40ee9798ec69b	-0.15670507846293877
120	0x3fe2b3af76890388	0.5844342532292197
121	0x400df6a14b8a2dec	3.745424833444977
122	0x4019f5aa3973aa8f	6.489907167134006
123	0xbfbfa5f46a733080	-0.12362601851345012
124	0x3ff6ce0f41fb608d	1.4253075196666345
125	0x3fbec8be01e80be1	0.12025058313888294
126	0x3ff9873417d4c647	1.5955086642174068
127	0x3ff1195ee362c214	1.0686940080887597
128	0x40096d6aaa988c54	3.1784261062435153
129	0xbff231b3650eff9d	-1.1371339748002136
130	0x3ffe0b2305ec5cdf	1.8777189475420568
131	0xbfd5df19afb6cea1	-0.3417419639547266
132	0x3fdc5154ce423057	0.44246406691013845
133	0x3ff1601be18c7299	1.0859640894406424
134	0x401103284ea523df	4.253083447293618
135	0x3fde2c2f87b3df3a	0.4714468789311358
136	0x40131d1f9a12835f	4.7784408639716665
137	0x4017b1fbb0fcb9c1	5.923811688828608
138	0x3ff4cc3a3c79db24	1.299860225901008
139	0x3ffe5c4de1aba1ec	1.8975352111102621
140	0xbfe699d47d85f394	-0.706278081095308
141	0xbfda967ca2a6037f	-0.41543498881951985
142	0x4000e0342ac5431c	2.1094745007943754
143	0x3fff24dec991abc8	1.9465015291013845
144	0x3fdcf40afbc6a3cf	0.4523951967954049
145	0xbfedcccf1076f9cc	-0.9312510797097331
146	0xbfe8364cbbe8f143	-0.7566283865085456
147	0x3fee51523be160f1	0.9474269074953822
148	0x4000d79e1e269615	2.10528205447441
149	0x401406748e8e8a94	5.006304004144699
150	0xbfad580c0e397f65	-0.057312371002580055
151	0xbfdddabc2e1828e7	-0.4664755296841023
152	0x3ffce0312e444bfd	1.8047344023987073
153	0x3fe8acdb309a2299	0.7711006116160944
154	0xbfeeca8784f488ca	-0.9622228237897386
155	0x3f9164262d6d1866	0.016983601114838008
156	0x3fed17eb8ef7f99e	0.909169940219545
157	0x3fc5eff1b7319c30	0.17138501591691258
158	0xbfdf07106dbafe48	-0.48480616298545387
159	0xbfef7c0ceff010aa	-0.9838928877147926
160	0xbfeeacc77f3e75b5	-0.9585912213548712
161	0x3ff40eeacf750b6d	1.2536419013783544
162	0x3fdfc6f4879e7ab5	0.4965182613758928
163	0x3ff0f4d708e3ab1f	1.0597753855933616
164	0xbfe986458a6c1a2e	-0.7976405814704941
165	0x3fa30587e9db2d96	0.03715157251061922
166	0xbfd2542de5bceaac	-0.28638789592120406
167	0xbfe1b185746ab020	-0.5529200814976356
168	0x3fdb75ec24778f81	0.42907241402848945
169	0x400d8d9620526d04	3.6941339993624087
170	0x4016e56ddd56daf4	5.72405191271422
171	0xbffb559962ab33e4	-1.7083982328651866
172	0x3feb0da8d75cd8b7	0.8454174238493327
173	0x3fb046feddd0e5e6	0.06358330645971186
174	0x3fe7b1f0604c0e59	0.7404710655977836
175	0x3fffa4dea86e9031	1.9777514056559193
176	0xbfa655775ba61427	-0.04362080568083853
177	0xbfe8191a032e736e	-0.7530641615045235
178	0x3fe51eb17df5d520	0.6599967441713126
179	0x40014398bf481dab	2.15800618590193
180	0xbffa46778c3d3cb2	-1.642203853425411
181	0x3ffc4638bad140db	1.7671439454607512
182	0xbff3da87f7b8e82f	-1.240852325120169
183	0x3fe4a9c821361d74	0.6457253121051694
184	0x400ad28311cff4b1	3.3527890578830797
185	0x40129da86729f379	4.653962718902101
186	0xbff79e1916c25af6	-1.4760981453925388
187	0x4000e89cd01cc5a4	2.1135803469448593
188	0x3fe220de7d344c15	0.5665123410602769
189	0x3ff84cd9bc19ab2d	1.5187623355547644
190	0xbfde700c383f4df3	-0.4755888509073138
191	0x3fe1ca0f4d32d82e	0.5559154994759916
192	0x3ffe3a1acb51746f	1.8891857092014808
193	0x4006e2fd67414793	2.860834891013789
194	0x40132debedca8ca7	4.794845309722553
195	0x3ffec7c7a35d6bf5	1.9237743741457483
196	0x40092015e7088936	3.1406667756538367
197	0x40175390ac47aee8	5.831606571078488
198	0x3ff775c8a048bb9c	1.4662557850931313
199	0x40127d9866a58b62	4.622651676038773
200	0x4015b5b317461693	5.427440990116923
201	0x3fc538ec0df9a487	0.16579962427502812
202	0xbfb6e8bad28b4444	-0.08948867454752568
203	0x400213538d298771	2.2594367054270426
204	0x3fc7a1e83c19492e	0.18462851461897273
205	0x4000b15edc3c82f5	2.0866067129103336
206	0xbf8d9eb7053cc0f8	-0.01446288094265967
207	0x40020c384c502a14	2.255966755100653
208	0x3fd99935d9495876	0.39997621745477063
209	0xbfaf00c3150727d1	-0.06055268890084132
210	0x3fedcdcabc8e36a8	0.9313710863804845
211	0x3fc92509224b58a8	0.19644273924376887
212	0xbfe3488a095102c3	-0.6026048833810694
213	0x3ffae158aa0cc592	1.680016197450048
214	0x3fc82f5de9efe434	0.1889455215712431
215	0xbfdc344efd70c896	-0.4406926608090854
216	0xbff24374ae7c98de	-1.141468698109342
217	0xbfec57d138112d09	-0.8857198805866641
218	0x3fe2a5a1276e7c8f	0.582718445792027
219	0x3ff683e0280e4f7e	1.4071961941417324
220	0xbfced767ee3dd21f	-0.24094866879353646
221	0x3ff0bbe40bfaf112	1.045871779249016
222	0x3fda4fd569f14578	0.41112265916770907
223	0xbfe4675b56ed3b67	-0.6376167962824696
224	0xbff07a2af6c29b9c	-1.0298261298246194
225	0xbfd3a8790164e7cb	-0.3071577561964857
226	0xbff3dd87029d2f75	-1.2415838338956438
227	0x3fecf4e94da7ba1c	0.9048964039519123
228	0xbfe4bd24bbd98c61	-0.6480888050977108
229	0xbfe52f3fabcae3d0	-0.6620176654170056
230	0xbfe68ee9cc99c1b3	-0.7049454685311985
231	0x3fcd7897039bf7cb	0.23024261165841006
232	0x3ffcbcadd5e5b505	1.7960642199862502
233	0xc001ed7bed277e3e	-2.240959027068839
234	0xbfe8c66a1e0edec8	-0.7742205226013192
235	0xbfddbd0b3b15e1b3	-0.46466332216325695
236	0x3fda6b40284ae870	0.41279605803322905
237	0x3fec4d5ee59dcf84	0.8844446644493336
238	0x3fee93f972129d4b	0.9555632808668774
239	0x3fd98cf359465d1a	0.3992279407334124
240	0x3ff9eebabf2bcd77	1.6207835643407102
241	0x400892199c8373f6	3.0713379123321785
242	0x400d77fa6efb55a7	3.6835831327868678
243	0xbff08ed5051de12b	-1.0348711204406509
244	0xbfe0cafd4059e86b	-0.5247789627894809
245	0xbff5b4cb61e0aeb4	-1.3566392730089492
246	0xbfe6aecdd5d13bb1	-0.7088383842582201
247	0x3ff0facb2d2b55b1	1.0612289204048972
248	0x3fddfd5e72716a2c	0.46858941246105945
249	0xbfe119767be12017	-0.5343582553405238
250	0x3fd1cb71a0844beb	0.2780422275110925
251	0x3fa1f74ad7f583fa	0.03508981596201717
252	0x40078b417512634c	2.9429959436642203
253	0x4007fca966aa784b	2.998369981839493
254	0x4017d8878f541b1a	5.961454619892516
255	0x3ff21fc7ec9126ec	1.1327590218447154

biases f8 [1]
0	0x3feccccccccccccd	0.9

biases f8 [1]
0	0x3feccccccccccccd	0.9
