experiment_pretrained/yinyang_et_300epochs/yin_yang_untrained_network.pt (torch_old, 30948 bytes, 4 tensors)

weights f8 [5, 120]
0	0x3ffaf157cf98849d	1.6839216336450484
1	0x3ff8f4604a9d7dd6	1.5596621431976607
2	0x3fe9db1652c10f48	0.8079940429965768
3	0x3ff8778666fc35bf	1.5291809103831466
4	0x3fd7f8698aa8f9fc	0.3745368818380539
5	0x3fe7830cc50d5e0a	0.734747300021753
6	0x3fff9a67125f9701	1.9751959531508307
7	0x3ff1b179bc0ce55e	1.1058289857595223
8	0x40028271ccad9e0a	2.313693617866879
9	0x3fff5d3acbf8f84e	1.9602611510922716
10	0x3ff527cbd4cce8e1	1.322215873004602
11	0x3ffe0df31e390ad5	1.8784056835726706
12	0x3fe600cad58c36eb	0.6875967188695687
13	0x3fe6d8a09be59915	0.7139437718258558
14	0x40024688f05c85f4	2.284440877746187
15	0x3ff754348acaf3c0	1.4580579206078568
16	0x3fe5c7437fe7cbd9	0.6805741785195735
17	0x3fe1809d3d94cbd6	0.5469499781378271
18	0x3fffb2106adf379f	1.980972688168073
19	0x4001cae2d8071281	2.224065482822255
20	0x40009ab6c586c578	2.0755439216379123
21	0x3fc5d5f65ce7648a	0.17059211288759385
22	0x3fee6d1ba2d187ba	0.9508188419388184
23	0x4002d1e65e0095e1	2.3524901718071622
24	0x3ffce6101c9712ac	1.8061677090455914
25	0x3ff6095708d9f437	1.3772802682644973
26	0x3fe95240fc93cdf3	0.7912907536651218
27	0x400b0b600da1f5f9	3.3805543007899783
28	0x3ff1998f6d6b0d75	1.0999902986667085
29	0x3ff3e4c6ff3d6646	1.243353840857155
30	0x3fd8c2c0904e685c	0.3868867310753836
31	0x3ffaf05397aa4282	1.683673469964703
32	0x3ffb8977ff46572f	1.7210617038412683
33	0x3ff217599ab3bdae	1.130700687699441
34	0x3ffc379c12e3c752	1.7635765779381996
35	0x40045550ea13b4aa	2.5416582381499966
36	0x400a1037de29766b	3.257919059410417
37	0x3fd54b8647380755	0.3327346511360834
38	0x3ffbfedf731e7cc0	1.7497248169745916
39	0x40064880bcb7dba3	2.785401796685123
40	0x3fe754a23a5710bc	0.7290812625365315
41	0x3ffa8dca6a6c2cd6	1.6596168667918412
42	0x40088ebf7608f50f	3.069701120518068
43	0x40016cb48f844cdc	2.178078767037375
44	0x400247dfb72c2d2a	2.2850946722370695
45	0x400419ca4f2d82ba	2.5125929055942295
46	0x400986c2c40cc240	3.1908011738198923
47	0x4007425490dbd395	2.907387859066555
48	0x3ff9c904d784ed11	1.6115768831940083
49	0x3ff3584876a94408	1.2090534815981773
50	0x3ff7660ea36bee17	1.462416303983337
51	0x3fee0a47d802b926	0.9387549609143988
52	0x3ff699ede1f71450	1.4125803782237831
53	0x3ff3d4d31fa762cd	1.239459155700547
54	0x3fedbda209feec2b	0.9293985553007408
55	0x3fefec10af7c4868	0.997566550011709
56	0x3feee2c46a46b1bb	0.9651815486627621
57	0x400961bcfd3720ad	3.1727237493942853
58	0x3ffbaea6190417ab	1.730138871878334
59	0x400141c104173975	2.1571064300143754
60	0x40015ace2445b6c9	2.1693384965682054
61	0x400515909718f5f3	2.6355296902172483
62	0x3fea9cdbf7c4cc98	0.8316478575929009
63	0x3ff503337e91da00	1.313281530774134
64	0x3fe3c5167fc47c83	0.617808579965541
65	0x3fe14aace5c29bfc	0.5403656470779192
66	0x3ffe3a692c084bcd	1.8892604560867199
67	0x4006f44d66a15a64	2.8692882554999404
68	0x3ff9dc47f567219d	1.616279562573346
69	0x3ff922558661488c	1.5708823441714541
70	0x3ff64de45995275a	1.3940165995904494
71	0x4003435b161d97a1	2.4078885772496084
72	0x3ff923605b7082bc	1.571136815248038
73	0x3fed4ec9057bdc83	0.9158673388582347
74	0x3ffd1ddbff6ac9ee	1.8197898843033005
75	0x3ffbca1579558f6c	1.736836885415836
76	0x3ffce336f080a72b	1.8054723162299051
77	0x3ff5dec661773e75	1.3668884093530356
78	0x3ffbd3e3c20a1f92	1.7392308787984558
79	0x4001d0f8bee7d076	2.227036944817935
80	0x40002514f775fd7c	2.0181063969500297
81	0x3ff70c427f8dadd2	1.4404931051784513
82	0x4001246b82c6b921	2.1427831856627937
83	0x3ff2fc6255afbfa1	1.1866172167901612
84	0x3fe76801eef6be57	0.7314462344419991
85	0x3ff23a19e0e1ca60	1.1391848358586216
86	0x3ffc5cbe9b3e7817	1.7726427139491585
87	0x40043da16612d54d	2.530092999887222
88	0x3fd1944d2fbe489f	0.2746766058199998
89	0x3ff831e281b18b3e	1.5121789041665603
90	0x3fff8208cdfe0b1a	1.96924667802586
91	0x4004ec29334e4276	2.6153129585512103
92	0x3fe78b42c1d30d4f	0.7357496057160605
93	0x3febe52eea4bd8f4	0.8717264724826053
94	0x3ff61d35b78552e6	1.382131306532011
95	0x400093a1d34f1027	2.0720860012534277
96	0x3ff28b461b4c80cf	1.159002405773254
97	0x3fd26f838ec14e9c	0.2880562681286649
98	0x4005face8528f401	2.747464218437472
99	0x3ff2c202765de303	1.1723656295491203
100	0x3ffbb331702a24ba	1.7312483197622854
101	0x3ff057383ff22c8f	1.021293878354104
102	0x4002feffdc2b2f22	2.3745114517859216
103	0x3fe1f0481b317ac1	0.5605812579268205
104	0x3ff1bef29e64009e	1.109118097985664
105	0x400227fdf8859cd8	2.26952737958673
106	0x3ff67922780e6371	1.404573887795973
107	0x3fed3a0ee7c19ad4	0.9133371855249046
108	0x3ff9998ffa215dd2	1.599990822860367
109	0x3ffd59d2ec2ec64d	1.834429667080616
110	0x3feaa5641af29ba7	0.8326893354722998
111	0x3fbe3e5cf10cb93a	0.11813908467295145
112	0x3fecdc08ab2b7f44	0.9018596022760694
113	0x3ffdd0a6c9878705	1.863440310692057
114	0x3ff394134179ce87	1.2236511762284026
115	0x3ff48b51bb760921	1.2840134928415596
116	0x3ffd26328bd2c713	1.82182554834839
117	0x3ff326a6c3344cd8	1.1969363808791993
118	0x400474ac0cc7ce86	2.556968784186952
119	0x40029f07b8d5d9a6	2.327651447321119
120	0x3fed703e4d79ff49	0.9199515832151316
121	0x3ff8f61fd7f4bed4	1.5600889621527374
122	0x3fe59e9aea193201	0.6756109783396483
123	0x3ff39dbce78b4d0e	1.2260102314656396
124	0x3ff27e3a5081f874	1.1558173317748954
125	0x3fe74635dfee6a0e	0.7273206113489452
126	0x3fde41f6e40f2b72	0.4727761485234431
127	0x3ff8857fdd481b3b	1.5325926441016253
128	0x40008b61329df73f	2.0680564836938227
129	0x3fff30e7993cfbaf	1.949439619623927
130	0x400c62239baacbae	3.547919479512948
131	0x3ff3e6cd82b51eea	1.243848333908256
132	0x4001f33bc36947ed	2.2437663332466316
133	0x3fed1cbfee82b927	0.9097594889078991
134	0x4000f3899e22e484	2.118914828719939
135	0x3ff6b6cbbd646f99	1.419627895177632
136	0x3ff86bb18b79d7ed	1.526292366817411
137	0x40066b7f3c34ead5	2.8024887756012995
138	0x3fd3d0af8957eb75	0.3096121636623857
139	0x3ff70b5e08e973a6	1.4402752254602347
140	0x3fffc0ea544a4b7c	1.9845984737955567
141	0x3ff4f0d82b445405	1.3087999048341328
142	0x3fe4eee7b62d9f81	0.6541632230919135
143	0x3fffd3728d1c3a1a	1.9891229164237587
144	0x3ffa70baa2de42d3	1.6525217401542036
145	0x40046af16c850463	2.5522182920545204
146	0x3fff6db1f8f0e86f	1.96428105585667
147	0x3ff92a46fa4d9f46	1.5728215959042742
148	0x3ff7f2e19cd0dd6f	1.4967971921558634
149	0x3ff4a8402bb3b744	1.291076822958943
150	0x40013bfbcb95d681	2.154288855085554
151	0x3ffec154478fc51b	1.9221995158553173
152	0xbfe0ff600b4aca97	-0.531173727087963
153	0x3ff9e5de9f65c51b	1.6186205126253472
154	0x4001def4cefa0962	2.2338653726630335
155	0x40011320bf1068f1	2.1343398024447358
156	0x3ff276b677db0d3f	1.1539826089727538
157	0x3ff63ea52e2e81bf	1.390294247052324
158	0x4005e4c56eb9d5fe	2.7367046976530665
159	0x3ff5a04d3bb5050c	1.3516361553486744
160	0x400c667d6aaff2de	3.550043900961426
161	0x3ff7d22643e9e67c	1.4888060238721712
162	0x3ffa57473861b20e	1.6463081552893786
163	0x4004d805b29c9e37	2.605479617504695
164	0x40011cd55b4b4c3b	2.139078820453077
165	0x3ff87df28a166a5a	1.530748881725819
166	0x3fe2e481b105d510	0.590393872974035
167	0x3fff3b3963e7bac5	1.9519590284868837
168	0x3ff49856023cd975	1.2871913993272674
169	0x3f7ce6d17f5a453a	0.007056063031670329
170	0x3ffc644bef352161	1.7744864791912607
171	0x3ffcfb3cfd109206	1.811337460073561
172	0x3ffe8a907dc05ec0	1.9088292038122034
173	0x3fef0ef916156764	0.9705777579613195
174	0x4006956ac87c7f54	2.822957578944548
175	0x3ff4def9764d5c78	1.304437124364794
176	0x3ff0a051c3dda1cf	1.0391404772764081
177	0x3feaaf07a84b3af9	0.8338659560193654
178	0x3ff192717ffd87bb	1.0982527732489717
179	0x3ffead938a839511	1.9173770342543472
180	0x3fea409c94018364	0.8203871622791721
181	0x3fd65dfa71a1ab98	0.3494859800036294
182	0x3fd6cc8cffdb393f	0.3562347887608616
183	0x3ffffcc1546cd757	1.999207811151299
184	0x400bf88a9680c579	3.496358085446158
185	0x3ff0500d8ed4bd2f	1.0195441798530955
186	0x3ff2a82677fb35ab	1.1660523115891503
187	0x3fc1a5ecb0c997d0	0.1378761161060411
188	0x3fe09101b1217f79	0.5177010020815792
189	0x3fffe2e919add8a3	1.9928980830277758
190	0x4002d3ae7cce4bf5	2.353360152288128
191	0x3fd352e5d117e722	0.30193467540049046
192	0x3ffe4ee28e657ce0	1.894259029613572
193	0x4004e9d901da8dd5	2.6141834397146604
194	0x3ff0ddffeb0ae5a9	1.0541991406774776
195	0x3fddd55650a454ec	0.46614606738269404
196	0x3ffbe66d1ced940a	1.7437564020158356
197	0xbf8c5579c5468c97	-0.013834906895516403
198	0x40015e0b67a10e3c	2.1709201904320974
199	0x3fff1457e051984b	1.9424666178179162
200	0x4000dfd415e3bfe0	2.109291239750732
201	0xbfe6760d1eac3f3b	-0.701910552890673
202	0x3fe857e1cb5154cd	0.7607277842568237
203	0x4008d0b2dfea42ac	3.10190367635399
204	0x3ff22ca3fffc39c0	1.1358985900329657
205	0x400215454de265e8	2.260386093589421
206	0x3fef72e51c5c2391	0.9827752641586917
207	0x3ffbb5ccc1d1147b	1.731884724709089
208	0x3ff7bbeeaf581f94	1.4833819245704705
209	0x3fdb3b5326caae6c	0.42549589908842367
210	0xbfc50a96e1690110	-0.1643856621394737
211	0x3fe661456216d22c	0.6993739047816852
212	0x3ff48df3cc9b324e	1.284656333201514
213	0x4001d60c4cdaa4cc	2.2295156482910894
214	0x400248447cfd27d9	2.2852868809468245
215	0x3ff9e4c26cbef9ec	1.6183494804278054
216	0x3fe935478335d2a8	0.7877538263988599
217	0x3ffcd80115f8d8c4	1.8027354105266093
218	0x4000a6cee4afa68e	2.081449305162841
219	0x3ff7c2a90833cfff	1.485024482765766
220	0x3ff94775ccaa6fab	1.5799463267094136
221	0x3ff962a2469ed81f	1.5865805395710664
222	0x3ff2ea49afc72044	1.182199179298565
223	0x3ff8d0b426968bd7	1.5509530551287207
224	0x400002ae7a6a78ba	2.0013093532316732
225	0x40038623f67a33ad	2.4404982811015175
226	0x3ff26a1fb4be900f	1.150909143479115
227	0x3fe91bb912ac52c2	0.7846341480931971
228	0x3ff5aade670b8444	1.3542160058207324
229	0x4002be80a278ab7e	2.3430187886310128
230	0x3ff339252713f9c5	1.2014514471517128
231	0x3ff081a369d670a3	1.031649983814568
232	0x3fef33c16b2e5249	0.9750678151490969
233	0xbfb2d99ab453d7c6	-0.07363287832762841
234	0x3ffc4ef2af0c3d35	1.7692744100384747
235	0x4004491aeec00970	2.5356959011416436
236	0x3fe224cfa2dcdfb8	0.5669935398973314
237	0x3ff8e16f390a4ec1	1.555037710965664
238	0x3ffc183f640a37a6	1.7559198291596458
239	0x3ff997650735d267	1.5994615823412006
240	0x40040275169ac4aa	2.50119989070716
241	0x3feca92155886a06	0.895645777756102
242	0x3ff5af2c15496747	1.3552666503441786
243	0x3fe01f7254c1fd0b	0.5038386969971794
244	0x3ff37a6ddcd7977c	1.2173899294516266
245	0x3ffd5bf3ff3cf7e7	1.8349494905701194
246	0x40037bcf5c053199	2.435454100521565
247	0x3ff67c64e51489fb	1.4053696583220006
248	0x3ff972e6434f6cda	1.5905516270930122
249	0x3fed9ca7585202ff	0.9253727650649067
250	0x4002aa45af949a82	2.333140727732201
251	0x3ff668fe6d502dc1	1.4006332654997637
252	0x3fffbce141da967f	1.983613259545933
253	0x400237901c1f7650	2.277130336485051
254	0x3fd01acd3f984b7c	0.2516358490985835
255	0x400b260fd0d5d583	3.3935848536736457

weights f8 [121, 3]
0	0x3fe910c3728a164d	0.7832963215921126
1	0xbff519b3996a5290	-1.3187747948442485
2	0x3ff77ce0ed503e8d	1.4679879446083846
3	0xbfd78959d240cd37	-0.36775823147327763
4	0x3fe6da81fbc22870	0.7141733090550257
5	0x3fe6da58c4d0c6df	0.7141536563924226
6	0x3fcf434fbf7b024e	0.24424168443330746
7	0xbff377c8ad2f9dea	-1.2167441144064193
8	0x3fdf0b79c82e3078	0.485075421799372
9	0x3fd3c97f1a9f21b9	0.3091733703591007
10	0x3ffd0b0d8bd0d23c	1.8151984654952136
11	0x3feda4b8f41e2a5c	0.9263577239920084
12	0x40048137a0d2d389	2.5630943836535534
13	0x4006bfa68a2ea33c	2.843579368160503
14	0xbfdfead6c104e7cb	-0.4987084279015305
15	0x3ff57dec435c38cd	1.3432428962001268
16	0x3ff94dbdd5a47532	1.5814798684508102
17	0x3ff16911d8314ea4	1.0881517834685974
18	0x3fd4f942a8b41070	0.327713646649733
19	0x3f994be605e99ddf	0.02470359240615305
20	0x3fe77be5b9921afd	0.733874189799138
21	0x3fb8d23f804f11f8	0.09695813066998216
22	0x3fd7646da458d757	0.3655046563102266
23	0x3f9d399ce81eb492	0.028540088336445786
24	0xbfa173dc74619d84	-0.03408707543058667
25	0x3ff3d4b4921948da	1.2394300181372757
26	0x3fe9a7d06a435805	0.8017351222467829
27	0x3fd2fe0301eba4dd	0.29675364673182775
28	0x3fd2c4d50b282715	0.2932636841729715
29	0x3fad0a5edcaa60fc	0.056719746052467074
30	0x3fe43cbe65ec190a	0.6324150076550563
31	0xbfd13603eef4f8a4	-0.2689218362392103
32	0x3fc46280a631a1f4	0.15925605883536742
33	0x3fe423c5459fd01f	0.6293665275429737
34	0x3fb31814e42c82fe	0.0745862061562654
35	0x3fb460e5e1e62b18	0.07960354580988527
36	0x3ff057e16bc387e5	1.0214552125476015
37	0x3ff00a85e89bdeb7	1.002569111469638
38	0x3fd082a310e5dafa	0.25797344827826374
39	0x3ff5051fca3f36cf	1.313751020457335
40	0x3fc18b50424dfe96	0.13706401097805515
41	0x3fe0fb1e596006a0	0.5306541200263446
42	0xbfe0e1ab58fee64d	-0.5275475252339646
43	0x3fde39e4b5b2927c	0.47228353256131306
44	0x3fec92f650a4e993	0.8929397177774255
45	0x3fecf9094d245aec	0.905399943035119
46	0x3fff3d6e9469bc38	1.952498035181419
47	0xbfeae1b7c024eeb1	-0.8400534394090383
48	0xbfd064348bf87de6	-0.256116043748959
49	0xbfc4eebaf12a16a8	-0.16353546882253522
50	0x3ff8dd9e3601d5cf	1.5541059598593738
51	0xbff7dfeb2ca2960f	-1.4921676391180687
52	0x3fd57c055fdecf2f	0.33569464075411565
53	0x3ff6099b2f1f5076	1.37734526068837
54	0x3fd3858a2957d977	0.3050256160489861
55	0xbfc11f8c40545f3b	-0.13377526417820626
56	0x3fc10c77a5372fba	0.13319297377745248
57	0x3ff03fab8c2395ba	1.0155444597415753
58	0x3fd4dda847702e85	0.32602889038455657
59	0x3f74df023b6f7114	0.005095490188036917
60	0xbfd8ea9441b758e7	-0.3893175737151879
61	0xbfd212149fbd2c42	-0.28235354995257833
62	0x3fd04c05f788a22b	0.2546400945016411
63	0x3fce70a542ad3dc1	0.2378126693315448
64	0x3fd0a3dc2506ebfc	0.260001217040269
65	0x3fda75cd7f8b425c	0.4134401078745549
66	0xbfe1ec537f8ce669	-0.5600984088152475
67	0x3ffd92558bac4360	1.8482261138890053
68	0x3fea86132f19aa26	0.8288665695120627
69	0x3fff02832d45e134	1.9381133812403961
70	0x3ffae8b9dd2899e3	1.6818178786285152
71	0x3fe2ab64f258205b	0.5834221585546503
72	0x3fc5752e5a52e129	0.16763858232821718
73	0xbfce38840132aaf5	-0.23609972055904618
74	0xbfd61b4c7abf4bda	-0.3454161833480477
75	0x3ff0c511afc1ebad	1.0481125703360974
76	0x3fe3d1e2e326d1b4	0.6193708836131493
77	0xbfd7fa094ef49c74	-0.3746360083627629
78	0x3fd9615a426221d0	0.3965669296526615
79	0x3ff0523cfaf3ef4c	1.0200776865812768
80	0x3fdd17804aa1de97	0.4545593956786233
81	0xbfd9a09068471e97	-0.4004250543916696
82	0xbfd74db777cd96b7	-0.3641184492065394
83	0x3ff50d737ca88059	1.3157839650594012
84	0x3ffaa651f5695e60	1.6656055055990677
85	0x3fc2e29b3d75204e	0.1475404787145202
86	0xbfd74bd4264a412a	-0.36400321711791384
87	0x3ff57929cffe6d1f	1.3420808911094537
88	0xbfd897cdf78ece87	-0.38426541495866967
89	0x3fe9af11f7e9d978	0.8026208726940203
90	0x3fb1db49ded07451	0.06975232782174713
91	0xbfe2748225acc332	-0.5767222152554494
92	0xbfe7c361bb305dc2	-0.7426003128083993
93	0xc0005b965f21723f	-2.0447204048234933
94	0xbfe4232a5f16eb15	-0.6292926652161862
95	0xbfde4bd6a6af2541	-0.4733788135314008
96	0x3ff81c56d6abb74f	1.5069187532021322
97	0x3fde1c9c654fc5f7	0.47049627202713346
98	0x3fcd647b0fea6663	0.22962892796640508
99	0xbfd2338d97e32444	-0.28439655144444864
100	0x3fd17e132028dfec	0.2733199895915266
101	0xbfe550ad2fadc142	-0.6660982066369245
102	0x3fe4c995b42b5a42	0.6496075171406306
103	0x3fe52b1a48c250e9	0.6615115567278994
104	0xbfdbcf9b49f4e194	-0.4345463011009312
105	0xbfcb940a2d386fc8	-0.2154553147128111
106	0x3fe40c16a28a3493	0.626475636921571
107	0x3ff32bd17f59a2a2	1.1981978392233619
108	0x3fe706374be44887	0.719508789278067
109	0x3ff2f0122cacd7db	1.1836110825656678
110	0xbfe0ad144a648fac	-0.5211278393730843
111	0x3fa5d8054a3b3249	0.04266373187201517
112	0x3fd6c0a90ed9372e	0.35550905656860976
113	0x3fd3a4f5facb3f2a	0.30694341174693085
114	0x3fcf013ef7123293	0.24222552360551627
115	0xbfec2fec3af6c229	-0.8808499480856585
116	0x3ff5d35537120d79	1.3640949393455613
117	0xbfd41816ed397374	-0.3139703098911959
118	0x3ff591379a8b0a4d	1.34795341843041
119	0xbfe443e90d524f3c	-0.6332898388086288
120	0xbff047f7cffbfa13	-1.01757031673299
121	0x3fe3f9ba2371d263	0.6242342655446688
122	0x3ffb4597c948175b	1.7044904577791928
123	0x3fd893ed0ede4955	0.3840286870191865
124	0x3fe5a1f3f51d0373	0.6760196483011057
125	0x3fc3ca179a86bf51	0.15460486455185188
126	0x3ff008edfbd2e08c	1.0021800839295194
127	0xbfd224393dd81467	-0.2834609130807792
128	0x3fee379bce81abf3	0.9442881615954078
129	0xbfe7624c706ac921	-0.7307493396422481
130	0x3ffb632439be2a51	1.711704469259207
131	0xbfc31946acb6f5eb	-0.1492088645299384
132	0xbfe4aa56ad9123e9	-0.6457932844142508
133	0xbfe58a4f79bb06f2	-0.6731336000013626
134	0x3ffca0c9838c6a20	1.7892546785939274
135	0xbfe5fc152a8bfa85	-0.6870218115798968
136	0x3ff57801b5f89ff4	1.3417985065698277
137	0x3fea02d94042150d	0.8128477339784311
138	0x3fe785b134403ee0	0.735069849064498
139	0x3ff5468a8581de93	1.3297219481591227
140	0xbfda41354d36a704	-0.4102299932516049
141	0xbf9b27a4dd718155	-0.026518417373496323
142	0x3ff54763ce1f0a30	1.3299291659938142
143	0x3ff7a5f2b8f30a7e	1.478014681299697
144	0x3ff54f3972ae6656	1.3318418960319796
145	0x3fb22c1d17efdf78	0.07098562082671644
146	0xbfe308c023cd6aa5	-0.5948181819215576
147	0x3fd2a400d38d6e23	0.2912599626485834
148	0xbfd9a51a1aaeddde	-0.4007020245148548
149	0x3fe623c856480152	0.6918679890805299
150	0x3fe2bc0760e0aeb7	0.585452737058822
151	0xbfcea1195d95c8cb	-0.23929135388931963
152	0x3ff4dd162ceb5093	1.3039762262970143
153	0x3ff32ab970a7f880	1.197930755675344
154	0xbfe988cd425fd369	-0.7979494377492361
155	0x3fd8746984d0ce13	0.3821052357700136
156	0x3fed7676651ad68b	0.9207107519821006
157	0x3fe2adfe801a0e9b	0.5837395193088527
158	0xbfb888020df066fc	-0.09582531776723252
159	0xbfd4c57b916f708a	-0.32455338671366774
160	0xbfd9a3bdd0e1b23b	-0.40061898611637375
161	0x3febe678a4523bf2	0.8718836984061211
162	0x3fc0121b67f211b6	0.12555258346050174
163	0x3ff4ed2532d4a190	1.3078968034334117
164	0xbfddf324996a8b31	-0.46796526891755535
165	0x3fe553f35abda790	0.6664978763849252
166	0x3fb967b99ac7618b	0.09923896816997606
167	0xbfd8f642b09474d4	-0.3900305485165749
168	0xbfed3acc7d2060f9	-0.9134275859715039
169	0x3fe0f7e45ca4e963	0.5302602586228143
170	0x3fe30c59a0384636	0.5952575806897531
171	0xbfeb0485cf9f91f9	-0.844302087320613
172	0x3fc0d056add2c04a	0.13135798919165814
173	0x3fc0b43ee0782097	0.1305006595650908
174	0x3ff6851f9a51457d	1.4075008419061696
175	0x3ff7b182265a5d9b	1.4808370111621574
176	0xbfce3564398c8415	-0.23600437936787047
177	0xbfc6c9fc8c24122e	-0.1780391392022848
178	0x3fe6f9ab6ecc0fb9	0.7179772533422614
179	0x3fff393245d6a202	1.9514639595091698
180	0xbff42b44e1e19462	-1.2605637382014483
181	0x3ff1c8449bfc23b5	1.1113935559426242
182	0xbff1a8170db15c27	-1.1035376105189785
183	0xbf7b4f6a78e67f54	-0.006667533786099817
184	0x3f80dfe9954651bd	0.008239579074861387
185	0x3fd742a72f33c21a	0.36344318017566624
186	0xbfe66b63a852cba5	-0.7006090438429636
187	0x4001fa03e6262817	2.247077749289939
188	0x3fe519327ccddbe6	0.6593258321362299
189	0x3ff92fa1e73b6c33	1.5741290123467138
190	0xbfb8e033045807e2	-0.09717100959826966
191	0x3fea9240c08f4c76	0.8303531418736287
192	0x3fd5720a6240c229	0.33508548350349315
193	0x3fda70d04f72d9ae	0.4131356025567595
194	0x3ff0117e5214eeeb	1.0042708593672909
195	0x3fd93c5ab153ac2d	0.39430873219561385
196	0x3fd962ff71aa91e1	0.3966673479101513
197	0x3fef9cc688aa6238	0.9878876370667689
198	0x3fe53d6aa69c2950	0.6637471441365879
199	0x3ff968ef8aec4daf	1.58811907069035
200	0x3fc6b7782ed95fd3	0.17747404372744188
201	0x3ff34020b8075ca1	1.2031562031386687
202	0x3fa934c720394109	0.049230787929106574
203	0x3ff492c7fcb1bf6e	1.2858352537986906
204	0x3ff2cfdecfd038f9	1.1757495992383709
205	0x3ff72ac029490402	1.4479371655181699
206	0xbfb679df9cc9d2c9	-0.08779714181748512
207	0x3ff727e1a46c1f87	1.4472366736171993
208	0x3fe210eb5abdbf5b	0.5645653507508358
209	0xbfa176cd957acaf7	-0.034109520432499645
210	0x3fe92e0f321ff297	0.78687248029708
211	0x3fd6f77dae40cecd	0.35885564820203514
212	0xbfdd356f7cc749a7	-0.45638644395253397
213	0x3ffbb9cceb78be6e	1.7328614423858215
214	0x3fd2a59fa19d0ac3	0.29135885984957727
215	0x3fc8056581e5642c	0.18766468851643603
216	0xbfe2f97626573254	-0.5929518460121224
217	0xbfe4562e17517c15	-0.635520024817995
218	0x3fe36fd027b68727	0.6073990607876326
219	0x3fdf801bd019873e	0.49219413110960264
220	0xbfcb2f12ba8cd42b	-0.21237405880825241
221	0x3ff0b8df028b9676	1.0451345538544081
222	0x3fd572b7530793b1	0.33512671573981395
223	0xbfb9cac9799253e9	-0.10075053422981707
224	0xbfedfa935a97a567	-0.9368378419286899
225	0x3fe64390736a344d	0.6957475904652114
226	0xbfeb1dd57f9bad69	-0.8473918430658333
227	0x3ff2aaa9892e019a	1.1666655882437227
228	0xbfd8f8ff820dc00a	-0.39019763660962836
229	0xbfd3b02fcf2256ba	-0.30762858608191446
230	0xbfe570ce758d6d3f	-0.6700203224130873
231	0x3ff8082a3c0de761	1.5019934030410342
232	0x3ffde3aefa376192	1.8680867933345309
233	0xbff5c80dcdc0b76c	-1.3613412892550185
234	0xbfdf41ce1b431e94	-0.48839142477343356
235	0xbfbe9890fffce5f6	-0.11951547860817144
236	0x3fe1d0be7071d293	0.5567314335044834
237	0x3fe3315cf0e0f954	0.5997757630027913
238	0x3ff14a84edd17354	1.0806931772014723
239	0x3fd2ebe0fb4f2e8c	0.2956469015304968
240	0x3fe8bb7b7d98c5a5	0.7728860333501656
241	0x3fdd8f9c79fcdefb	0.4618903342520608
242	0x3fea49eb78fcdfb7	0.8215234149019953
243	0xbfd88f37fe8266f1	-0.38374137739593467
244	0xbfd5ca0704502154	-0.34045577450935594
245	0xbff56597e8239cb4	-1.3373030727323512
246	0xbfc449b06de8eb45	-0.1584988152188435
247	0x3fda69a4788b1295	0.41269790431787473
248	0x3fddcd9c0283c1da	0.465674402671565
249	0xbfe89e9175b4bf95	-0.7693564700075394
250	0x3fdfa617485fea20	0.4945123869689798
251	0x3fd2989142bdc0c5	0.29056197660157707
252	0x3ff9b7b5546ba103	1.607350663916862
253	0x3fdde4802b1946a6	0.46707157334194915
254	0x3fe354faf8fa5d11	0.6041235792971823
255	0x3fec4a79be648993	0.8840912550552268

biases f8 [1]
0	0x3feccccccccccccd	0.9

biases f8 [1]
0	0x3feccccccccccccd	0.9
