experiment_pretrained/yin_yang_H30_WS/epoch_300/yin_yang_network.pt (torch, 10914 bytes, 6 tensors)

_delay_parameters f8 [4, 30]
0.5777178933134334 0.07850144408298072 -0.4774534998794005 -0.6636129548251697 0.05814277013343618 -0.3494925599437118 0.27038152579186664 0.12059555773742874
0.16875750462286637 0.19836205928692327 -0.37041181858389216 1.7331018298013048 0.08732167932560211 -0.3407528042735509 -0.4389001297126388 0.5484494120632
0.5588803428112604 0.05212047563727848 0.1503039650525228 0.34544444563302745 0.23943268058656633 -0.962433338893928 -0.13118058854583656 0.2635155675439109
-0.09437112740111846 0.20443258740923137 0.14090197669918325 0.5012405077362425 0.28349353122255644 -0.4147020068468099 -0.09517187096751067 0.11904316923689684
0.05347115854285207 -0.6705750518025534 0.6766825499482546 0.45394544165598927 0.9897860473653626 -0.666310581608957 0.34793438362679574 0.4758188069619509
0.17376385063253807 -1.4751661459272605 -0.18085424951529838 0.3547516642775819 1.581651794189178 0.327500491851277 0.13639441837638883 0.34769471632763
0.03486777599812759 -0.49876700865433204 0.042421933579150105 0.49265947278391786 -0.011788157970184145 -0.4985516408389181 -0.03981870335014911 0.4546221695670969
0.20874585817471958 0.10845329237406724 0.30732517249440405 -0.5333307465374563 -0.11334656174458654 0.4057305002474149 -0.5161082822663424 -0.2638494902268976
-0.4527274614204333 -0.7192996104031253 -0.286759073346275 -0.6089249112453858 1.6246270990690013 0.08480803972030364 -0.095498223045427 1.2637777329935953
1.3456218617786226 -0.3226228835082271 0.2582793839563919 0.0727657190389128 -0.5285920315384528 -1.4400625518148584 0.07475964962451744 -0.5239216106472364
0.2220557501117054 0.20799926163093038 0.23753885397322486 -1.0143075806941901 0.3470645971384111 -0.23471555052571455 0.3297982381988326 0.08571703624008196
-1.289030351426619 -0.12068888063782206 0.15490939370570372 0.2994439450004115 0.4249939502794616 -0.15787801753211755 -0.1626337483104328 0.1980045452021799
-0.4091285547323438 -0.11945185643193837 0.029338781097094698 -0.134287785040796 -0.22714273130280985 -0.2648936229339712 0.9505071521316582 -0.2671987268648531
-0.19251753357554116 0.07078823543085969 0.1460519179959545 2.0249797047412668 -0.4885913484997797 -0.52063011858034 -0.4546823322090214 1.006623121138217
0.29967887266519844 -0.26795057864253746 0.06414701904990613 -0.06290808834907133 -0.44443887021967493 0.23326437494091853 -0.34704338954890684 -0.27583279086580004
00000000: fd0b 433c aa7c e23f dd71 06af ab18 b43f
00000010: ddef d51f 998e debf 08a2 453c 513c e5bf
00000020: f3a3 71a0 e3c4 ad3f f5d3 c90a 165e d6bf
00000030: 53fe ad50 ee4d d13f 536f 86b8 59df be3f
00000040: dea6 a78d d899 c53f 3fc8 b38e ed63 c93f
00000050: 32a9 b7c5 d3b4 d7bf 5926 fafb c8ba fb3f
00000060: 3a6d efac b65a b63f 1e03 98d9 e4ce d5bf
00000070: 3adc d491 f016 dcbf c64c 0ac8 e58c e13f
00000080: 5f0d 5807 59e2 e13f 8cce a0f4 88af aa3f
00000090: 0e0b 2e0b 293d c33f 7809 2505 c31b d63f
000000a0: d940 5be6 baa5 ce3f e924 6400 41cc eebf
000000b0: bf52 d688 86ca c0bf 68a1 2566 70dd d03f
000000c0: 2bdc dfc9 b428 b8bf 4664 94d6 d82a ca3f
000000d0: 00b0 ee72 1309 c23f 080b 8588 290a e03f
000000e0: ad9e 4e0d c224 d23f 0887 3f49 7a8a dabf
000000f0: a0f9 4d09 2f5d b8bf 3846 aff6 9c79 be3f
00000100: 290a 715a 9260 ab3f d52c a0cf 5975 e5bf
00000110: 09a7 b929 62a7 e53f 022b 852e 710d dd3f
00000120: 3615 efc9 53ac ef3f 9aa7 9f91 6a52 e5bf
00000130: 322f b593 8e44 d63f d04a aeb9 d073 de3f
00000140: c8cd d8d3 e43d c63f 7dc8 0ed1 479a f7bf
00000150: e462 8167 3b26 c7bf b585 1153 40b4 d63f
00000160: 623c 9b1c 724e f93f a535 7b9f c4f5 d43f
00000170: c24a 244f 5f75 c13f 73a0 e756 a140 d63f
00000180: ab42 316b 30da a13f 6b9f 9f75 cceb dfbf
00000190: 8b08 b6e2 53b8 a53f 56fa ea98 bb87 df3f
000001a0: ee38 b2c7 6324 88bf 744c 3124 45e8 dfbf
000001b0: 7be7 50f9 1d63 a4bf a0f1 9495 8718 dd3f
000001c0: 8c97 042d 2fb8 ca3f 8be0 e34f 98c3 bb3f
000001d0: 2e77 4633 37ab d33f 698c 4aa4 0b11 e1bf
000001e0: 6e9a cebf 4704 bdbf fb59 630f 7df7 d93f
000001f0: edea 3084 f583 e0bf 9dcf e5f8 e8e2 d0bf
00000200: b851 339a 7cf9 dcbf 749f d69d 8004 e7bf
00000210: 03a0 76ba 425a d2bf a898 7018 507c e3bf
00000220: bc25 2bfc 78fe f93f db5c 09cd fab5 b53f
00000230: 9964 ce50 9272 b8bf 9eed 0900 6f38 f43f
00000240: f6f2 11ca aa87 f53f bafa 6673 daa5 d4bf
00000250: ffb7 d440 a687 d03f 1ec4 8a2f c6a0 b23f
00000260: 8b48 0cd6 39ea e0bf 72d3 c307 7f0a f7bf
00000270: d99d 32ca 7223 b33f 88b8 ec40 f7c3 e0bf
00000280: c32b 4fa4 526c cc3f e303 2645 b89f ca3f
00000290: b112 ac54 ac67 ce3f b0a9 f295 9a3a f0bf
000002a0: dec4 936d 4e36 d63f 276f afbe 280b cebf
000002b0: f2e9 d511 6a1b d53f 8777 5c3b 8df1 b53f
000002c0: 05dc 2e4a de9f f4bf 1b8e 546b 77e5 bebf
000002d0: 6693 e72d 12d4 c33f 72c4 b0ef 162a d33f
000002e0: 49ae 5cd3 1933 db3f aa64 07cd 5835 c4bf
000002f0: e20e 1cc3 2ed1 c4bf cf25 0d83 3658 c93f
00000300: b4d9 9b88 292f dabf 7a58 d298 6594 bebf
00000310: 0f1f 4445 fc0a 9e3f d151 8096 5730 c1bf
00000320: 991e 3c55 0313 cdbf 35e7 da61 04f4 d0bf
00000330: 4ea0 a0f9 8d6a ee3f 5db6 5ab0 c819 d1bf
00000340: 3188 4e1f 6aa4 c8bf aaf9 1d84 2d1f b23f
00000350: f7c4 a749 d4b1 c23f 796b 378f 2833 0040
00000360: e090 baa5 1445 dfbf 69af 937e 00a9 e0bf
00000370: 4308 baec 8319 ddbf 38fa 8ad8 201b f03f
00000380: 188c 594b f02d d33f c2b1 0d2f 1a26 d1bf
00000390: 568a f464 f06b b03f bef6 1c96 be1a b0bf
000003a0: 518a 2abb af71 dcbf 63b8 d866 9bdb cd3f
000003b0: 6bf4 197a f535 d6bf 94b6 fb93 3ea7 d1bf

weights f8 [4, 30]
1.2034982298301071 0.6356400011505441 3.234804277571324 -2.633817446066148 2.2400487938084788 0.5387042234758004 2.669400607795792 2.0321339724324066
-0.8760291526993912 1.2501268174333584 0.7369035269603844 0.33295239055711306 3.330929941269133 3.0483749598961936 0.9105186830315445 1.5642317196139475
1.061118080735306 2.4328082922545913 -0.3582185638865054 1.899525941492842 0.6928720824551095 1.5675570365614908 1.7959229716664586 3.112006015846551
-0.20973699870269283 1.838897444652121 0.6189451627992045 0.6919016005580375 2.4056950883053267 0.08851805743869982 -1.8552113532869183 0.5841663420528631
-1.1957593909202016 1.9783087263740249 1.3297588619211287 2.118607728129312 2.49138644579595 -1.3178910288590706 1.3302539311314767 0.69410385847516
0.7302758449226228 1.4859748453339767 0.6415149719481814 1.304058717423799 1.5941815199789156 0.834325368896006 1.895665403108002 -0.3792789042340366
-0.928865964160769 0.20046194872487155 0.9049326920195615 1.152012249521158 -0.08582622895895539 -1.223250972474804 -0.038192104357249186 0.5990837687064873
1.655635304049408 -0.5876263589581682 2.0868603238162957 3.0877086987182034 0.06851899518330701 0.8676991729158153 -1.0519078919014904 0.6326333515613002
-2.162506424751919 1.121622930813869 -0.0460009671633509 1.0648062460539085 1.9462363608024262 0.4160084493624807 2.8633701670431813 1.1437615536301415
-1.9509813562878278 0.9538283593475765 1.2883380629759584 -1.4914571508659946 -0.04191324900066484 0.4970580112875021 0.11476882099678776 -0.9192891193478675
0.736156687288938 2.5314985229673437 0.5915085500089146 -0.0006392838753165112 0.7525910271252934 -1.3471564216687255 0.8821408458403098 4.37491396218831
1.5431882943896993 0.7537625004829718 2.271646569299638 -0.6267950282764815 -1.6475633364161546 1.610164153705924 -0.13741077873241062 1.068769846429249
-0.47116588750485455 1.1938187273869516 0.8326513351649958 -0.2479500780555645 -1.2139041465369327 1.1752978043496751 0.1502582759249068 2.0109693826442747
-0.8527998114826307 0.29348257519175647 2.253467141691244 0.17928908347734795 1.7938196749000532 1.3083772765315562 -0.44839708951385093 0.47660696309678835
-0.16766878817792358 2.2689381699560913 4.322992120698589 1.3936244090547987 1.6920054148610844 -2.1613002193222206 0.37192362954309155 1.3414432705073223
00000000: 92a0 1e5c 8741 f33f 5812 1fb3 2957 e43f
00000010: b709 a910 e1e0 0940 24e8 93e1 0e12 05c0
00000020: 35d0 b6b3 9eeb 0140 de75 c1a3 103d e13f
00000030: 5c3e b3b4 ee5a 0540 8480 c574 cf41 0040
00000040: 9bf7 254a 6e08 ecbf 51a9 4bfa 8400 f43f
00000050: cf42 93b4 b694 e73f 2957 248b 174f d53f
00000060: 2025 d898 bea5 0a40 8098 3569 1263 0840
00000070: 258f c013 f822 ed3f 54b9 f1d6 1707 f93f
00000080: 243d dff3 56fa f03f 5f5e a531 6476 0340
00000090: b09b 2d8e 0ded d6bf 8ad8 4950 7564 fe3f
000000a0: 7598 ce12 022c e63f 2957 eaaf b614 f93f
000000b0: c914 d7b9 19bc fc3f 2a21 f868 63e5 0840
000000c0: ad39 1877 a9d8 cabf 49a9 17ba 1f6c fd3f
000000d0: e9ad 0716 66ce e33f 674c 4ed3 0e24 e63f
000000e0: 8b5a 0311 dd3e 0340 8bfe cd91 1ea9 b63f
000000f0: 3f90 9819 f2ae fdbf d84f d19c 7db1 e23f
00000100: bf31 5e99 d421 f3bf 83af 120d 27a7 ff3f
00000110: 6247 783a b146 f53f 2ff2 ca9b e8f2 0040
00000120: 5821 5304 5cee 0340 9643 4ae7 1416 f5bf
00000130: b05c 9958 b848 f53f 04b4 854b 1936 e63f
00000140: bc0b e072 6b5e e73f 9c35 368f 8dc6 f73f
00000150: 702d 0d68 4a87 e43f fc61 76ac 6cdd f43f
00000160: f726 437b c481 f93f 1835 b41d cbb2 ea3f
00000170: d31e e83e a554 fe3f a5dd 6f06 1b46 d8bf
00000180: 3004 4e1d 45b9 edbf f8d0 eeb4 bca8 c93f
00000190: aac4 a967 35f5 ec3f 668e 8465 a46e f23f
000001a0: 6689 842e b5f8 b5bf 8c45 999c 6f92 f3bf
000001b0: 510f 5c5e ea8d a3bf d114 45b9 b12b e33f
000001c0: 70ec cf71 7b7d fa3f bfc5 3fcb d5cd e2bf
000001d0: 3fe3 50d3 e3b1 0040 228e 449e a0b3 0840
000001e0: e492 77fb 758a b13f d311 4e0e 31c4 eb3f
000001f0: 74f0 a15e 9dd4 f0bf a711 6a4c 883e e43f
00000200: 5398 1d2b d04c 01c0 b8a0 e4e2 2af2 f13f
00000210: b117 1a53 708d a7bf 8f0c 3646 7209 f13f
00000220: 6deb febc c823 ff3f 18c7 37e7 e19f da3f
00000230: 1557 3e9e 2ee8 0640 bd37 34ea d84c f23f
00000240: 86ca 053a 3837 ffbf 4aa5 2c0d c385 ee3f
00000250: 99c7 6a5f 089d f43f 33ad 652c 02dd f7bf
00000260: 2034 7443 a775 a5bf a974 ac67 cccf df3f
00000270: 481c c84c 7d61 bd3f 0f5e e503 d16a edbf
00000280: f067 1478 988e e73f e922 304c 8240 0440
00000290: 24f7 b256 a3ed e23f 401b 2eab b3f2 44bf
000002a0: 9484 18c7 3915 e83f f39d 5ae4 f38d f5bf
000002b0: 7332 6b70 7f3a ec3f 79a6 1972 e97f 1140
000002c0: 9994 7f35 e6b0 f83f 4ad1 1089 d21e e83f
000002d0: 4ab3 5909 552c 0240 b3c5 7772 b40e e4bf
000002e0: bdef 7f5f 6b5c fabf 41bc d57c 3bc3 f93f
000002f0: 3105 6328 ad96 c1bf 44d5 1569 ae19 f13f
00000300: 20bf 74f7 9427 debf 33ab 77aa e119 f33f
00000310: fa23 b069 14a5 ea3f ad07 2502 d4bc cfbf
00000320: bead 1dc1 266c f3bf 1fe1 0b12 05ce f23f
00000330: 3b81 86c6 a93b c33f 3cb7 9d1d 7716 0040
00000340: aa4a 8bd4 224a ebbf c03e 9923 6bc8 d23f
00000350: 5c65 e1c7 1907 0240 b052 08d7 f1f2 c63f
00000360: 90df 6942 7cb3 fc3f 7585 d802 1def f43f
00000370: 4859 c5b4 89b2 dcbf 3ffb e27d ba80 de3f
00000380: 7a5e e4bc 2b76 c5bf 2adc 240e c926 0240
00000390: 8310 4d72 be4a 1140 53c3 bc1b 494c f63f
000003a0: 79bb 1745 7412 fb3f ce9c f6c4 574a 01c0
000003b0: 16d2 5fc4 98cd d73f ac4a 0438 8d76 f53f

threshold_noise_fp f8 [30]
0.0 0.0 0.0 0.0 0.0 0.0 0.0 0.0
0.0 0.0 0.0 0.0 0.0 0.0 0.0 0.0
0.0 0.0 0.0 0.0 0.0 0.0 0.0 0.0
0.0 0.0 0.0 0.0 0.0 0.0
00000000: 0000 0000 0000 0000 0000 0000 0000 0000
00000010: 0000 0000 0000 0000 0000 0000 0000 0000
00000020: 0000 0000 0000 0000 0000 0000 0000 0000
00000030: 0000 0000 0000 0000 0000 0000 0000 0000
00000040: 0000 0000 0000 0000 0000 0000 0000 0000
00000050: 0000 0000 0000 0000 0000 0000 0000 0000
00000060: 0000 0000 0000 0000 0000 0000 0000 0000
00000070: 0000 0000 0000 0000 0000 0000 0000 0000
00000080: 0000 0000 0000 0000 0000 0000 0000 0000
00000090: 0000 0000 0000 0000 0000 0000 0000 0000
000000a0: 0000 0000 0000 0000 0000 0000 0000 0000
000000b0: 0000 0000 0000 0000 0000 0000 0000 0000
000000c0: 0000 0000 0000 0000 0000 0000 0000 0000
000000d0: 0000 0000 0000 0000 0000 0000 0000 0000
000000e0: 0000 0000 0000 0000 0000 0000 0000 0000

_delay_parameters f8 [30, 3]
0.4315045679800422 -1.122808236033992 0.36911173719972956 0.013516473294598581 0.09294401367395201 0.3046381340963992 0.006197792778097817 0.37488595577248796
-0.9435103734176871 -0.9026369744269802 0.6821622272581722 -0.12281779209821364 0.12709996895501877 0.7447901732971663 0.14505272744994493 0.29334647501770533
0.6869971934760835 -0.6287761408979855 0.5542164072161976 -0.05451519579674777 0.04954790834579693 0.6747953999057636 -0.4603669128912811 0.3588184490115816
0.3566183258618453 0.06673702125087018 0.22621948686440102 -0.09483673925938928 0.31645376566265276 0.3432844394906632 -0.631659009242597 1.9762312759062657
1.132177765030642 -0.4689998038224802 -0.09294862669015966 -0.2717788687572059 0.5348341175777094 -0.19850186593048896 0.454097644374157 -0.06840485962229416
0.10304264029001885 -0.2697473147190123 0.20893418522021748 0.30020058896548296 -0.03194419999305713 0.296543684821588 0.1993352038088243 -0.7230281962849816
-0.6182536324069259 0.6675397074999958 -0.796863379649131 0.21440793822568824 0.7044715379897525 0.6064006007645754 -0.22732912295043756 0.20230231389118378
0.175125369701061 -0.9278436216125349 0.1737799991328796 0.43595062846704563 0.2794722944265626 -0.13621873722455383 0.14727102201720188 0.4222838489942196
1.0077275370568806 0.3425568938749093 0.2289728266120889 -0.11636162687795557 0.4663929863399999 -0.08657898207182695 -0.9058998285063552 0.37598647847422034
0.5401717250289853 -0.24528515270926254 -0.36393796492201 -0.3589218939461945 0.13521480558678137 0.6459129777110796 -0.14628588232506176 0.33274443337130194
-1.2385866793687592 -2.0102569269038786 0.5301253532556757 -0.33336113136403106 -0.2558111765355927 0.017496395298475416 0.39930244847268576 -0.43916719076023364
-0.18389649450314918 -0.1643940700904998
00000000: 0421 e355 c59d db3f 8a20 d7c4 05f7 f1bf
00000010: eaec f5d5 869f d73f b77a 0f56 86ae 8b3f
00000020: 89ae 16cb 2dcb b73f 6bbe c3f1 307f d33f
00000030: e108 a154 db62 793f 4471 f1a9 21fe d73f
00000040: ba80 a8aa 3c31 eebf 6860 aaef 66e2 ecbf
00000050: e87d 14e1 45d4 e53f e0c2 6da0 fc70 bfbf
00000060: 8101 fed0 cf44 c03f 2b31 9633 52d5 e73f
00000070: 31eb 4b78 1691 c23f 6944 264b 30c6 d23f
00000080: d48d cd89 e1fb e53f 942e 3524 ef1e e4bf
00000090: 55ce fc0b 24bc e13f dc04 2a6e 6ae9 abbf
000000a0: d15d dceb 575e a93f 94c4 c285 ec97 e53f
000000b0: 7dd3 c1c8 a676 ddbf 2932 eda7 e1f6 d63f
000000c0: 02c7 aeab d5d2 d63f 3d77 b46b ad15 b13f
000000d0: ea76 e698 c2f4 cc3f 270f 9475 3847 b8bf
000000e0: a5e5 8d4b c740 d43f 41a3 354c 5ff8 d53f
000000f0: 8176 5df4 8c36 e4bf a298 b5af a49e ff3f
00000100: 280a a16e 661d f23f b6de cfc0 1704 debf
00000110: 26a4 d72f 7bcb b7bf be96 4332 d364 d1bf
00000120: 4000 7970 5c1d e13f 12e7 2e57 8268 c9bf
00000130: e6c4 f190 ef0f dd3f f118 f71a fb82 b1bf
00000140: 8f9d 23a2 0061 ba3f ffb9 b93d 8a43 d1bf
00000150: 4dc4 44fa 5abe ca3f 2230 f687 7c36 d33f
00000160: 96bc 887c fd5a a0bf 2638 095d 92fa d23f
00000170: 5873 a6e2 d083 c93f da27 2407 0c23 e7bf
00000180: 3e45 7ad7 bbc8 e3bf eecd 8f3b 7c5c e53f
00000190: 3923 5fa1 e77f e9bf af4f 5725 b871 cb3f
000001a0: 331f 14e5 078b e63f 15e0 913b a267 e33f
000001b0: 2210 40e6 1e19 cdbf 63ac 08cf 0ae5 c93f
000001c0: 9571 c813 826a c63f df18 541b e5b0 edbf
000001d0: 8dc0 7c4a 6c3e c63f 61f1 fb76 9de6 db3f
000001e0: 93cf 2cc3 dfe2 d13f 21ae bd96 9d6f c1bf
000001f0: 342f 9bdf c6d9 c23f 89c9 43d6 b206 db3f
00000200: c301 efe8 a61f f03f b092 0dc0 73ec d53f
00000210: 665d fc48 fb4e cd3f 963e f325 e0c9 bdbf
00000220: 3280 daf7 61d9 dd3f cbfb 8448 0a2a b6bf
00000230: b360 1ca3 21fd ecbf 2f3d 3297 2910 d83f
00000240: 1026 a736 1649 e13f b052 8afe 8065 cfbf
00000250: 9438 4776 c24a d7bf 694e 1489 93f8 d6bf
00000260: 9511 f7ff b74e c13f 1398 6ab1 51ab e43f
00000270: 43f0 39ec 7eb9 c2bf e95e d04e af4b d53f
00000280: a466 1244 40d1 f3bf 81e0 6c95 0115 00c0
00000290: 336f e071 c9f6 e03f 25d4 3ded c955 d5bf
000002a0: 5efc 4ad7 355f d0bf 325b 6b36 93ea 913f
000002b0: 49c9 59db 2b8e d93f 3fa6 72b4 501b dcbf
000002c0: 99ba de9a eb89 c7bf b1f6 5869 dd0a c5bf

weights f8 [30, 3]
12.259093227583538 0.9884803854771842 7.595341483623584 0.8215895708184936 0.6663436241694163 0.2669187962429339 0.44958490981858384 -0.448806398394862
0.8527094853135172 0.16159247977397764 4.838164181069103 0.3394286208425585 0.46405176672674725 0.9431395515547345 1.2359439591422408 2.3227173101378495
1.1457820272694084 0.8569822482061406 0.6630367325529689 1.4292485564673343 0.8431626873885076 18.151290575676512 1.77411923171406 4.445989115582867
0.9896343245182269 3.146336654036571 4.988580947567501 0.4849161095168537 1.7375194813760126 -0.21546467319175178 0.4773587563410726 1.4966215139259929
-0.46840427214473085 1.3962379964379967 -1.8961170393548064 0.17613723489929162 -1.8128610651298338 1.2081073004120746 0.30349892847921095 3.094654640755091
0.06184289485928153 -1.6914708244992802 0.13839180834162015 14.562404417369041 5.738556069886114 2.561316870891644 2.549887201421794 0.38138730144261185
-2.5226797727853256 -1.1531070695351893 1.3330177252818458 2.368295813844678 0.8418076466525942 1.0053769408520434 1.3634758716261532 1.6004395944395609
1.0992658663191939 -3.9448264312051613 -2.2751747119841594 -1.19163501717079 0.8859213191298055 1.7922287384575186 -0.4699827796573316 0.8068699039745856
-1.5925770578122802 -3.3252609317121777 0.4245388688707815 0.45981142838280514 0.24448013410215863 1.0009948554335113 1.8009362666097952 1.8318494756354384
0.6253697404067696 1.252222204692838 0.36667624099699087 4.019217409225086 -0.3989882874440918 8.661428950651342 -3.4002935282421567 0.3984138821387125
1.2933099172471667 0.578750449376711 2.2832817638152694 1.9132670060499253 0.056805800224513474 1.8136203108510216 -0.8657231098253704 1.405812528507168
-1.6278073664647243 0.6379983960946406
00000000: 3a2c 16de a784 2840 5695 0b9e a1a1 ef3f
00000010: 2f76 a832 a161 1e40 abcd 2c36 764a ea3f
00000020: 9295 36dd af52 e53f 0a45 2393 3215 d13f
00000030: 118a 1cc9 ffc5 dc3f ccda d578 3eb9 dcbf
00000040: 3723 0d67 6549 eb3f c152 f4f7 0faf c43f
00000050: 4f7b 09b6 475a 1340 4f17 76d2 32b9 d53f
00000060: 7d83 6f2e 06b3 dd3f eebb 2fff 322e ee3f
00000070: 6346 432c 6dc6 f33f 4629 27d0 ec94 0240
00000080: 8f77 f788 1f55 f23f a188 2909 666c eb3f
00000090: 0c93 4bcf 9837 e53f 5a1e febb 33de f63f
000000a0: ca50 f150 30fb ea3f 40b9 aafa ba26 3240
000000b0: 1faa f6d8 ca62 fc3f 9633 e75e b1c8 1140
000000c0: 36c1 599a 15ab ef3f 5958 3a8d b22b 0940
000000d0: 2201 5d90 4ef4 1340 946b eb93 dd08 df3f
000000e0: 04c4 4a3a e1cc fb3f b8a4 66ae 5894 cbbf
000000f0: c86c bcbd 0b8d de3f 99d5 8c66 29f2 f73f
00000100: 79c5 8ae9 55fa ddbf e223 42a7 fd56 f63f
00000110: 02ad 16d2 7e56 febf ba0a c037 aa8b c63f
00000120: 30ca ae9a 7a01 fdbf 6342 1552 6854 f33f
00000130: bd1c 0cc5 866c d33f 76a9 d34a dac1 0840
00000140: a237 d235 dfa9 af3f 10cd 15b6 4310 fbbf
00000150: 8d47 6ea1 d2b6 c13f b273 c778 f31f 2d40
00000160: 4eb1 d90a 48f4 1640 9e61 19b3 937d 0440
00000170: bac3 d442 2b66 0440 c790 b348 a668 d83f
00000180: 4426 93bb 722e 04c0 630a 0766 2073 f2bf
00000190: 732e f164 0a54 f53f 97bb 5d13 45f2 0240
000001a0: e3a8 fc96 16f0 ea3f f8ca 9121 0616 f03f
000001b0: 8e4f 5813 ccd0 f53f 7276 558c 669b f93f
000001c0: 6333 17ce 9796 f13f 6861 f328 018f 0fc0
000001d0: f643 a5cc 8e33 02c0 6445 38e1 ef10 f3bf
000001e0: f5bb 8faa 7759 ec3f a705 aa0a f8ac fc3f
000001f0: 32ee 13a7 3214 debf f751 36d5 e0d1 e93f
00000200: 4a9e ba14 327b f9bf 5cf6 4267 229a 0ac0
00000210: de92 6b13 a52b db3f e3cb cee9 8c6d dd3f
00000220: 94c7 3e02 204b cf3f a1d1 782e 1304 f03f
00000230: 7e4f f48b a2d0 fc3f 87c8 5065 414f fd3f
00000240: 0f90 de66 0703 e43f 2eb1 8726 1a09 f43f
00000250: b958 d39f 9f77 d73f d98a 80ba ad13 1040
00000260: 91cd 832b 0689 d9bf a859 bfd0 a652 2140
00000270: dbcd e417 cd33 0bc0 09b9 83f0 9c7f d93f
00000280: 6bb4 62bd 65b1 f43f eec8 93a9 1f85 e23f
00000290: 441e b93a 2944 0240 1401 38dd bd9c fe3f
000002a0: 37f2 5f5c a615 ad3f c076 27bb 9604 fd3f
000002b0: 9aec 82f3 00b4 ebbf f9ec 2347 357e f63f
000002c0: 4976 b2bc 7f0b fabf db0f c49c 7b6a e43f

threshold_noise_fp f8 [3]
0.0 0.0 0.0
00000000: 0000 0000 0000 0000 0000 0000 0000 0000
00000010: 0000 0000 0000 0000
