experiment_pretrained/yin_yang_H5_WS/yin_yang_untrained_network.pt (torch, 8070 bytes, 6 tensors)

_delay_parameters f8 [4, 5]
00000000: 202e f51b 6e6d ad3f b6d4 4dd4 8517 933f
00000010: e6ac 8e18 24ae cbbf e565 6817 00ad 823f
00000020: 59db a1db 9105 c73f 4ad8 7b81 9196 dabf
00000030: 5716 7a74 9df7 c5bf b376 01eb bf0c d13f
00000040: b4c7 fbe3 db5a cbbf 15a3 e725 df7a cc3f
00000050: b63a ca9d 42f6 d33f e8ce 5ca4 245a a9bf
00000060: 5b5e 746e 1900 c0bf a300 cd03 1d88 b4bf
00000070: 637f e7d2 2343 d6bf 1599 a6ec 4363 ad3f
00000080: f166 07d8 a639 c53f b570 0220 8556 ca3f
00000090: 3b20 b96d de92 d7bf 7c0b e7b4 28e1 c3bf
0.05747551051407762 0.01864441974926897 -0.21625186156356974 0.009119034494733344 0.17985747551184764 -0.4154399647226269 -0.17161911189411924 0.26640317868973823
-0.21371029502875916 0.22249974585363277 0.31190553101707097 -0.04951586252573553 -0.12500303166665358 -0.0802019247321391 -0.3478478965389426 0.057397959363969665
0.16582189129149286 0.20576538145986026 -0.3683391639247053 -0.1553088076890069

weights f8 [4, 5]
00000000: aa4a 74cc 3cf1 e93f 4f70 dab1 23de e93f
00000010: 95bd eea9 73f1 0440 e84d ff6a 13a2 edbf
00000020: 0c46 7132 b6dd 0540 54ab 2eef 90fc ea3f
00000030: 7c9a 7f23 908b 0440 0a80 a37f 540b 0040
00000040: 00a4 c581 d24f 96bf 3caf 8425 8200 f83f
00000050: 0aaf 8f5c 048d e53f 32d5 cff4 1118 e13f
00000060: 1b6a 9a16 8a23 0b40 f032 4bda 0c10 0140
00000070: 9680 51ec ea66 e53f 7727 a38c 3b99 f83f
00000080: 9c38 a4c0 af4a f13f 9d7d a52c c944 0440
00000090: b09b 2d8e 0ded d6bf d62d 1eee 5787 fd3f
0.8106979363677358 0.8083666299530793 2.617896392439159 -0.9260346498289751 2.733257669526898 0.8433308288125354 2.568146016437195 2.005532262017373
-0.021788872881561616 1.5001241174276876 0.6734639938199234 0.5341882497292885 3.392353226268154 2.132837014598742 0.668813191947282 1.5374103063245153
1.0807340169008404 2.533586834717154 -0.3582185638865054 1.8455428410987813

threshold_noise_fp f8 [5]
00000000: 0000 0000 0000 0000 0000 0000 0000 0000
00000010: 0000 0000 0000 0000 0000 0000 0000 0000
00000020: 0000 0000 0000 0000
0.0 0.0 0.0 0.0 0.0

_delay_parameters f8 [5, 3]
00000000: be3a 7932 c10f dd3f 4342 42ce be07 c5bf
00000010: b83f ebc4 218c de3f 987f 679f 03ce d6bf
00000020: c2c8 040c 5bda b23f d52a 1923 cb6f d0bf
00000030: 9047 f30f a59b 923f d7a9 6cf8 56b4 bb3f
00000040: e0c6 8220 32df cc3f 68d1 9f2f e2c9 b93f
00000050: 5658 cf91 5ceb 933f 3490 9af7 c0db c03f
00000060: ad9e 790a 7ab7 c13f 8c43 008b f663 e03f
00000070: 09ce 0c9a 4fb2 d03f
0.45408658913667554 -0.16429886885863895 0.4773029730831655 -0.3563241059000517 0.0736443428366185 -0.2568233340031559 0.018171862696199137 0.10822051587152913
0.22556139552539545 0.10073674833967561 0.01945252075150735 0.1317063530924557 0.13841176520803825 0.5122025217880135 0.2608832363505092

weights f8 [5, 3]
00000000: 08cb 800f 0597 0440 0cc9 e34e 0a1c db3f
00000010: 83b4 8742 ccf5 ed3f 1dec 917d 20cc f03f
00000020: 9295 36dd af52 e53f 0a45 2393 3215 d13f
00000030: 5e5f 1c00 7313 d33f 447b fe7b f019 ce3f
00000040: 162e 64f5 f9a8 ec3f 2481 32a6 2006 e83f
00000050: 1f43 e2c7 ad15 f83f f983 62bb 3106 0140
00000060: a400 fba5 75a2 0140 2046 e249 b046 b23f
00000070: 58fc b061 a8a6 f03f
2.5737401210002453 0.4235864420326301 0.936254625264738 1.0498356728628615 0.6663436241694163 0.2669187962429339 0.29806208620856534 0.2351666074218547
0.8956270020293597 0.7507479902306256 1.505292683407056 2.1280245437087584 2.204325958940972 0.07139112285428739 1.0406879249637964

threshold_noise_fp f8 [3]
00000000: 0000 0000 0000 0000 0000 0000 0000 0000
00000010: 0000 0000 0000 0000
0.0 0.0 0.0
