experiment_pretrained/yin_yang_hx_chip55/yin_yang_untrained_network.pt (torch, 57623 bytes, 3 tensors)

weights f8 [25, 120]
00000000: bc38 eac5 cf54 c03f 022e ad4c 1ae4 bb3f
00000010: c04e d72f 0d23 6fbf 65e7 f6c3 75b8 ba3f
00000020: ce36 3413 279e b1bf 98df b202 1f49 8ebf
00000030: 68e8 a5af 7bec c53f f64c a486 7bed a43f
00000040: 7eae a051 446c cc3f 91c3 2a5b 13a3 c53f
00000050: 83c8 eb31 e9c5 b23f 9aa6 7757 bd10 c43f
00000060: c85e c5cb 9862 96bf 9487 4bad 9656 92bf
00000070: e4a7 77da 7bdc cb3f 9be2 b3e6 4afd b73f
00000080: 842d 7400 bc76 97bf 64b0 679f 86fe a5bf
00000090: 8c0f 3f80 e008 c63f 9c5f 7706 bab3 ca3f
000000a0: 200d dda6 b6d9 c73f 6efb 20e4 0273 b9bf
000000b0: 1c25 54da b70b 923f 1dce 67ae f52a cd3f
000000c0: 02b0 1bef acad c23f 527d 7148 37e3 b43f
000000d0: b08d 50db b9d4 79bf c4c0 28dd 0c74 d83f
000000e0: cd73 9b73 b07a a43f b6b7 26c9 547d af3f
000000f0: 2e8e 6aa9 bf24 b1bf d04f cc82 9753 c03f
00000100: 3802 eecb 5c0b c13f dff4 91e6 7ad6 a63f
00000110: fdbb 77e3 54dc c13f 6572 e418 6166 d03f
00000120: 1a8e fe70 a946 d73f 64c8 44d5 1539 b3bf
00000130: 8062 f156 3f98 c13f 2aa1 dc48 67bd d23f
00000140: 787c c4b4 5b03 90bf ce9e 0399 b2ba bf3f
00000150: acbf 0af4 1878 d53f 78b8 7058 b1d1 c93f
00000160: 0006 6a84 b2df cb3f 12d0 69c5 f21e d03f
00000170: 4c1c dc84 b6a1 d63f 1931 6e47 32e9 d33f
00000180: c305 3f05 72e2 bd3f 5d13 c66c f5da ac3f
00000190: 04d5 cf21 2328 b83f f0ab a6d9 5831 903f
000001a0: 5bca 1deb 3a3e b63f 3eda 8931 c230 af3f
000001b0: 08a8 f55f e082 8d3f 28f5 bab0 e939 993f
000001c0: 84bb b997 7b40 943f d0c0 db2f 4975 d63f
000001d0: 9a4f 6b84 fa37 c13f b356 d109 9c6a c93f
000001e0: e2e9 408a bba6 c93f 565a 84e8 134d d13f
000001f0: 00ae 3d7a a391 30bf 9a71 c42f 156e b23f
00000200: c46e 289a 638d a0bf 3823 60a5 fa7f a6bf
00000210: f65a 70ce 1746 c43f aa9f c114 908b d33f
00000220: 45ea 5db3 ac10 be3f 1dae 1cdc 6652 bc3f
00000230: 735e cca3 bd87 b53f 1b9f e001 413b ce3f
00000240: 5dd3 da41 e754 bc3f 88de 7101 bd5a 893f
00000250: ea8b e698 a1f0 c23f 4edf 9991 e658 c13f
00000260: 002f 67ed 41aa c23f b462 5150 0f7d b43f
00000270: aff2 d8e8 aa64 c13f e98d 5ffd 54c2 ca3f
00000280: 2a2d 1b85 65bf c63f c43a 8798 9f50 b73f
00000290: 84ef dc39 3524 c93f 39fe b101 d821 ab3f
000002a0: 80a9 253d ba4c 8fbf 66cb 3b04 497d a73f
000002b0: 82f6 4aba e408 c23f 5c66 e3e0 f449 d03f
000002c0: 066e 27b0 d173 b5bf 2f4e ddd0 5211 ba3f
000002d0: eca6 fdc3 3dcf c53f f482 f7a3 641b d13f
000002e0: 004d 7cee 4bfa 8dbf c078 e3f8 b796 773f
000002f0: f4c6 0c52 e712 b53f 5ec0 bd94 b7c8 c73f
00000300: 496a a21c ea02 a93f d4d0 58aa 4af0 b4bf
00000310: ce24 3106 2b60 d23f a841 5c6b a509 aa3f
00000320: e0f8 9886 6e3d c13f 2c12 48cc e8de 9c3f
00000330: 1d71 34dd 3297 cd3f 60d9 2225 86f2 a4bf
00000340: 919c 792b 262e a53f d4de 7354 2e93 cb3f
00000350: 1055 efec 85ef b53f 60ce 754a c293 883f
00000360: c57a b6be 8c70 bd3f f6ed 04b5 9638 c33f
00000370: 00a8 e1d9 b152 19bf 6817 3e42 a576 bbbf
00000380: c8c5 d404 200d 853f d36e 6f8b 2ec7 c33f
00000390: f078 1507 f6f9 ad3f ea15 e8c1 5d4e b13f
000003a0: 1622 300e a3fa c23f da70 610f baec ab3f
000003b0: a1c4 efa8 018c d03f c270 3455 dfb0 cc3f
000003c0: 602c 93b4 ef9b 8a3f fec9 b16c 4ce8 bb3f
000003d0: 5c76 ed35 e539 98bf 13a5 9c8a 5728 ae3f
000003e0: 6375 091c 4bc4 a83f 5069 5400 9748 90bf
000003f0: 0cff 20bb d7b0 abbf 290e adac ffd9 ba3f
00000400: feea 4746 e9b4 c73f 9ec7 e2b7 e26d c53f
00000410: 9e27 00ee 5d0f da3f 6394 98a6 0d87 af3f
00000420: 3846 966e 8f14 cb3f 188b 80be 657a 873f
00000430: a257 ede1 e3ae c83f 3c72 5793 8283 b63f
00000440: 6d39 f181 109c ba3f 66b3 727b 65e7 d23f
00000450: 1ed9 647a 631c b4bf 28af 9648 7b4e b73f
00000460: 955a 8ccb b21a c63f 7296 3dce 0642 b23f
00000470: 9035 5862 4185 9bbf b845 88dc ef30 c63f
00000480: 95d3 7b20 f374 bf3f de9e 9fe8 5480 d03f
00000490: ec16 2191 d5b6 c53f dc17 8725 7765 bc3f
000004a0: 0bad 5b78 1d7a b93f 7051 af35 cd93 b13f
000004b0: 6a9c 67b5 c25c c93f ba1f 46bc fee7 c43f
000004c0: c1ac f939 d332 cabf 743f f4e4 af27 be3f
000004d0: 1eb0 f123 e5e3 ca3f dcfb c0fd b4fa c83f
000004e0: 620c b5a5 38a0 a83f cc9d 6f08 2663 b53f
000004f0: fd33 12b8 b945 d23f 503f 7fc2 1fe7 b33f
00000500: a456 0680 9614 da3f 918f 6409 8f2b b93f
00000510: 2378 ea20 de37 bf3f dbbd 8809 3a03 d13f
00000520: 8e50 4e0e 0012 c93f a465 cfb1 dfc7 ba3f
00000530: d833 2557 62a8 a2bf 8646 49de 447a c53f
00000540: e609 9238 9b6d b13f be8d 01d6 a2ba bfbf
00000550: 0f28 a6b8 f411 c23f d448 7afc 15c7 c23f
00000560: 803e 4dfd 46a6 c43f e489 339d ab14 953f
00000570: fecb fb56 b319 d33f 5444 5382 2317 b23f
00000580: 30de 828b aa9c 9f3f 00e4 e735 8ef1 143f
00000590: 4f58 2733 8758 a43f ae7f 37a6 4ad0 c43f
000005a0: c094 58cc 06d1 5fbf a232 d2bb 6994 b2bf
000005b0: a6dd e2cc 1152 b2bf 029c 8298 8162 c63f
000005c0: 2a20 344e a690 d93f fce4 93c1 1b9a 9c3f
000005d0: d034 1c73 858d a93f 7252 9064 9fb4 babf
000005e0: 4001 168a 953d a8bf 909d d01e 7e43 c63f
000005f0: 7fe9 bb5e 3c2f cd3f 1e42 8b82 dc67 b4bf
00000600: 40fc ac77 a95e c43f ff76 3902 9e18 d13f
00000610: fae7 cd01 66f6 a03f b033 a105 3233 acbf
00000620: dae4 e955 e97a c13f b70f 7357 0044 c0bf
00000630: 9088 82c5 81ae c93f 5a50 c8a6 9c4b c53f
00000640: 1a66 ef9a 967f c83f ef25 34df 077a cdbf
00000650: e0d1 8cc6 ee4d 86bf 68b6 b20c 3dc7 d53f
00000660: cdae bacc ac3c a73f f85a 1fee 3f66 cb3f
00000670: ecdd 53bb 4bf4 963f 61e5 fa4e 8f40 c13f
00000680: 31b2 06d8 3cf6 b83f e461 a604 6952 afbf
00000690: 8e26 3608 fd27 c3bf c0a8 c5c2 7f93 94bf
000006a0: f0ab a784 af54 b13f 5058 a6eb 83ce ca3f
000006b0: a25f 2c5f a4e0 cb3f d057 cad1 0525 be3f
000006c0: c099 f65b 0901 7cbf ebd0 5d1a ce9c c23f
000006d0: 21f6 0b58 bdf6 c73f 31f3 157a 6206 b93f
000006e0: ced8 651e 81ab bc3f e339 7da9 b8ec bc3f
000006f0: 13ce bb4b fbca aa3f 9e4f 6929 7d8e bb3f
00000700: be21 99f2 d56c c63f 6be2 be82 89db ce3f
00000710: 7eb3 9263 cb63 a83f 9064 1333 b8eb 7dbf
00000720: 3e0a 822a 7c00 b43f c7ce 54ec 67fc cc3f
00000730: b17b f921 7f45 ac3f 8c6c d7c4 2076 9e3f
00000740: 60f1 7702 3ac5 953f 9416 539a eb69 c1bf
00000750: 7349 a86b 56f8 c13f 20d8 4ceb b957 d03f
00000760: e0b3 ba12 7474 a4bf d089 e588 a4b6 bb3f
00000770: c842 0c78 b2b6 c13f c4c5 1ade 586b bd3f
00000780: feeb ece7 f202 d03f 7893 1d35 7324 833f
00000790: 7891 1633 d00a b43f 7c6d 2ece 204e a9bf
000007a0: 20d7 0a24 dc7e ad3f 15c3 e2cb 243b c33f
000007b0: 6fdd 7276 bec2 ce3f 284b 318c 58f7 b53f
000007c0: 3e05 253b c213 bd3f 0050 1383 4646 8c3f
000007d0: d272 3172 dacb cc3f 6907 5a06 c9c8 b53f
000007e0: fe1a d31b db15 c63f 5a82 4b10 8db8 cb3f
000007f0: 829f a4a6 5156 b6bf 6a33 9afa 1294 d83f
0.12758824504675725 0.10894932147964911 -0.0038008935505134678 0.10437713655747201 -0.0688194677242919 -0.01478790499673703 0.17127939297262462 0.04087434786392834
0.22205404268003187 0.16903917266384075 0.07333238095069032 0.1567608525359006 -0.021860492169564677 -0.01790843422612161 0.21766613166192805 0.09370868809117854
-0.022913873222063966 -0.04295750327932593 0.17214590322521095 0.20860982242333825 0.18633158824568685 -0.09941118306686089 0.017622826290822777 0.22787352577107436
0.14592515635683873 0.08159204023967462 -0.00630638695023171 0.3820831451184967 0.03999854480000629 0.06150307612857324 -0.06696699033869244 0.12755102049470546
0.13315925557619024 0.04460510315491616 0.13953648669072996 0.25624873572249945 0.3636878589115625 -0.07508980232958745 0.13745872254618874 0.29281026950276845
-0.01563781061952027 0.12394253001877617 0.33545516807771025 0.2017118150556063 0.21776420083556047 0.2518889358391344 0.3536201760729838 0.31110817885998326
0.11673653247910125 0.056358022239726614 0.09436244559750057 0.015813244137159843 0.08688705673356749 0.060918873355082045 0.014409783295111125 0.02463498250175636
0.01977723229941432 0.3509085624091428 0.1345208307817501 0.19856596450215633 0.2004007744852308 0.2703294535325872 -0.0002528213610648311 0.07199222961612009
-0.032328713005168846 -0.04394515293831208 0.15838906841300798 0.305393238324991 0.11744193438600188 0.11063235162571812 0.08410248993856743 0.23618328658744123
0.11067052228720571 0.01238010082873521 0.14796848264549506 0.1355255328123754 0.14582084743448576 0.08003326140295536 0.13588463181976837 0.20905554172269028
0.17771595954250446 0.09107396577676768 0.1964174778494191 0.052992582518524185 -0.015283064833700122 0.04587772537879324 0.14089640709237378 0.2545139499830833
-0.08379850912700001 0.10182683562498406 0.170387001703879 0.26729694378268154 -0.014637559142590906 0.005758970872390801 0.08231969597980165 0.18581290018801416
0.0488503608659881 -0.08179155978070024 0.2871196327656208 0.05085484443236804 0.13468724796434284 0.028194081753115594 0.2311767177678882 -0.040912811310976904
0.04136771469784962 0.21542910693800954 0.08568608316939597 0.012000577828735703 0.11499862342905505 0.1501644500620924 -9.659967915501277e-05 -0.10727913729905725
0.010278940341410428 0.15451604660380855 0.0585476764342604 0.06760202392623396 0.1482738322522585 0.054540457131879896 0.25854531762804284 0.2241477170981679
0.012992737482269756 0.10901334432291063 -0.02365835324905273 0.05890153471984596 0.048372599766234335 -0.015901908297658196 -0.054083577721483506 0.10488889661524382
0.1852084725540734 0.16741594294358902 0.4071879219269422 0.0615772500862384 0.2115649499869947 0.011463923336184886 0.19283722430799083 0.0879441842766448
0.10394385502261168 0.2953733163401949 -0.07855817545064211 0.0910412838190352 0.1726897710693335 0.07131998572511991 -0.02687551653621295 0.17336843746356378
0.12287826102313056 0.2578327438081781 0.1696421583785005 0.11092323938564114 0.09951957882337951 0.06866152344384147 0.19814332826283315 0.1633299273782976
-0.20467605906319444 0.11779307689380208 0.21007980589945502 0.19515097036671036 0.04809739134591308 0.08354413705784863 0.28550570464795993 0.07774542330230116
0.4075065851442139 0.0983209035808257 0.1219462232934068 0.2658219426257042 0.19586182306796157 0.10461233225887284 -0.03644091905389474 0.16779385427303256
0.06807870989909012 -0.12394159054524942 0.14117297187868913 0.14670061901103415 0.16132438057183052 0.02058666369419794 0.2984436368416822 0.07066556865471912
0.03087107159146124 7.989340290483204e-05 0.039737915987345766 0.1626065551381521 -0.0019419256581241634 -0.07257710299945555 -0.07156478168587074 0.17488117167269485
0.39945371281692366 0.02793162697796435 0.04990784673837256 -0.1043185825840938 -0.04734484968776309 0.17393471245416636 0.22800402284321916 -0.07970979868992642
0.1591388544420358 0.267127515957199 0.03312987110162165 -0.05507808989259588 0.13656346030237537 -0.12707523603432744 0.2006380285648146 0.16636999267268743
0.1913936859626098 -0.2302865829336009 -0.010890832361476421 0.34028555145309847 0.04538478850494485 0.21405791403841312 0.02241628962380375 0.13478270870636336
0.09750728868557058 -0.061175615136736444 -0.14965784932092102 -0.020093914282747205 0.06769844998022712 0.2094273472436634 0.21779303214202367 0.1177524220641708
-0.006836926040170999 0.1454103115789914 0.18721739577442612 0.09775367241486489 0.11199194900641204 0.11298708093565994 0.052329876894784765 0.10764295826930811
0.17519640298475098 0.2410747421652276 0.04763637152186727 -0.007304877786020417 0.07813240087310988 0.2264528182946519 0.05521771707275692 0.02974749757218524
0.02126017227236454 -0.13604493174914423 0.14039116150577122 0.25535438517124653 -0.039950969015400295 0.1082556566448496 0.1383879743739469 0.11491923735118009
0.25017998360607396 0.009346866663415318 0.0782899975516268 -0.049424195450423064 0.05760848941774399 0.1502424235855179 0.24031811507823472 0.0858054487483001
0.11358274406395183 0.013805914759736027 0.22497110915983015 0.08509498982496456 0.17254198893188993 0.21656955047275767 -0.08725462263521247 0.38403772805104686

weights f8 [120, 3]
00000000: 17e9 86fc d476 d63f fe83 50cb e349 a7bf
00000010: 74a6 0d83 324c a2bf b0f9 0de1 4a3f c83f
00000020: 16c3 acbb 0573 913f 20eb 9535 05af 823f
00000030: bab7 c879 323c 9c3f a6ab b114 bbae c13f
00000040: 0bf6 f29f 2473 b3bf fa84 0a4c 8fe4 c93f
00000050: aec5 256b 4975 a93f e035 f0f9 7b7d 71bf
00000060: 8004 f969 662b 40bf f54b 23db c389 b23f
00000070: 70d1 80e5 3c96 743f 58c4 9fca 4a85 c33f
00000080: fbd3 8497 fbd0 b0bf 0cd9 dbd0 e3b1 c53f
00000090: 2c5b a507 51a9 9d3f f209 4331 2407 e23f
000000a0: f8e0 9f85 3151 c63f efe9 e589 2666 b1bf
000000b0: d8ff b99c cad3 b03f 7629 b43f 39f4 ccbf
000000c0: 36b1 5ca4 5342 adbf 109f 04d8 9e6f b13f
000000d0: ceb0 24a9 2268 af3f 7036 536d 484c 75bf
000000e0: 6487 e075 b228 cf3f 9b9d 6168 a2b8 a73f
000000f0: 99d6 3039 3c89 b1bf 56f2 ff54 fbff ba3f
00000100: b44b a46e dfae c6bf 2053 bb39 66ce 7b3f
00000110: 6660 9a82 9cac cabf f662 1ce2 acb2 a73f
00000120: 2199 e586 cfae b93f 6daf 51f1 f653 b9bf
00000130: eb9e e04b 562a ae3f 067f 529b 12ba cabf
00000140: 4020 4bb8 94c4 773f 2e19 fbd4 634a cb3f
00000150: 64cc 3d2b f804 94bf e758 d106 765c b73f
00000160: c0d5 dfef 40b1 a4bf ba2b 94c9 c0d2 c8bf
00000170: b049 aab6 4107 8bbf f20c ba3b 6db2 b53f
00000180: 12bb 8b9e d2c6 c4bf 8ae1 05d5 a5e2 dc3f
00000190: bfa6 7071 bb13 b43f 81c0 3d24 7b61 d73f
000001a0: cfac e561 c176 bbbf 11b1 7886 508c a33f
000001b0: 705d 798a 2216 cc3f dd57 8e72 8e6b b1bf
000001c0: 8a32 d577 3d45 d83f 7a80 8b4b 594d abbf
000001d0: c049 8861 3a76 7b3f 0031 c512 f0f3 46bf
000001e0: 55e6 0448 8d5d b53f f7c0 b191 5a32 a03f
000001f0: 66d7 2718 0040 bb3f 6458 93ea 544c ac3f
00000200: 700d d40f 3159 c23f 927d 7584 b351 bb3f
00000210: f6c3 b7e9 dff0 d13f 03b9 a64e d61d d53f
00000220: 83db a0c3 fb83 c73f 1432 de71 e8ca c63f
00000230: 4817 d755 2e52 9b3f ba34 a1cc c49e 9d3f
00000240: 6b35 03ab 84fe bd3f 41bc 57bf ac3e b8bf
00000250: 6b7d 660f c1ee babf 3409 0ac4 e4da c6bf
00000260: 3c1d 5ed2 e2a8 93bf be18 9b57 e9d5 c13f
00000270: fa05 7ed0 1357 afbf 38dd 58f3 bd06 b13f
00000280: 38a4 2b4e 1913 c23f 5086 ee90 02ed d03f
00000290: 2486 b395 f0cf cbbf cb51 7d95 f235 bebf
000002a0: 66b1 1c30 9326 c1bf cdb0 e2a8 720d ad3f
000002b0: b8a9 a4df 69f7 a83f 253d 160d 5dcd b8bf
000002c0: aafd f2ef 2b29 903f 0809 a98d 0646 da3f
000002d0: 5d76 ad3a 6cea d03f e4fd 0376 fbc5 ca3f
000002e0: 0079 1a8f a179 56bf 5aba 23c0 c3f2 ad3f
000002f0: 27b2 31d8 93d1 bfbf 3059 c0ee d68f 76bf
00000300: 0381 7ade 3e02 d23f 4417 f9d1 7e67 c93f
00000310: 56c4 9673 2c8d d13f 756c 1e05 446a c63f
00000320: be26 091d af41 c53f 1e23 482e 4673 9e3f
00000330: 2c03 19f9 cdd2 c9bf de53 86af 58bd c23f
00000340: c18c 1730 7a66 b83f f965 dfea 9e2e b03f
00000350: fa4f 4a90 4c0a c73f 80aa 8fb0 2370 6fbf
00000360: c022 0d91 dd14 52bf 4ce2 bec0 043c 90bf
00000370: 8b3c fd5f 3033 d63f 1836 017d e228 823f
00000380: d536 d91d a871 b5bf a5a5 db1c d64e d1bf
00000390: 7acb f8b9 588e a43f 746c 24d4 14f8 d03f
000003a0: d1f5 ccd4 5292 c33f 329b 8a10 0afe afbf
000003b0: b30a 6ac4 efe1 c03f 5072 e3b6 4a3d 8cbf
000003c0: 9fbf c7ec d708 c03f 0804 e08a 5e1c da3f
000003d0: e4d3 da44 9548 d73f b8a0 5bc9 7356 cabf
000003e0: 08d0 d7b1 a5d4 c13f 1052 e776 5768 883f
000003f0: b438 ceb3 969b 9a3f 3cf6 dbd8 c542 c6bf
00000400: 0368 22ff 91a7 b8bf 856a 10bf 2376 d43f
00000410: 799d 3042 3c3c d43f 2c9d a756 badc c73f
00000420: 632b a5f5 5b7e c53f 86b7 55e2 204f d33f
00000430: a8e1 dc58 524d c83f d84e 93b8 9787 d03f
00000440: 5edf 21a9 1aca c13f fe28 1b3c 2ce6 c2bf
00000450: c18a e321 d722 af3f b710 46d6 0c30 b1bf
00000460: e48e 6f6f ccf4 b03f 4213 3146 9953 cc3f
00000470: 26b0 61ac ea1a ccbf a3de e0ac 8199 ba3f
00000480: b043 d58f 895c d13f f67c 4acc d8f2 ac3f
00000490: 91e2 39c5 20d2 b4bf 1922 0724 2e0a d73f
000004a0: 7a5a 7c98 a7ae c03f 7e1f 9763 dc4c c4bf
000004b0: 85b5 b897 258c c73f 31b5 3d82 d473 c53f
000004c0: 4c8d 28d2 2824 ca3f c0bb 4f0a 06f1 9bbf
000004d0: b231 8ac8 095d b03f 6800 2278 b226 9f3f
000004e0: 5ec1 7431 6e1d 963f 8347 9865 6cf0 c03f
000004f0: c808 4fe2 fcfe c1bf c8ad bea1 7ea3 cbbf
00000500: 784c e5ec fac2 d03f 3741 deb2 445d d93f
00000510: c618 c487 649e c1bf 50c0 1cb2 c96c c23f
00000520: 8a04 b1ae 3dfd a6bf 9675 ede2 15d2 d13f
00000530: dace 32dc 130c 963f d096 b11a 939b cfbf
00000540: 4c2d 4665 d078 cc3f fec8 6be6 8f82 bb3f
00000550: 236c 064a 2b2f a93f 1510 cc70 0ab7 bebf
00000560: 16e7 90b2 4ff1 b33f eb77 facd a8f4 b2bf
00000570: e06e bc08 5ba3 c23f d334 38d8 8710 a03f
00000580: b40d dd64 c334 ad3f a5da 2125 bf88 b33f
00000590: 7bd2 d792 e74f b43f 92d9 323d 69c5 a93f
000005a0: 43be 2dd2 818b aa3f 2ec7 f29c 3d3b c0bf
000005b0: c79d eb7a 3587 b9bf bcc4 3fa4 f140 c6bf
000005c0: 278d 011a 0d2c b63f a8c1 19f1 7c6d c3bf
000005d0: 3617 c684 45a2 acbf 7ed7 cacc fbc9 aa3f
000005e0: 36be f23c 2e39 b13f 68e4 1952 f7e1 da3f
000005f0: b57c 8e71 cb7c b03f df6e b9a1 1e70 d73f
00000600: 1a80 71da 886d c53f 77c7 0e94 0eb3 b9bf
00000610: 77fe d0d9 3c8f b2bf 899a e632 74bb b83f
00000620: d8a3 f139 bee5 8a3f 6642 2ad7 18eb b23f
00000630: 7047 8a27 3e84 72bf 54d4 1c79 b98c d23f
00000640: 8d73 70b3 7e45 b03f b8ba 4c4f 8cb1 b03f
00000650: b225 85c8 9532 bd3f 37e2 b441 9fc7 ba3f
00000660: 2a2e 3f35 1606 d13f 3af9 04b1 8ab2 cc3f
00000670: a4c0 8645 859a ad3f c338 681b d86b bfbf
00000680: e325 bdda 6f62 d43f 25eb 53d5 bbbc c13f
00000690: 84b7 ec36 d971 d53f dd33 11f7 321e d83f
000006a0: 3cdf e5e2 ae65 bf3f 3cc0 1b94 4194 a53f
000006b0: 5a03 6b36 37b3 c6bf 802b ad38 0351 67bf
000006c0: d566 e48b 848a c13f a8cd 5ddb 0b09 96bf
000006d0: a490 6198 5a43 ae3f 0a38 f655 b41f b63f
000006e0: 3fb3 aefe 19cb a03f c461 d16c 3697 9abf
000006f0: be9e a1f4 9f16 c43f 094c 74a8 d524 b33f
00000700: 6e3c 6808 8533 bc3f 900e facd 0e3d 763f
00000710: 3af8 34e7 3a74 abbf 7001 9197 1041 ce3f
00000720: 8ca0 94a1 88e5 d7bf e0e2 0847 ea87 b73f
00000730: dad5 d802 53a4 c93f 6a54 1f1a 2d65 c93f
00000740: 72f5 0757 2b07 ba3f 60b6 9b13 2a7d d33f
00000750: 3f01 3a38 9069 c63f 669f 8353 5805 a13f
00000760: 5466 2008 8ee4 b63f ecf1 7e01 30c9 ba3f
00000770: 468b a308 8913 c9bf 3373 8cdb 9b13 a63f
00000780: 4098 2e64 9c18 d73f feef 4e75 72b6 c8bf
00000790: bcc1 1205 7764 a4bf 7a13 e751 6f55 b03f
000007a0: 09df ba7e e59c a53f 4681 96a8 6ce0 c3bf
000007b0: c6eb 27b5 0a09 c43f 9abe 686c f3dd cabf
000007c0: 2fac 7012 d880 d53f 7a4f 2347 3143 b83f
000007d0: db8b 8dee 136b c03f e06d 5d4f 6c7b b73f
000007e0: ce19 d6b6 b469 cc3f 0f82 7d87 82ac b5bf
000007f0: b77f 35fd f10b a03f 9631 cdc0 379b c73f
0.3510029283603599 -0.04548560959688784 -0.03573758935710894 0.1894315337085124 0.01704033811546698 0.009122887323191942 0.02757338398276208 0.1381448603673025
-0.0759756937504436 0.20228759015029835 0.04972295220330679 -0.004270061762338767 -0.0004934549396652527 0.07241462802930683 0.005026090504589895 0.15250525373224622
-0.06568882416907222 0.16949126909430168 0.028966203776998586 0.5633717500825794 0.17435282730708201 -0.06796494356778003 0.065731681121178 -0.22620311365637819
-0.057146657766085004 0.06810944341543412 0.06134136500108554 -0.0051997021848372155 0.2434294772693263 0.04633052372156073 -0.06850029369601386 0.10546847176733229
-0.1772116937869136 0.006788634603897475 -0.2083926809034466 0.04628505954878463 0.10032364886646807 -0.09893744842127968 0.05891675640333268 -0.20880348762602113
0.005802708565802617 0.2132077016778537 -0.019550206794019323 0.0912545935292176 -0.040414838105714335 -0.19393167345728363 -0.013197434794425117 0.0847538252656255
-0.1623175882482078 0.45133348277115515 0.07842608947307904 0.36532476939374453 -0.10728081359927731 0.038179890074703356 0.219425504316614 -0.06804743096139938
0.37922608091756926 -0.053324499580185994 0.006704547930456106 -0.0007004663689627322 0.08345873840598846 0.03163416889663211 0.10644531812417099 0.05526986468764575
0.14334691307895353 0.10671541198597925 0.28032682250983443 0.3299461143568722 0.1837153153626013 0.17806726036032272 0.026680683125753363 0.028925967206579563
0.11716489005194368 -0.09470634147122416 -0.10520559907899034 -0.17855510303713518 -0.019198936548062692 0.1393405606997415 -0.06121122284003984 0.06650912467090542
0.14120785061757757 0.2644659438466066 -0.21728331861145123 -0.11801067495009147 -0.13398971413824795 0.05674322425451948 0.04876261572856627 -0.09688359803680109
0.015782057304702647 0.4105240233804044 0.2643080304168047 0.20916693937759512 -0.0013717725491129706 0.058492772297417076 -0.12429164913346168 -0.005508269863659529
0.28138705946368264 0.19847092869366112 0.27424155509931347 0.1751179718965862 0.1660670177246199 0.02973661096078494 -0.20174574530576572 0.14640339441817124
0.09531367944832693 0.06321137651629972 0.18000180287765472 -0.003837651926450747 -0.0011036075340646184 -0.01585395265985516 0.34687432645746047 0.008867043914643921
-0.08376551369402858 -0.27043679063953113 0.040148518277780945 0.2651416846944763 0.15290294066100654 -0.06248504115983734 0.13189503756082885 -0.013788779932320555
0.12526988088165766 0.4079815250589154 0.36380511974431173 -0.2057633145516371 0.1393019789098846 0.011917765918874529 0.025984148716411595 -0.17391274536923784
-0.09630691985003641 0.3197106710301017 0.3161764761338968 0.18642358046711516 0.16791867727655604 0.30170461752901934 0.1898596700573425 0.2582759191984514
0.13898022898114964 -0.14764931616657145 0.0608126858585556 -0.06713943702021906 0.06623532982444719 0.2213012306912337 -0.21957143227643988 0.10390482397712701
0.27127303167531647 0.056540274560797174 -0.08133129897204074 0.35999635237070177 0.1303300375518182 -0.15859560835655978 0.1839644423320516 0.1675973545019729
0.20422849904671592 -0.027286619548188673 0.06391965051643103 0.03042105539543663 0.021596643227156924 0.132337140662056 -0.14059411096793029 -0.21592696092316843
0.26190064558358683 0.39631764857860524 -0.1376462614936768 0.143944942444707 -0.04490082509483624 0.27844760094543497 0.02153044730648799 -0.24693526080516515
0.2224369520666677 0.10746096969140592 0.04918799666048581 -0.1199804807075114 0.07790086850664255 -0.07404570606965392 0.14561021734777224 0.03137611879729154
0.05704317671054629 0.07630533844517602 0.07934424719844373 0.05033425209096544 0.05184560480745095 -0.1268078819608091 -0.09971937418924091 -0.17385693092322707
0.08660966763413978 -0.15177881023875028 -0.05592553373121094 0.05232226252466797 0.06727875698083427 0.4200418760079345 0.06440421602609343 0.3662182406749092
0.16740523019962056 -0.10038844217959118 -0.07249813382895264 0.09661031954474643 0.013133512633617103 0.07389979603818517 -0.004520647803149078 0.2898391421070461
0.06356040840951334 0.06520916877773686 0.11405311723242198 0.10460849146046135 0.2659965057361854 0.22419866221930268 0.05781952356062561 -0.12273932141417547
0.31850811349121794 0.13857219616314712 0.335073760640505 0.37684320571571367 0.12264531173229626 0.042146729783667486 -0.1773442283356655 -0.0028462469976253124
0.1370397265498499 -0.02151888395696991 0.05910761938210499 0.08642127131153657 0.03279954179683963 -0.025967455283849153 0.1569404549111279 0.07478080141690681
0.11016112761738991 0.00542932303472167 -0.05362114021635063 0.23636062050537587 -0.3733846261916447 0.09191765054937262 0.2003272785092765 0.19840015197283672
0.1016718947866673 0.3045144263731796 0.17509653802336264 0.03324390429935313 0.08942496965792063 0.10463237797279817 -0.19590866967981863 0.04311835341488859
0.36087713035010793 -0.19306784370371582 -0.03982898652009534 0.06380363225532718 0.04221265003201153 -0.1552863906081347 0.15652593465332937 -0.20989840310493407
0.3359890155867928 0.09477527605787187 0.12826775692073408 0.09172703683491745 0.22197588851504552 -0.08466354186885659 0.031341135176944084 0.1844243709005126

biases f8 [5]
00000000: cdcc cccc cccc ec3f cdcc cccc cccc ec3f
00000010: cdcc cccc cccc ec3f cdcc cccc cccc ec3f
00000020: cdcc cccc cccc ec3f
0.9 0.9 0.9 0.9 0.9
