experiment_pretrained/yin_yang_hx_chip55/yin_yang_network.pt (torch, 57623 bytes, 3 tensors)

weights f8 [25, 120]
0	0x3fb632b1d835a2a5	0.08671103981545032
1	0xbfb2d3e160dbcff8	-0.07354553808892195
2	0x3fd381a6cae59974	0.3047883016028188
3	0x3fcec9952184c26b	0.24052681099557857
4	0x3fbed45b297abb7e	0.12042779696160541
5	0xbfcba37ba45bbc92	-0.21592660451230877
6	0x3fd647a7d6d2b7c6	0.34812351206607806
7	0x3ff234f1c6701eb7	1.1379258872492934
8	0x3ff7c3ce200580c9	1.4853039980735494
9	0x3fd17ab62abb1348	0.27311472104002066
10	0x3fecc2897c4fea81	0.898747198865138
11	0x3fef7980d59e1c80	0.9835819408625781
12	0xbfe693e34a2ce511	-0.7055527161348057
13	0x3ff4268743bbf0ad	1.2594063421120538
14	0x3fe138931d79a330	0.5381560874639941
15	0x3ff792ae0e0ad83f	1.4733105228929302
16	0x4000a6c2a9ece5c5	2.0814259791775123
17	0x3fa39c6bfb9bf2a9	0.03830277868653315
18	0x3fb2fd7a7b083873	0.07418027404512077
19	0x3ff5fe4a9ed5d675	1.3745828823570296
20	0x40008a0a351e1481	2.0674022817425457
21	0x4000ac62cd00dd8b	2.0841728225602245
22	0x3ff4f433f406fa9f	1.3096198589625272
23	0x3fd6c75e6c8d0a97	0.3559185085361291
24	0x3fd0023b1e1150c4	0.2501361650113376
25	0x3ff65dc14de25ba8	1.3978894274093623
26	0xbfd4081686682a1f	-0.3129936516349136
27	0xbfe8ed15f4da260f	-0.7789411337154791
28	0x3ff6da0237ca2b9c	1.428224771431565
29	0xbff5d95cf2e19526	-1.3655671584650206
30	0x3fc3497112428324	0.15067876235573252
31	0x3ff6db7a16edb103	1.428583230556854
32	0x40005c8fe76d8b64	2.0451963501267745
33	0x3fe0f8e7b91e6531	0.5303839316940523
34	0x3fdf22b6d0e7ad77	0.4864937820518302
35	0x3fdec94a69bb2e57	0.4810358078509344
36	0x3fd4b7321d02729a	0.3236813815399643
37	0x3fef1e44d6517a1c	0.9724449335006429
38	0x3fd4a2c2dacbac16	0.32243415228612216
39	0x3fd9ee2feb19095c	0.4051627918126053
40	0x40009005a9398d8c	2.0703232975662953
41	0x3ff77225eba44dee	1.465368195033871
42	0x3ff9e8d59ab3534e	1.6193443339336286
43	0x400060e8977aa870	2.047318633490299
44	0x3ffb14329c55f490	1.6924310786119214
45	0x3fd6586cdc3062a8	0.34914704802353436
46	0x40008daebfac10bd	2.069180962980765
47	0x3ff7f366d234477c	1.4969242297269991
48	0x3fd8927b714af665	0.38394056380989233
49	0x3fca124da639d642	0.2036835729265239
50	0x3fd44cfb0c7fe4b9	0.31719852657949904
51	0x3ff7b4480f550856	1.4815140341675224
52	0x3fd478ae8a44cfcf	0.31986583235561467
53	0xbfd6bee6f78df372	-0.35540174651378387
54	0x3fd3541691418f4f	0.3020073336140187
55	0x3fd99c35dca13c94	0.40015932603723425
56	0xbfef8179cd61b2eb	-0.9845551501617512
57	0x3fe458cd5fe3b90b	0.6358401177256224
58	0x3fcd76a72258135f	0.23018349816279746
59	0x3fee86c259d8504a	0.9539500956329985
60	0x3ff9b9d0da394114	1.607865192829256
61	0x3ffb0bf241c7e0d3	1.6904165811120506
62	0x3fe3201a3021fb35	0.5976687374203268
63	0x40008bd1ba9a20a0	2.0682711199079478
64	0x3ff7c132fc8f37cb	1.4846677651980709
65	0x3ffaf488ffa9945c	1.6847009646237643
66	0x3fdbc2fba4735e3d	0.4337758165324635
67	0x3fd8156c722aa2c0	0.3763075938136744
68	0x3febcfb8984dc1b1	0.8691065764124258
69	0x3fd7b5201cdf4823	0.37043001956510774
70	0x3fe983a1096cd814	0.7973179992757218
71	0x3fff25ce9c29caee	1.94673024178763
72	0xbfd8d86fc0aba284	-0.38821023765061846
73	0x3fbcec087fab4cf5	0.11297658078119695
74	0x3fd970aa4ca1cedd	0.39750154002761723
75	0x3ff34553acf47a38	1.2044255024008077
76	0x3ff5ef8aeec29593	1.370982105881329
77	0x3fe87a7f7fccb707	0.764953374489523
78	0x3feb02ee74b067fc	0.8441078452190136
79	0x3ff999d78e190454	1.6000590849582936
80	0x3fb01629afa647be	0.06283817804640443
81	0x3ff9ea8de823488d	1.6197642391094036
82	0x3ff5d5bd31796795	1.364682381876695
83	0x3fe9588fde16bdf2	0.7920607888863158
84	0xbfe451d5cca82153	-0.6349896428301157
85	0x3ffbb5acbbcb3759	1.7318541846938926
86	0x3fe07e7a457ee811	0.5154391629541825
87	0x3fedb8c90538c4e9	0.9288067914950747
88	0x40008697a60834c7	2.0657189341787645
89	0xbffef676ba7bc1a4	-1.9351718220242242
90	0x3ff22979aa557c4b	1.135125794760614
91	0x3feabf26c256efc2	0.8358339114852174
92	0x3ff5c50b97a63618	1.3606067584800083
93	0x4000cccccccccccd	2.1
94	0xbfd84c95d00f73b7	-0.37967439001459574
95	0x3fe455166fa78a09	0.6353866749526002
96	0x3ff294c226839630	1.1613179687932522
97	0xbfea41a71406d307	-0.8205142394204764
98	0x3fe0fda2e7061595	0.5309614669974275
99	0x3fdb2c260c1aeec0	0.42456961805485705
100	0x3fd7fbe556527358	0.37474950246705907
101	0x3ffc6df889e6898e	1.7768483530749992
102	0x3ffaa2f9fa11ee03	1.6647891777382717
103	0x3ff41867ba927d36	1.2559582984902824
104	0x3fe90e97697accf9	0.7830311832571218
105	0x3f78cbf3b23d834b	0.006053878725510507
106	0x3ff6bb6f829c1f1f	1.4207606412837277
107	0xbfda9c56ecde9852	-0.41579220897472624
108	0x3fecb2a07b04179a	0.8968050387054405
109	0x3ff7137067892220	1.4422458690988904
110	0x3ff203208eabf3d7	1.1257634709465856
111	0x3ff73c8ef00ecd70	1.452284753538006
112	0x3fe7c8bf2cdcdddc	0.7432552219606197
113	0x3fd01cf0e29adc8b	0.2517664158762691
114	0xbfe0eb7c45952eda	-0.5287457808530818
115	0x3ff811258adc8ca9	1.5041861938741852
116	0x3fd55ef54ca4e63d	0.33392078861979596
117	0xbfffe6bb489c3670	-1.9938309513412626
118	0x3ff41e9f3912b480	1.2574760655800503
119	0x3fca79258d476b57	0.20682210348499083
120	0x3fd655233577be07	0.34894638272723494
121	0x3fe8492493accfe1	0.7589285740164052
122	0x3fc7edb42cf63847	0.18694164462471205
123	0x3fd36ef1bf01dcba	0.3036465039544499
124	0x3fd38c46de7754da	0.30543681836327397
125	0x3ff12d55baff2f8f	1.0735680870593318
126	0x3fcacbd42faa9504	0.2093453629251273
127	0xbfc98bd5177c3ec5	-0.19957984587425961
128	0x3fda152ff7a45345	0.40754317458895556
129	0x3fdf37bdcb419ff1	0.48777718400242437
130	0x3fa04caffa4fa183	0.03183507853083525
131	0x4000cccccccccccd	2.1
132	0x3ff7494cc0c5340e	1.4553954629984704
133	0x3fe4df2b67f25719	0.6522423773010103
134	0x3fd957fd9b7f96f0	0.39599552331343
135	0x3fd704a71a7e8c0e	0.3596589812024725
136	0xbfe15d22fad42f52	-0.5426192187310142
137	0x3fe328c1c1aee427	0.5987252028345481
138	0x3fe704ab740be632	0.7193200365574681
139	0x3fd72c9be2a36909	0.3620977128281458
140	0x4000cccccccccccd	2.1
141	0x4000cccccccccccd	2.1
142	0x4000cccccccccccd	2.1
143	0x3fe0065c1a5286cd	0.5007763399227884
144	0x3fd9f521a5388499	0.4055866349681963
145	0x3fdbca0dfee15dbc	0.43420743837983955
146	0xbff474e4ab661779	-1.2785383887544113
147	0x40003bfb8263dfe9	2.0292883097390484
148	0x3fd47e6c7d253635	0.32021629544474034
149	0x3ff0051eb5cbac05	1.0012499905958532
150	0x3fe9c490f1922dac	0.8052448957618501
151	0x4000cccccccccccd	2.1
152	0x4000cccccccccccd	2.1
153	0x4000cccccccccccd	2.1
154	0x3fd5e1acd4b0450a	0.34189911623350666
155	0x3fdc88ed90c0dcc1	0.44585742126532685
156	0x3ff1e03dabbf7c21	1.1172463139444135
157	0x4000cccccccccccd	2.1
158	0x3fdc6fa464b83cfd	0.4443140967932349
159	0x3fc5e64f0408bfa7	0.17109096238118335
160	0x4000cccccccccccd	2.1
161	0x3ffc0f69a18eeb0f	1.7537628470296942
162	0x4000cccccccccccd	2.1
163	0x4000cccccccccccd	2.1
164	0x4000cccccccccccd	2.1
165	0x3fd3f3e8dd47231b	0.3117620621601859
166	0x4000cccccccccccd	2.1
167	0x3ffd0eae74062021	1.8160843403038671
168	0x4000cccccccccccd	2.1
169	0x3fc338b7d69f2130	0.1501683996159584
170	0x3fe78b049b3c4724	0.7357199699347103
171	0x3fef7c380a5054fd	0.983913440841803
172	0x3fd5b55dd21ad03c	0.33919473188439375
173	0xbfdf7c68652aa3d2	-0.49196824912592974
174	0x3fe18645bddf3507	0.5476406773028949
175	0x3fc3b5bbce98504c	0.15398356998105311
176	0x4000cb6a3e0fec70	2.0993237351045124
177	0x3fc2da0fca52308b	0.14727971438367535
178	0x400031f32f3faa01	2.02438961899793
179	0x4000cccccccccccd	2.1
180	0x3fd104a3cda8d1e9	0.2659081943886848
181	0x3fec5ed91de164cf	0.886578138694995
182	0x3ff5a682d1d0df66	1.3531521030363023
183	0x4000cccccccccccd	2.1
184	0x4000bf735ee4c942	2.0934817708559033
185	0x3fe2d7606e278771	0.5887910987332657
186	0x3fd2f33c59e0a306	0.2960959317884292
187	0x3fc2edb34038e487	0.14787903438426417
188	0x4000cccccccccccd	2.1
189	0x3fdfa6e154fe6046	0.49456055927430886
190	0x4000cccccccccccd	2.1
191	0x4000cccccccccccd	2.1
192	0x3ff58220aa51d41f	1.3442694333182386
193	0x3fe15372f65a3b0e	0.5414366542407565
194	0x3fc4db983e45b809	0.16295149841920445
195	0xc000bdf8abe41ea8	-2.092759459399378
196	0x3fe95c38a1e54ad7	0.7925074731850498
197	0x3fff1d97903bc5dc	1.9447246202583903
198	0x4000cccccccccccd	2.1
199	0x4000cccccccccccd	2.1
200	0x3fd3ebfdf0cb8e17	0.3112788058772095
201	0x3ffdda4021c25d27	1.8657838171691965
202	0x4000c031c2982579	2.093844909923686
203	0x4000cccccccccccd	2.1
204	0x3fd5b2c780558c17	0.33903682263024976
205	0x4000cccccccccccd	2.1
206	0x3fc01f1bb4dfccd9	0.12594934779881475
207	0x4000cccccccccccd	2.1
208	0x3fec35504f55c04b	0.8815080213080447
209	0x3fdc35db1ea812f9	0.44078710550120054
210	0xbfd171c2ddb51337	-0.2725684323416319
211	0x3fffb78b8bba23e2	1.982310815629028
212	0x3fe9c07fd8721f3f	0.8047484614807913
213	0x3faaa7d893cf23de	0.052061813395603215
214	0xbfa1a4a441859e59	-0.03445924091175518
215	0xbfafb4c390a1487c	-0.061925994305640025
216	0x40003c348efcde3f	2.0293971224707827
217	0x3ff7125b774ac940	1.44198176001062
218	0x3fda90e6f03bb2bc	0.415094122507792
219	0x3fcb69f8bf0f1276	0.21417149857565548
220	0x3fd4dda4bcc4fcf9	0.3260280459835055
221	0x3fe85478b13c5e81	0.7603114568364192
222	0x4000cccccccccccd	2.1
223	0x3fd4300dd39f370b	0.3154329840298124
224	0x4000cccccccccccd	2.1
225	0x3ff46e363e72c4dc	1.276907199801193
226	0x3ff92ce747a18a2b	1.5734627531134133
227	0xbfd9e80443cd16b1	-0.404786173069037
228	0x3fe9a9fff10f3333	0.8020019252959173
229	0x3fef6ac8e1f8500e	0.981785241458512
230	0x4000cccccccccccd	2.1
231	0xbfc87702e19db633	-0.19113193527611969
232	0xbffeb66f286d60d0	-1.919539602202395
233	0x3fc388fd8e2f9094	0.15261811678567894
234	0x3ffc3bba69c5a5f9	1.7645820743294947
235	0x4000cccccccccccd	2.1
236	0x3fd05700bf68855e	0.2553102368566068
237	0xbfb13467c2ad00ed	-0.0672058916361526
238	0x4000cccccccccccd	2.1
239	0x3fe086df2478c56b	0.5164638244952305
240	0x3fdb540ac975e93d	0.42700452493558655
241	0x3fea2a08854dfa7a	0.8176310161214382
242	0xbfaa0e37db522310	-0.05088972618347587
243	0x3fc5ef160b990d7b	0.17135882917692044
244	0x3fbb0245bec51287	0.10550342471567307
245	0xbfe8c09407f23e5b	-0.7735080867004841
246	0x3fc42f96e6a6c50d	0.15770231497075607
247	0x3ff00358cebfefcb	1.0008171154176917
248	0x3ff76a9edfeb7afb	1.4635304209584195
249	0x3fb03c4f2a9ab344	0.06342024603027335
250	0x3fe822a8053c000f	0.754230509017363
251	0x3fed3a7986b7d016	0.913388026353007
252	0x3ff3943d86b4e9e4	1.2236914884548407
253	0xbf8a601ee02a5f47	-0.012878648010243089
254	0xbfce1b25fe7eff28	-0.23520350386206101
255	0x3ffd44d92fc756d4	1.829308687816071

weights f8 [120, 3]
0	0x4000cccccccccccd	2.1
1	0x4000cccccccccccd	2.1
2	0x4000cccccccccccd	2.1
3	0xbff99e96663f2504	-1.6012176507959461
4	0xbfa5bfa048f4b9f4	-0.042477616220242626
5	0x3ff73bed6abd131a	1.4521307153201577
6	0x4000cccccccccccd	2.1
7	0x4000cbf59b058c6f	2.099589549166516
8	0x4000cccccccccccd	2.1
9	0x4000652e77753d89	2.0494050343183443
10	0x4000cccccccccccd	2.1
11	0x4000cbf77749c651	2.0995930976285213
12	0x4000cba0fe5cec23	2.0994281646831197
13	0x4000cccccccccccd	2.1
14	0x4000bcfcfa6dccd6	2.0922793926962227
15	0xbfec4e19b97eda29	-0.8845337508162788
16	0xbff661180d4707e9	-1.3987045782710033
17	0x3ff5743b048e8e80	1.3408765962603013
18	0x4000cc011e1f89f4	2.099611506783953
19	0x400045f9fe35397a	2.0341682300560793
20	0x4000c6eac8edde2e	2.0971275041190642
21	0x4000bf8a935c1ff2	2.09352603077786
22	0x3ff3081a624f03f3	1.1894782867605016
23	0xbff7de26690b65a1	-1.4917358496953528
24	0xbff26d43cca4e02c	-1.151675986662677
25	0xbfdfb3a837c34541	-0.4953403992231707
26	0x3f848c6f6ded984a	0.010033484022368939
27	0x4000cccccccccccd	2.1
28	0x4000954abbf28b19	2.0728964503663403
29	0x4000cccccccccccd	2.1
30	0x4000cb9367b01965	2.099402246533986
31	0x4000cadf5e6b38b7	2.099058854720251
32	0x3fe2300ca7e6138c	0.5683654097816642
33	0x3ff0716cecaf496a	1.0276917691704406
34	0xbff4135a501f6c52	-1.254724801043967
35	0x3ff6e869856398c2	1.4317412577161552
36	0xbff0eb45eb139b79	-1.0574397261313762
37	0xbff58941e75bde2e	-1.346010116334479
38	0x4000af064efa3014	2.085461251268507
39	0xbfdbaff78156794d	-0.4326151621879902
40	0xbff2cfdbc5c36b36	-1.1757467007761995
41	0x3fea4164d9fe21d5	0.8204826600713725
42	0x3ffe623baad2d0ab	1.8989826844017823
43	0x4000ccb71d7cbf7b	2.099958639497286
44	0x4000cc19c54977c8	2.099658528618395
45	0xbff3ba8a8a1e7ec0	-1.2330422778394876
46	0xbfe9ecbc020e4b53	-0.8101482429650367
47	0x3f8514b5537aa34f	0.010293404207304539
48	0xbffed83c135c12b1	-1.9277916675793387
49	0x4000c436bd4565ff	2.0958075320056646
50	0x3fff69403e74585e	1.9631960334422938
51	0x3ffefc31956ee61e	1.9365707242235497
52	0x4000aec101dafe3e	2.0853290696102524
53	0x4000c01305c611b5	2.093786282641498
54	0x4000cc5655021b10	2.099774040343057
55	0x4000cccccccccccd	2.1
56	0x3ff9f891c7a6b4c0	1.6231859015345407
57	0xbfef17681ac9ddc9	-0.971607258149498
58	0xbfe3ddb1a57e5d09	-0.6208122474953665
59	0xbfc4d493679a4d64	-0.16273729857185082
60	0x3ff3aa9519c8d084	1.2291460997776378
61	0x3ff6d4f2d7b4e7cc	1.4269894052545053
62	0x3ff22e8c3e269992	1.1363642146839976
63	0x3ff5dbf3d3117f4a	1.3661993260247578
64	0x3ffd009b775d8310	1.8126482641893666
65	0x3ffd23f29c6e8082	1.8212762938128724
66	0x3fdf58961789a816	0.4897818784580762
67	0x3ff4fe56807284d6	1.3120942132448383
68	0x3fe35e9538d83bc8	0.6052957639930066
69	0x4000cccccccccccd	2.1
70	0x4000cccccccccccd	2.1
71	0x4000cccccccccccd	2.1
72	0x4000c43fa3f53ef4	2.0958245095461
73	0x4000cccccccccccd	2.1
74	0x4000c8163e315078	2.097698675041155
75	0xbff21f1ca80877aa	-1.132595688227847
76	0xbfe392c704ea400d	-0.6116671653744575
77	0x3fb93ed9d57dc94c	0.09861527883712035
78	0xbfe468a85f65281c	-0.637775598829879
79	0x3fd4ee297d16b81c	0.3270362588472169
80	0x3ff844ad5b252c26	1.5167668876990859
81	0x3ffb656e635368af	1.7122634773173038
82	0xbfdf43cce431cfd5	-0.48851320538164816
83	0xbff84d8482db8664	-1.518925200617013
84	0xbff176e37f2003b4	-1.091525551397564
85	0xbfe2f265d8534647	-0.5920895791152326
86	0xbfb47c48d9499b35	-0.08002143196936802
87	0xbfd5f8bd8b24e73d	-0.3433069094495414
88	0x3fe3c6eee3658be2	0.6180338326779486
89	0x40006b53bc971ee8	2.0524058087938677
90	0x4000cccccccccccd	2.1
91	0x4000cb8b8ee8570a	2.0993872799543896
92	0x4000b8fd02314049	2.090326325538659
93	0x3fc6e387feab070c	0.1788187020775286
94	0xbff2468ec88660ef	-1.142226012516456
95	0x3fa5378c759ab709	0.04143942771530191
96	0x3ff15670f84d7bd3	1.0836038302729676
97	0x3ff6f169ee12ad6c	1.433938913319106
98	0x3ff1816a99d7af90	1.094095803210596
99	0xbfcc8ecd47507d30	-0.22310796720646797
100	0x3ff01f6c8f5a7a65	1.0076718902343142
101	0xbfe0be56c62af98b	-0.5232347364870277
102	0x4000cccccccccccd	2.1
103	0x4000cccccccccccd	2.1
104	0x4000c057720bd77b	2.093916789041882
105	0x4000cb58f82755c4	2.0992907893184753
106	0x400043705aec2d8d	2.0329291442228112
107	0x4000c9926859de6e	2.098423781626301
108	0xbffbb87c0b99b61c	-1.7325401738302224
109	0x3fb795ba3a9ec106	0.09212840968280397
110	0x4000a9e5f67d29b0	2.082958150572459
111	0x3fe00466a0b4be72	0.5005372179784457
112	0x3fe332e6a4c4e686	0.5999634950778308
113	0xbff12dacd83b3c36	-1.073651165632112
114	0x4000cccccccccccd	2.1
115	0x4000caa245142187	2.098942317654465
116	0x4000cbcb4984c6fd	2.0995088332791725
117	0x4000cccccccccccd	2.1
118	0x3ff71c46031275a0	1.44440270614664
119	0x4000c089ec497b4b	2.0940130672383126
120	0x3ff56ad91d0418fe	1.3385859616697071
121	0x3ffe4a2ab5ec1e42	1.893107138284805
122	0x3ffb8e989dce9d02	1.72231351512329
123	0xbfe0cac4901943cb	-0.524751931612735
124	0x3ff3111f1078a338	1.191680015888961
125	0xbff324d8991bb95b	-1.1964956265251974
126	0x3fdb4eef66ef34b3	0.4266928200930337
127	0xbff1612b5fb9acdc	-1.086223005225114
128	0xbfcefc86a8673dcf	-0.24208148215119116
129	0x3ff48e95dad22637	1.284810881394504
130	0x3ff6d82654c00e0d	1.427770930343175
131	0x3fed3a57620a8b43	0.9133717455737059
132	0x3fedab9420063ea8	0.9271946549869954
133	0x3ff6f34654f512b8	1.4343932455678168
134	0x3fdfe5537f547e62	0.49837195810866863
135	0x4000cccccccccccd	2.1
136	0x4000cc0f78b87254	2.0996388846672662
137	0x4000cccccccccccd	2.1
138	0x3ff3ebe0e78626ec	1.245087532416103
139	0x3ff63ed6df57ede5	1.3903416370729869
140	0x3ff57fe22ad58566	1.3437215493398411
141	0xbfc41a0cc5906a19	-0.15704497954068655
142	0xbff34790e682aa8e	-1.204972172194775
143	0x3fb20e7aa10d7571	0.07053343231151189
144	0x3feec6d86d1ced5b	0.961773121939966
145	0xbfda7ee9cef984ab	-0.4139961739766231
146	0xbfe999e2cdc6dc48	-0.8000349062994099
147	0x4000caae3f7ba87c	2.0989651641476126
148	0x4000cc30b2359495	2.099702255497116
149	0x4000cc384872d3c3	2.0997167263071517
150	0x3fd6d1ac6dd1c041	0.35654745792908576
151	0xbff46e0864c12efc	-1.2768634734847515
152	0x4000c6b88ecd1ae2	2.0970317036002237
153	0x3fa3af6fe38ca77d	0.03844785359099399
154	0x3fed1abd136cf89c	0.9095139865310276
155	0xbff76be511445964	-1.4638415026180036
156	0x4000cccccccccccd	2.1
157	0x3fe9457e5783a8b0	0.7897330960525064
158	0x4000cc959f8f134e	2.0998947587526464
159	0xbff5b0f809209f59	-1.3557052952328006
160	0x3fd99cc4e4a0d4d7	0.40019342734315216
161	0x3fe1bddb8f34a2dc	0.5544259831413814
162	0x4000affdf4af43da	2.0859336009966514
163	0x4000c999fe5d828e	2.0984382507597905
164	0x4000cba8f8944fa9	2.0994433803807238
165	0x4000cccccccccccd	2.1
166	0x4000cccccccccccd	2.1
167	0x4000ccb410c6dfa4	2.0999528227511792
168	0x4000cccccccccccd	2.1
169	0xbfee694c26a67f8f	-0.9503536944284735
170	0x3fd27b84129e124f	0.2887888128100586
171	0x4000cccccccccccd	2.1
172	0x3ffe58d0cc36c8ef	1.8966835000142586
173	0x4000c92be57e318c	2.098228257096883
174	0x3ff327a65ac362b9	1.1971801324308855
175	0xbf96ccdd47839c3f	-0.02226587056147999
176	0xbfea18f436c5d822	-0.8155461377889461
177	0x3fec851bfe8bc8d4	0.8912487002947054
178	0x3ff400175dbb9214	1.2500222836907868
179	0xbff15cca3b470216	-1.0851538005373462
180	0x3fe7e2e3ab3b478c	0.7464464516035476
181	0x3fec3ec37e478829	0.8826615778346013
182	0xc000cbc6a7ef9db2	-2.0995
183	0xbff32d51861a6225	-1.1985640753174576
184	0x3fc2ce757acae972	0.14692562576039908
185	0xbfefd8d4772ddc42	-0.99521849896599
186	0xbfe5b17c18a7bb2b	-0.6779156190440053
187	0xbfeb61175fe886cb	-0.8556019662102811
188	0x3fe6ebf4e24213f5	0.7163032931426857
189	0x3ff8ec0b03b75613	1.5576276917612446
190	0x3ff2a44fed8d5cd3	1.1651152877218933
191	0x3ff4853b8fd3bec3	1.2825275057074783
192	0xbfcf0c5072a1aeac	-0.24256330106014923
193	0xbff27b87b4f30651	-1.155158716996443
194	0xbfcd5c774ce39c53	-0.22938433889723572
195	0x3ff041b2dca131f9	1.016039716562885
196	0x3fc985a3f3574298	0.19939088231923985
197	0xbff2e84eae9dac31	-1.1817156620916303
198	0x4000c6bc6281b132	2.097039002974406
199	0xbfd8b9f89e911f93	-0.3863507793907896
200	0x4000bf10707e81da	2.093293074474997
201	0x4000bc4df3c05928	2.091945556933883
202	0x4000cccccccccccd	2.1
203	0x4000aad327083e42	2.0834105538740753
204	0x3fdf417c95fd7579	0.48837198874920024
205	0x3fea8a919e35fde6	0.829415139203715
206	0xbfe88ec498ac7cc4	-0.7674277288350813
207	0x3ff5f68a5cebe2ce	1.372690546964964
208	0x4000c69ee94e17b5	2.0969827868420574
209	0xbff370e5f74a3a39	-1.215063062645312
210	0x3fe15cd65e706b9a	0.542582687808465
211	0x3ff01a339493f02a	1.0063968471358842
212	0xbfe780abb0b09df8	-0.7344568682646573
213	0x3fe0236a3e4efed1	0.5043231217350358
214	0xbfe85e1aa5fed112	-0.7614873163315983
215	0xbfc1031fdcd1de09	-0.13290785104958072
216	0x3ff89a52935e14ec	1.5376764065306885
217	0x4000cc807cf83464	2.0998544467207
218	0x4000cccccccccccd	2.1
219	0x4000cccccccccccd	2.1
220	0x4000c7afbff817ce	2.0975031850420924
221	0x4000ca70c3587fee	2.0988478909857724
222	0x3ff55a82042174f8	1.3345966492991561
223	0x400026b7fa72aa13	2.018905598282126
224	0xbfeb3f0a2350ebb3	-0.8514452638404378
225	0xbfbb30fbdb31ca86	-0.10621618367603433
226	0xbfe5107f887c385d	-0.6582639375426528
227	0x3ff325c05b4b0a3a	1.1967166486871421
228	0xbff48b21217cb6e4	-1.2839671428768549
229	0x3f91f93a30e46ce3	0.0175522892323955
230	0x3f956b8c461f6f37	0.02091807535167264
231	0x3fe0006f8f5f3600	0.5000531959755676
232	0x3fe23cffdcc95cdb	0.5699462234723812
233	0x3fe9080e5ce431fa	0.7822334112439073
234	0x3fe6df12e1505df4	0.7147306824362532
235	0x3fe7d5a57d4b7e50	0.744829888073534
236	0xbfe3170770c6d61a	-0.5965611651105889
237	0x3fe3f3f821ff8d2b	0.6235314048794057
238	0xbfef12e4e13525df	-0.971056403978931
239	0x3fcc04bc3244f178	0.21889450506740693
240	0x4000cbacc6809610	2.0994506366721524
241	0x4000ca4cfa2a6642	2.0987796348752292
242	0x3ff718eae940507f	1.4435834037185769
243	0xbf459a634cd44d6c	-0.0006592736114349579
244	0x3fd424828b97cb83	0.31472839004634795
245	0xbfeb5a357b99d333	-0.8547618307189623
246	0x3fe2675048d15ca6	0.5751115247939154
247	0xbfe6dcf1575e8899	-0.7144705492430773
248	0x3fef742a723ba763	0.9829303961862305
249	0x3f90ca5157e6620e	0.016396780958162487
250	0x3fe2bf43e80357ea	0.5858478099351008
251	0xbfdc83b53e00ff6c	-0.44553881697719677
252	0xbfd84ef706ea3b74	-0.37981963801660545
253	0x3fe5dbf8e706ac63	0.6831020843723191
254	0x3ffb80759986ad0e	1.7188621518242289
255	0x3fe14c6dd5bc9943	0.5405797171158969

biases f8 [5]
0	0x3feccccccccccccd	0.9
1	0x3feccccccccccccd	0.9
2	0x3feccccccccccccd	0.9
3	0x3feccccccccccccd	0.9
4	0x3feccccccccccccd	0.9
