experiment_pretrained/yin_yang_hwAware_WA/yin_yang_untrained_network.pt (torch, 14585 bytes, 6 tensors)

_delay_parameters f8 [4, 1]
-0.2536604813141844 0.14070161898490127 -0.11281330561145259 0.20866172494319762
00000000: f60c e22b f93b d0bf 5767 04ba 8202 c23f
00000010: bca3 2732 55e1 bcbf ee6b 476a 6db5 ca3f

weights f8 [20, 30]
0.8311805322757081 0.8852120950032629 1.0712793929726245 0.9408743478639283 0.9206718687455048 0.9136824065220566 0.8622901492428656 1.0853766766928754
0.8781395078304354 0.8820915657738784 1.117666131661928 0.9937086880911785 1.025783327478263 0.9924321328606083 1.0583221589283915 0.9769890747302735
1.0863315882456868 0.8005888169331391 0.9176228262908228 1.1278735257710744 0.8974190583861956 1.1067998780097437 1.149714654888194 0.976232385987647
0.9399985448000063 0.9615030761285732 0.8330330096613076 1.0275510204947054 1.0795945078199165 1.098767383100733 0.8231972013161415 0.9254517723092767
1.2636878589115625 0.8249101976704125 1.0374587225461886 1.1928102695027685 1.055684209362776 1.1012427086025955 1.0824601750921974 0.9507840885703578
1.1177642008355604 1.1518889358391344 1.253620176072984 1.2111081788599833 1.206063353187618 0.9212836682248539 1.0220536181399045 1.018768245793353
0.9868870567335675 0.9609188733550821 0.9144097832951111 0.9246349825017564 0.7976726238401636 0.93243872779511 1.0411229528062584 1.0204832490276845
1.1004007744852309 1.1703294535325872 0.8997471786389352 0.9719922296161201 1.055051772195105 0.9307690890913768 1.0871829970637268 0.8879894125696155
1.017441934386002 1.010632351625718 0.9841024899385674 1.1361832865874413 0.999214821240262 1.1595665348012665 0.9554063556746345 0.9833528847117352
1.0458208474344857 0.9800332614029553 1.0358846318197683 1.1090555417226904 0.8613144376987716 1.0028859487766144 1.0367421527002305 0.9772225829837833
0.8847169351662999 0.9458777253787932 1.0408964070923739 1.1545139499830832 1.0815117914897372 1.0417663080787647 0.9848075820809123 0.9707341355643296
0.8853624408574091 0.9057589708723908 0.9823196959798016 1.0858129001880141 1.2043188714518527 0.8718415709343915 0.9469419275623407 1.0956736582327002
1.0346872479643427 0.9281940817531156 1.1311767177678882 0.8590871886890231 0.8512474355628343 1.099453689889606 0.6639127510566264 1.1502231552383875
1.0149986234290551 1.0501644500620924 0.899903400320845 0.7927208627009428 1.0834543964894219 1.0728212769774834 1.118587993310624 1.0962808593927607
1.0482738322522585 0.9545404571318798 1.158545317628043 1.124147717098168 1.0280197163183753 1.003987397309483 1.185259229032601 1.1630754883486591
0.9483725997662343 0.8840980917023418 0.8459164222785165 1.0048888966152438 1.1651535850978012 0.9727033485830255 0.9854426776534373 1.0559624230036209
1.1115649499869946 0.9114639233361849 1.092837224307991 0.9879441842766448 1.0141489663051584 0.9311878425396986 0.7484663664431831 0.9787863818411643
1.0726897710693335 0.9713199857251199 0.873124483463787 1.0733684374635637 0.9964512848513849 0.9601522156067719 1.0901958620523056 1.147285674069716
0.9995195788233795 0.9686615234438415 1.0981433282628332 1.0633299273782977 1.1980699838501365 1.01030992561079 1.0636255210059262 0.9457950041950703
0.9480973913459131 0.9835441370578486 1.18550570464796 0.9777454233023012 0.9541567568798407 0.9796796006574883 1.0313182559676197 0.9317588316666445
1.0958618230679615 1.004612332258873 0.8635590809461052 1.0677938542730325 1.3343319691765299 0.831829620076284 1.0262729461650026 1.0100457808645473
1.0613243805718304 0.920586663694198 1.1984436368416822 0.9706655686547191 0.9194121986882544 1.1072700274090983 1.0689025436475317 0.9655658820931156
0.8980580743418758 0.8274228970005444 0.8284352183141293 1.074881171672695 0.9486173051775837 1.1620891014365313 0.8463000145536647 1.200112504333198
0.8526551503122369 1.0739347124541663 1.128004022843219 0.8202902013100736 1.0840601774565093 0.9912476160890544 1.0593487632587348 0.9230342616413358
1.0365634603023755 0.7729247639656726 1.1006380285648145 1.0663699926726875 0.9670573202553584 0.8390064663259524 1.1506394031090723 0.9137734385489756
0.9453847885049449 1.114057914038413 0.9224162896238037 1.0347827087063635 1.0623538698570603 0.8444190344123246 0.9067952571754865 1.0677122128701537
0.9676984499802271 1.1094273472436633 1.1177930321420237 1.0177524220641707 0.8962402768134037 1.119004138429243 1.0826352824291625 0.9646990941004229
1.011991949006412 1.01298708093566 0.9523298768947848 1.007642958269308 1.1695129409492822 0.9418012736908793 1.1010291752738628 0.8625647431695439
0.9781324008731098 1.1264528182946518 0.9552177170727569 0.9297474975721852 0.767040260687443 0.8007004762618776 0.8917161845297241 0.8933760113816877
0.8600490309845997 1.0082556566448495 1.0383879743739468 1.0149192373511802 0.9308200081019246 1.1109082545103515 1.052610591502522 0.9705017704467122
0.957608489417744 1.050242423585518 1.1403181150782347 0.9858054487483001 0.9830528846195096 1.1388386055292894 0.9753439081542378 0.9229380538186815
1.07254198893189 1.1165695504727577 0.8127453773647876 1.2840377280510469 0.9886321804960168 0.9069127759716866 0.9064682188286881 0.8777287805314055
00000000: f345 66ea 0799 ea3f 4e01 c250 a853 ec3f
00000010: 7323 5bdc f523 f13f 9c11 3785 a41b ee3f
00000020: 237e d3d9 2476 ed3f 802b dee2 e23c ed3f
00000030: 7627 d582 e197 eb3f 05cb 23ef b35d f13f
00000040: d7a1 6e06 b819 ec3f 9070 6217 183a ec3f
00000050: 635b b5e1 f5e1 f13f 2049 a329 76cc ef3f
00000060: b5d1 44c7 9b69 f03f cc58 4408 01c2 ef3f
00000070: 43ac 5337 e3ee f03f a381 9097 7e43 ef3f
00000080: 0a08 423b 9d61 f13f 5fad 4870 6c9e e93f
00000090: f66d 9f8b 2a5d ed3f 2a60 331c c50b f23f
000000a0: 286d 522c a8b7 ec3f 584c f4c9 73b5 f13f
000000b0: a5a0 a731 3b65 f23f a29d 63b3 4b3d ef3f
000000c0: 0a84 06d4 7714 ee3f 4838 5f19 a2c4 ee3f
000000d0: 077b 9fd7 34a8 ea3f 60f0 bf56 d970 f03f
000000e0: b271 00e4 0446 f13f 3444 851b 8d94 f13f
000000f0: 44f8 39a8 a157 ea3f 9ffe 0209 4d9d ed3f
00000100: ed09 a6c2 1038 f43f c033 2412 aa65 ea3f
00000110: b692 4451 6e99 f03f b18e 9d38 c015 f33f
00000120: 2bde 2120 15e4 f03f 7581 a6ac b09e f13f
00000130: 0ee5 b3c2 c151 f13f 78f0 bec0 d26c ee3f
00000140: 26a7 f3b6 5ce2 f13f 6bda c017 236e f23f
00000150: 7a6d 9d07 d40e f43f adf2 41f8 b260 f33f
00000160: c784 2d16 094c f33f 4fab 2be3 277b ed3f
00000170: b5b5 0ae5 545a f03f fe2b 9eee df4c f03f
00000180: 1886 302a 9494 ef3f 716a e5ef d8bf ee3f
00000190: 6da3 4c4e d842 ed3f 76a4 521a 9c96 ed3f
000001a0: 3ddb 09bd 8886 e93f 49ec 2cbe 89d6 ed3f
000001b0: 70af 968a 70a8 f03f 2109 4b3e e653 f03f
000001c0: a383 aed7 3d9b f13f fc7c 8760 abb9 f23f
000001d0: 1785 5d98 baca ec3f 005b c572 8f1a ef3f
000001e0: 18a3 92f7 7de1 f03f 39ce b841 dcc8 ed3f
000001f0: db7e 92ff 1965 f13f b4c8 c5c5 686a ec3f
00000200: 0b45 9c31 7147 f03f 4831 28d4 8c2b f03f
00000210: 9b58 4681 c47d ef3f 4a7a a286 ce2d f23f
00000220: 21f9 5c5c 91f9 ef3f a91e 88a3 958d f23f
00000230: 4f6b 8059 b092 ee3f 0274 0878 a077 ef3f
00000240: 464c 13a4 aebb f03f 23f9 d6b6 6e5c ef3f
00000250: bc84 81c3 fb92 f03f 2458 1206 b1be f13f
00000260: b0a4 af4b e38f eb3f dbd0 f922 d20b f03f
00000270: ccb6 83f0 7e96 f03f f07e 5a4b 6845 ef3f
00000280: 2736 d8e3 994f ec3f 8389 105d a144 ee3f
00000290: 37c5 affd 82a7 f03f fd3f 9f9e e378 f23f
000002a0: 1afd ea4e df4d f13f 065e f425 13ab f03f
000002b0: c87d bc30 8b83 ef3f 0f82 ab08 4110 ef3f
000002c0: 99db 129d e354 ec3f be93 be3c fafb ec3f
000002d0: ab65 0eb7 296f ef3f 721e fe58 7d5f f13f
000002e0: 1c76 6ddd e344 f33f 739b 4e4b 20e6 eb3f
000002f0: 32ed 4228 594d ee3f 892b 131a e187 f13f
00000300: 8285 3937 148e f03f 5e0d 2f13 c4b3 ed3f
00000310: 8af4 0cc2 4c19 f23f 379f 7a6a a47d eb3f
00000320: ce7a 1143 6b3d eb3f 9aad 98c0 5c97 f13f
00000330: 6ff0 25f4 c53e e53f e69c 2d65 5067 f23f
00000340: 13ce 5132 6f3d f03f 2504 073d 79cd f03f
00000350: c0fd 3d37 02cc ec3f e009 8524 f85d e93f
00000360: 5e12 fa46 d455 f13f d623 b1a4 462a f13f
00000370: 757a 0f86 bce5 f13f b429 65cc 5d8a f13f
00000380: a96a 2cc8 bac5 f03f dae3 c26d 988b ee3f
00000390: 8f57 a2d0 6689 f23f 7ff4 0c51 82fc f13f
000003a0: 9eb0 53cd c472 f03f 6ea5 d016 5510 f03f
000003b0: 97a2 9f61 d2f6 f23f 9bc9 130b f59b f23f
000003c0: 2364 8d7e 1159 ee3f 8229 ca14 884a ec3f
000003d0: dcbc 1a51 bf11 eb3f 4937 3161 0614 f03f
000003e0: cffe ec15 78a4 f23f 07f6 dbc5 6220 ef3f
000003f0: 7855 1315 bf88 ef3f 01b0 89da 38e5 f03f
00000400: 2d2f 3954 f8c8 f13f f9ce c663 b62a ed3f
00000410: 5b11 a4e2 427c f13f 14bb 371f 3d9d ef3f
00000420: 85d8 3844 f439 f03f 7581 4472 4acc ed3f
00000430: 09f1 c0bc 6ff3 e73f 1fe5 78d1 3752 ef3f
00000440: b9f1 d7bf bc29 f13f 9b7f 94a6 0d15 ef3f
00000450: 200b bac1 a2f0 eb3f 1d6f f761 842c f13f
00000460: dacd 0fce ede2 ef3f 1cd1 a623 91b9 ee3f
00000470: a4fc 5b37 7171 f13f a9c7 1439 485b f23f
00000480: 6e42 d87b 10fc ef3f fbb6 8273 46ff ee3f
00000490: f459 13bd fe91 f13f 5e2a ef3d 6603 f13f
000004a0: 134a 6f6e 4b2b f33f 1b29 95bd 3a2a f03f
000004b0: 2795 be31 9c04 f13f c79d 77e2 f343 ee3f
000004c0: 931d 2857 d056 ee3f 86c0 da8d 3179 ef3f
000004d0: 66f3 6ad4 d4f7 f23f b7b4 1cc5 b049 ef3f
000004e0: 87cd 41c0 7388 ee3f 693b ac08 8959 ef3f
000004f0: 0261 5292 4780 f03f 9a8e b8e5 f7d0 ed3f
00000500: 7830 3068 a688 f13f c15c 8361 e412 f03f
00000510: 8f79 5aa7 46a2 eb3f 378f 2f02 af15 f13f
00000520: 78ed 997a 6c59 f53f bc4b c226 599e ea3f
00000530: a7c5 482e 9d6b f03f 8d6a c4c3 2529 f03f
00000540: 360e 1046 2ffb f03f 1c69 b629 7275 ed3f
00000550: 6659 253c d32c f33f 5735 173d b10f ef3f
00000560: ae1a 9d21 d36b ed3f 7602 b9c6 60b7 f13f
00000570: df3c b98d 391a f13f 7725 b76b eae5 ee3f
00000580: 82a0 6649 e4bc ec3f 7886 5295 3f7a ea3f
00000590: 1871 3093 8a82 ea3f e7b9 7699 b632 f13f
000005a0: 3409 c5ad 125b ee3f ad53 dbbd ea97 f23f
000005b0: 1398 a3c4 e314 eb3f 9f1b 5a2b a933 f33f
000005c0: b96c 2b74 f348 eb3f 187a 402a d62e f13f
000005d0: 96e3 3df2 4d0c f23f 8964 7b3c d13f ea3f
000005e0: 8925 117c 4f58 f13f fce4 aaeb 4cb8 ef3f
000005f0: aa11 54b0 17f3 f03f 12c9 da25 7f89 ed3f
00000600: 02a3 2391 c395 f03f df08 f0b6 ccbb e83f
00000610: 78b7 169f 369c f13f 7270 3ffb d90f f13f
00000620: 4d55 7b31 22f2 ee3f 6814 c016 24d9 ea3f
00000630: 947a dddc 0469 f23f 9fae 50cb a13d ed3f
00000640: ba77 9899 9740 ee3f c551 2a64 2ed3 f13f
00000650: bc6b a72a 6f84 ed3f 13c3 4550 788e f03f
00000660: b50a 7dc5 66ff f03f 7677 1d11 7b05 eb3f
00000670: 6c92 b77c 7704 ed3f d812 bd66 5915 f13f
00000680: 4bc2 61bd 62f7 ee3f 7031 dbe3 36c0 f13f
00000690: 5bf2 4bf2 7ae2 f13f e30b 83c3 b648 f03f
000006a0: 96b0 c816 00ae ec3f ae46 2ae2 70e7 f13f
000006b0: b076 b85f 7952 f13f 6f8c 74a2 d0de ee3f
000006c0: f3c3 4c78 1e31 f03f 053a fef0 3135 f03f
000006d0: ae89 8881 7c79 ee3f 60fb fc38 4e1f f03f
000006e0: e003 9a33 53b6 f23f cdab ba6c 3c23 ee3f
000006f0: b5e3 bbc4 d09d f13f 0b11 5360 219a eb3f
00000700: 140e 1d52 dc4c ef3f 3f00 f163 f305 f23f
00000710: 8864 ecbe 2491 ee3f 3188 f3d2 7dc0 ed3f
00000720: b1c5 4b04 988b e83f e5f6 ed9a 569f e93f
00000730: 64cf 3b61 f088 ec3f e949 fd49 8996 ec3f
00000740: 8f21 a18b 8585 eb3f 03bf f4ae d021 f03f
00000750: bfee 67b5 3c9d f03f c312 48f4 1b3d f03f
00000760: bb53 a80a 47c9 ed3f 8ba7 dfbb 47c6 f13f
00000770: 23d3 1e34 7ed7 f03f 57eb 98ba 590e ef3f
00000780: 3f7a 0d8f baa4 ee3f c9be e2ff cacd f03f
00000790: 14c2 3435 be3e f23f 32f6 52de b78b ef3f
000007a0: 75bc b552 2b75 ef3f 8bba 62d4 ae38 f23f
000007b0: 4902 7c6d 0436 ef3f f252 ac62 b588 ed3f
000007c0: c6c9 e0c9 2129 f13f b2d6 6f08 78dd f13f
000007d0: dd38 f897 0202 ea3f 41f3 0c25 6b8b f43f
000007e0: 2c1d 60f4 dfa2 ef3f 5cef 23f1 6d05 ed3f
000007f0: 5a71 57a3 c901 ed3f bb7d e4aa 5a16 ec3f

threshold_noise_fp f8 [30]
0.2698807932026112 0.18494287020152805 0.06721075058225807 0.11891084596635791 0.04429350988378933 0.07080179940983058 0.13393240115059907 0.08822276769913634
0.07498545261676388 0.04660382447980661 0.2520902381468669 0.21369382617656946 0.13855501864081837 0.0798754651853808 0.06045752546626043 0.10355742435059176
0.11115855968392951 0.15988728934407026 0.13683260595427327 0.2948687014984721 0.16387629449870117 0.06560900883292073 0.03786372899285413 0.19896561619084002
0.13918171590839132 0.17926845300643468 0.053538908500603305 0.19363856506441282 0.26332053119399934 0.11692854682350722
00000000: 97eb 2717 ba45 d13f 7e6c 923d 35ac c73f
00000010: cdbe b047 b934 b13f ffb0 90f2 f070 be3f
00000020: a079 c090 a3ad a63f 9a92 f614 1120 b23f
00000030: 8e85 6869 b224 c13f 04c8 076e c495 b63f
00000040: 9d2d aa22 3f32 b33f 22c2 04dc 74dc a73f
00000050: 45d3 1e18 3f22 d03f 6e8a 64bd 515a cb3f
00000060: 6e26 e1bc 2bbc c13f e057 b9ee b772 b43f
00000070: 186f 59ed 49f4 ae3f 5602 d846 bd82 ba3f
00000080: 2050 832a e374 bc3f 0cb2 63cb 2f77 c43f
00000090: b8ce cc17 bb83 c13f f431 63f9 20df d23f
000000a0: 4215 bbfe e5f9 c43f 96a7 4283 c0cb b03f
000000b0: 6a34 75eb df62 a33f 02b9 488f b477 c93f
000000c0: cb8b 03db b4d0 c13f c4fe 6ec7 44f2 c63f
000000d0: 84b2 25aa 7369 ab3f 3917 1904 26c9 c83f
000000e0: 22fd 755b 3eda d03f 8b65 937c 07ef bd3f

_delay_parameters f8 [30, 1]
0.13385831815939106 0.13384603524526406 -0.15984894722918283 -1.072965071504012 -0.6663706732736755 -0.6028512711813491 0.2398228481414822 0.19923229226716996
1.2894339897834708 1.4647371051003144 -0.6241927674384565 0.5270268101250792 -1.395382628265769 -0.008048560134228014 -0.2658836211523341 -0.2627477838688217
0.32590950784225087 0.3141056946685237 -0.15126659482608515 0.5085943877858343 -0.6263521904278025 -0.121982052042196 -0.6422172032712279 -0.017322792149179336
0.24558732361089092 0.25337496439694934 0.9078112719883867 -0.8375333996306489 0.3237790788462266 0.06314052901189403
00000000: 1765 65f5 4422 c13f 2cf1 09ec dd21 c13f
00000010: 8f1e 5328 ee75 c4bf b2c2 3d6c dd2a f1bf
00000020: 7f2a 1797 e852 e5bf f36d c2bf 8e4a e3bf
00000030: 72f5 ccdc 83b2 ce3f 231c cc99 7180 c93f
00000040: 6b88 0789 85a1 f43f 0b4c ba2c 906f f73f
00000050: 6f88 511c 63f9 e3bf 0047 3354 67dd e03f
00000060: 95ed 1cbc 7c53 f6bf 2881 7374 c37b 80bf
00000070: 880b 59bc 3c04 d1bf 4409 b414 dcd0 d0bf
00000080: bbd3 688d b3db d43f c9ac 85c5 4e1a d43f
00000090: 47ae e02a b45c c3bf 8204 cfbc 6746 e03f
000000a0: c34a b5bf 130b e4bf 265f 383c 373a bfbf
000000b0: f04f 9f17 0b8d e4bf 2747 06e7 10bd 91bf
000000c0: ee47 9cc9 676f cf3f a771 6da0 4b37 d03f
000000d0: 452b 8439 ca0c ed3f 2e15 17d8 12cd eabf
000000e0: d281 b1e2 cbb8 d43f 5f81 284b fa29 b03f

weights f8 [30, 3]
0.2726448674736326 -0.29853143233463786 0.04419274514139669 0.23950223637906937 0.03844230300918489 -0.04383286203341367 0.21484677325035198 -0.012567075748699174
0.04238041694710435 -0.017794595589743074 -0.09174704507159771 -0.07169129061610843 0.028995017719057707 0.02583987549966465 0.21145269141323986 0.197213800939146
-0.12376845165285888 0.32779239635418844 0.13666248178351176 0.3446462589825743 0.2965908522428466 0.09064165472899693 -0.13496085370143762 -0.16804013391303055
-0.08351553437775894 0.17777110693801826 0.09738204067746549 -0.08899425156801803 0.055606299309874034 0.1725145662339894 0.1317280834650303 0.06603195203715877
-0.08702220922622612 0.2279594934486377 0.2935510322998252 0.008913839758972539 -0.08700060320960884 0.23289016708302254 0.10761431281548307 -0.0038887973644438963
-0.005671438533422407 -0.12688541536039674 -0.15798755865157485 -0.40213507590440495 -0.1367423747280349 -0.10750852753713765 -0.16968799863133885 0.21834685133140513
0.02430542399370095 -0.07207435339583411 0.03249749804841123 -0.14364341374442333 0.10305140946386823 0.10528341688648113 0.2362760945100073 0.3145171885446589
0.09871418192279457 0.20591209485438033 0.11615789798963755 0.2031770779810627 -0.11646146988245328 -0.01075055027399715 -0.1891060974735118 0.13704258649392675
0.0266672856760343 -0.18390936526606094 0.2370178011272927 -0.07761943310459922 0.23399126595570185 -0.13749184477661788 -0.1691673996092539 0.042673427622260715
0.3008419608335986 0.053255378816097466 -0.1241639508245469 0.26478991890330017 0.07643227240989639 -0.03605918068788639 0.23097035550599615 -0.0054401960949906625
-0.13027840911029204 0.03586124299660939 0.026590655138527586 0.11574749416064056 0.1405198640194233 -0.02466233243922143 0.22574554243069014 0.205862016689127
-0.16836551957798174 0.05289473170687756
00000000: 282d 4e75 0373 d13f be23 ad94 231b d3bf
00000010: 2e9d 3476 6ea0 a63f 4a92 4860 02a8 ce3f
00000020: 992c 6aa4 b5ae a33f 05e1 d8c9 4271 a6bf
00000030: 3575 615c 1980 cb3f 33b1 c65a c4bc 89bf
00000040: 2dac 8ed1 e2b2 a53f e5f9 6918 bf38 92bf
00000050: 794f 16fe bb7c b7bf fead 9a44 5c5a b2bf
00000060: 4eb3 66b3 deb0 9d3f 6fa9 d0b0 c475 9a3f
00000070: 9cb1 22bd e110 cb3f 093f ad44 4d3e c93f
00000080: 6826 200c 4aaf bfbf 54ff 8df5 8cfa d43f
00000090: 36d9 ecfc 277e c13f b435 c12e af0e d63f
000000a0: 3740 ab32 58fb d23f bc63 b79e 4a34 b73f
000000b0: 34a7 71b2 6546 c1bf e534 c9cf 5682 c5bf
000000c0: b045 dc28 4661 b5bf 1d7b 3c21 34c1 c63f
000000d0: c16d ed87 07ee b83f 2342 04c8 53c8 b6bf
000000e0: 1f99 f9c9 6d78 ac3f 8b80 0712 f514 c63f
000000f0: 6039 3941 77dc c03f 6b9a 7d52 78e7 b03f
00000100: d5fd a666 1647 b6bf 1e5a 96d4 c62d cd3f
00000110: 95d3 db44 8ac9 d23f 85fa f851 6b41 823f
00000120: ac7d 84e9 ab45 b6bf 473d 9751 58cf cd3f
00000130: 59bf 1f92 9c8c bb3f cca9 0830 66db 6fbf
00000140: d36f 5b30 ef3a 77bf cbf8 a702 c83d c0bf
00000150: b7ac cab2 ef38 c4bf 915e e5c1 94bc d9bf
00000160: b696 b72d c680 c1bf bd28 d0c9 ad85 bbbf
00000170: f798 521a 56b8 c5bf 2a94 d324 caf2 cb3f
00000180: 6166 ac64 85e3 983f ff27 b7fe 7673 b2bf
00000190: 48b6 a316 83a3 a03f 57b7 284a e862 c2bf
000001a0: 963a 74c1 9361 ba3f 90ac 56a0 daf3 ba3f
000001b0: 88a0 5f89 4b3e ce3f 3711 b5b3 0c21 d43f
000001c0: 1082 0227 5545 b93f 8c0d a0d8 535b ca3f
000001d0: fc9f 0925 86bc bd3f 61dd 9cdc b401 ca3f
000001e0: 4da4 633c 6bd0 bdbf ad00 ba6e 6204 86bf
000001f0: e4bb 0fec a034 c8bf 0c49 9389 9c8a c13f
00000200: a918 683f ab4e 9b3f 0478 9f92 578a c7bf
00000210: cead 346c 9956 ce3f 63e3 b7fe ddde b3bf
00000220: 0c29 6a01 6df3 cd3f d321 6430 5599 c1bf
00000230: 7d80 6f00 47a7 c5bf 6677 17a0 4ad9 a53f
00000240: 50de c2a3 fe40 d33f 65d4 b3fc 4944 ab3f
00000250: 6032 226c 35c9 bfbf ba02 806a 51f2 d03f
00000260: 1a06 5cbe 1091 b33f 51d0 8c53 5976 a2bf
00000270: 1a33 9fc5 6f90 cd3f 602e fd84 7548 76bf
00000280: 6276 4081 f6ac c0bf 9b8b baa3 675c a23f
00000290: 8df8 cba8 943a 9b3f 188f 03b6 a0a1 bd3f
000002a0: dc6d 330e 8efc c13f 3b01 141d 1541 99bf
000002b0: 7592 fadc 3ae5 cc3f 598e 95c2 af59 ca3f
000002c0: f444 2e58 008d c5bf 849b 9fad 0415 ab3f

threshold_noise_fp f8 [3]
0.02666987966235526 0.12005554710595923 0.10741024717353115
00000000: c895 c053 594f 9b3f f002 86d8 f5bb be3f
00000010: 7c97 ddea 3c7f bb3f
