experiment_pretrained/yin_yang_hxpynn/yin_yang_untrained_network.pt (torch, 22116 bytes, 6 tensors)

_delay_parameters f8 [4, 1]
000000 f6 0c e2 2b f9 3b d0 bf 57 67 04 ba 82 02 c2 3f
       -0.2536604813141844 0.14070161898490127
000010 bc a3 27 32 55 e1 bc bf ee 6b 47 6a 6d b5 ca 3f
       -0.11281330561145259 0.20866172494319762

weights f8 [20, 30]
000000 1e 85 ea 34 de c8 b3 3f 9e 38 bd aa 88 b6 b3 3f
       0.0772837523641283 0.07700399559436952
000010 66 1c 37 51 50 d3 d2 3f d5 62 1e 29 ad c8 c0 bf
       0.29414756709269907 -0.131124157979477
000020 e3 b3 95 8c 1f b6 d3 3f 46 71 9d e5 80 c9 b4 3f
       0.3079909203432278 0.08119969945750424
000030 6d 19 14 22 80 71 d2 3f ff 51 a0 b7 b6 3e cc 3f
       0.28817752197246344 0.22066387144208474
000040 30 ff f8 75 4c 28 97 bf 8b 60 7f 38 5e 7b c4 3f
       -0.022614664745787383 0.1600148940913225
000050 8e 64 ff 92 3b 23 af 3f 94 a3 28 5b 9d 94 a6 3f
       0.060815679258390806 0.04410258996751462
000060 24 47 6b 34 f5 c5 d8 3f cc 61 90 e0 4b 33 ce 3f
       0.38708238715217846 0.23594044175184903
000070 87 67 ee f8 14 da ae 3f 5e 3a 36 ba fb 0d c5 3f
       0.06025758303367384 0.16448923675894184
000080 36 58 12 a5 84 14 bc 3f ca ab 6b ed 8d 2d d2 3f
       0.10968808202810085 0.2840304201660585
000090 91 ee ec 8b dd 1f b0 bf 49 0d cb 17 9c c9 c9 3f
       -0.06298622766638064 0.20146514093185378
0000a0 4a 48 e8 02 44 c5 b6 3f 34 70 5d c5 da 2f be 3f
       0.08894753523807811 0.11791770285111697
0000b0 cd 06 e0 42 ec 81 ca 3f ab 30 bf 4e 4f f1 d3 3f
       0.2070899321116059 0.3116033810627054
0000c0 fe d6 fb bf 25 bb b9 bf 1c 36 8e 0a c8 ad c5 3f
       -0.1005118936262441 0.169365887788829
0000d0 4f 6c 32 2c 5e 82 ac 3f 40 7d 00 2b c5 cb c0 3f
       0.055682127852570866 0.1312185726137418
0000e0 92 03 74 81 3c f9 d7 3f 8d fa 49 a3 a2 d6 c6 3f
       0.3745871795836645 0.17842514966101355
0000f0 e5 6b 56 ce ec db a7 bf 7a 42 14 6d f2 2e b2 3f
       -0.046599769771283474 0.07102885401787687
000100 61 e5 40 d1 fc f9 93 bf 50 97 48 2c 34 80 d1 3f
       -0.01950831439191825 0.2734499390083913
000110 40 a0 c3 b8 39 27 c9 3f 23 0b 1c b7 d4 79 c5 3f
       0.19650956651389784 0.16778048458953618
000120 b9 59 df f9 0c 7e ce 3f b4 87 e3 bc b2 d3 b7 bf
       0.2382217617111573 -0.09307400809805594
000130 de 4b cd 14 65 35 d3 3f ee 48 94 30 11 e4 b6 3f
       0.30013396293105454 0.08941752849594639
000140 44 4e 6b 45 60 47 9b 3f 21 7b bf 6c ab 6e a9 3f
       0.026639465558061085 0.04967246725549602
000150 26 30 cb 67 a7 fe bd 3f 9f 62 6d 6a 73 71 b2 3f
       0.11716696056390727 0.07204362247774519
000160 7e 3b 9f cc c0 54 ab 3f e4 93 2f bf 04 7c c3 3f
       0.0533809900076596 0.1522222455525074
000170 20 45 f8 40 ee 62 c8 3f da 28 e7 62 9f d0 b0 bf
       0.190519124721086 -0.06568332829116078
000180 f8 2a 44 41 cf d3 c0 bf 45 f3 8f 3b 4c c7 8a bf
       -0.13146391569929228 -0.013075442855546302
000190 61 b8 0e d1 ca 2d bd 3f eb 70 63 b1 56 24 c6 3f
       0.11397998432104962 0.1729839674143315
0001a0 53 0b d1 00 4b 36 91 bf 4e b4 64 20 23 5c 44 bf
       -0.016808673786964445 -0.0006213351742069358
0001b0 67 04 81 48 4c 15 c9 3f 16 76 58 a3 d3 66 98 3f
       0.19596246280892446 0.023829752774068146
0001c0 da 56 2c 56 a0 df cc 3f 4e bf 19 32 68 fb c0 3f
       0.22557453353572648 0.13267233320538668
0001d0 8b 7f 84 42 d8 d8 c8 3f 31 3e 1d db b0 19 d3 3f
       0.19411757705620078 0.2984430446422009
0001e0 05 11 42 eb f3 95 9b bf 9e 52 28 85 1e 20 bb 3f
       -0.026939212068570324 0.10595885039249217
0001f0 7d 12 d2 b5 ef cc a6 bf af 79 ed e1 17 ae b2 3f
       -0.044532290406128695 0.07296895280658221
000200 5c 28 fc e8 5c 0b c1 bf dc 3e 58 f1 63 a9 ba 3f
       -0.13315926910610443 0.10414719240383924
000210 58 41 75 d4 9c d4 b6 bf 82 79 d3 ae b8 42 b0 3f
       -0.08918171107257444 0.06351808803763073
000220 ec ec 70 5a 0d 9e c1 3f 26 e9 67 d2 ae 4b ae 3f
       0.13763586917944026 0.059171164688409925
000230 52 b8 68 7f bf ee cb 3f 35 96 0f 43 c6 9f bc 3f
       0.21822351189752226 0.11181296479443222
000240 18 bc 94 66 77 50 ba 3f 35 1b 7f 5b 5e dd b2 3f
       0.10279031996172738 0.07369031652261245
000250 c1 48 b7 60 ec 55 c6 3f f5 32 75 38 d6 4b b5 bf
       0.17449717256983457 -0.0831884277187774
000260 21 e0 c4 ba 10 50 80 bf 4e 5b 07 45 3c 81 b8 3f
       -0.00796521253560917 0.09572197613975428
000270 bd 77 c7 9f 42 82 79 bf f0 22 84 4e dd df b4 3f
       -0.00622774148038546 0.08154090086840049
000280 22 55 a5 eb ee 09 b8 3f 03 93 d4 0d 89 7b ca 3f
       0.09390156987258938 0.20689500022231053
000290 32 27 b3 30 ea 6c af 3f b1 f8 d3 7e e8 3b c7 3f
       0.06137782902221857 0.1815157527234468
0002a0 f4 b2 2b 45 6e bd b3 3f e7 87 81 53 a8 67 74 3f
       0.07710923374879625 0.004981668018531927
0002b0 7e b0 6f dd 05 db c5 3f 98 c1 d9 d8 59 53 df 3f
       0.17074654877012913 0.4894623391801587
0002c0 e1 c1 4c b9 c2 ef c7 3f 1e 0a e1 d7 da cf aa 3f
       0.1870044140610068 0.052367056705879586
0002d0 aa 21 94 55 f8 ae cc 3f 11 f3 81 6c 93 a9 b2 bf
       0.22408966234821764 -0.07290002249824236
0002e0 9c 6a 92 02 50 31 9f bf f9 c4 c7 7f 21 81 bd 3f
       -0.0304615499086177 0.11525163049352107
0002f0 5c c5 06 39 90 34 99 bf d3 25 98 6c c1 12 b6 3f
       -0.02461457584440062 0.08622368718365374
000300 c5 90 d5 bf 73 da a9 bf bb e6 a2 c6 b2 a7 b9 3f
       -0.0504947826073319 0.10021512364883282
000310 9f 76 db 6d 81 c6 bf 3f 9e 4a 0a 93 84 70 9f bf
       0.12412270481169195 -0.030702659105893752
000320 73 a5 27 54 88 65 b3 bf b2 96 f0 d0 54 46 c6 3f
       -0.07576801352083411 0.17402134134424824
000330 e4 94 8a b0 d3 c1 a5 3f 94 37 53 b2 c6 9d d0 3f
       0.04249440698667131 0.25962989248807244
000340 10 f8 1c 88 b6 03 7a 3f 70 85 2a 58 b6 fc 7c bf
       0.0063511972564907065 -0.007076942713554288
000350 a5 e0 f6 50 d4 4e d2 3f b0 af 1e d2 04 2c b0 3f
       0.2860613623302107 0.06317167405967328
000360 fb 65 5b d9 39 fe c8 3f a3 0b cd ca ff c0 bc 3f
       0.1952583609880064 0.1123199339026955
000370 92 49 21 e6 0e e5 b2 bf c1 46 25 af 25 cb c5 3f
       -0.0738076507416621 0.170262060661619
000380 dd ad 35 70 7d 2c ac bf 7b a4 7b b4 f1 59 cc 3f
       -0.05502693171259996 0.22149487793584285
000390 c5 4d 97 71 9d a8 d6 3f 8d 6d 47 ae 3e cd b4 3f
       0.35404144375680985 0.0812567878232839
0003a0 9b 25 25 79 bd 50 cf 3f 9b 37 73 d4 d2 4e a0 3f
       0.24465149321831067 0.031851375993581864
0003b0 aa f4 fb f8 19 b4 b4 3f 99 55 26 6d 2d 9a c8 3f
       0.0808731301185214 0.1922051222760899
0003c0 e2 cc 28 4c 31 de be 3f 5d d4 1a 93 a5 04 c8 bf
       0.12057788953170559 -0.18764180834628777
0003d0 70 d9 3d 17 43 f6 b0 3f 0c af da 55 1b ca b5 3f
       0.06625766103193143 0.08511515470553038
0003e0 9a 44 45 e3 d9 c0 7e 3f bc 56 16 7b c8 d5 c2 3f
       0.007508135913966952 0.14714914331550755
0003f0 a4 2a 7e c0 9e bf c5 3f 92 40 0f 61 2a dc c0 3f
       0.16991028212608683 0.13171891917454964
000400 d9 9f 22 81 1c 24 55 3f c7 b7 8e c9 5b d1 98 bf
       0.001290347896921054 -0.024236139466374398
000410 41 d4 d8 2c 38 e2 cf 3f 7f 3e fb a4 15 e7 b5 3f
       0.24909116925997135 0.08555732038370854
000420 e6 45 ec 41 61 92 ca 3f 78 70 2b c0 10 9a c9 bf
       0.20759216040509826 -0.20001420386586566
000430 97 db 37 07 9d 71 cd 3f 74 db 2a 0a d7 bb c4 3f
       0.23002970554781818 0.16198242184119815
000440 f1 17 f5 de 26 a8 c3 3f 0b ef 56 77 e6 3a bd 3f
       0.15356908690063123 0.11417999661983573
000450 3f 2b 99 0a 1b 8a c6 3f 4d e9 7d 55 32 f6 ca 3f
       0.1760896493672934 0.21063832449346834
000460 17 b7 64 af 45 ec 86 bf cf 20 c9 8c 7e b8 ba 3f
       -0.01119284097202526 0.1043776601519568
000470 6f fb 0c 72 fd 2d c9 3f f1 a0 b6 de 39 f0 b5 3f
       0.19671600407488252 0.0856968086942549
000480 97 c7 a8 01 36 a5 a7 3f 4a 94 1b 89 87 ed 9b 3f
       0.046182334616232605 0.027273290389434636
000490 6a c6 8b 82 03 a2 43 3f 9c 48 f4 1f d6 2a c4 3f
       0.0005991475237278724 0.1575572639490631
0004a0 75 e3 e9 03 41 c2 b0 3f 4c 1d 8f 51 e1 22 c2 3f
       0.06546408029124769 0.14168945772528685
0004b0 61 f0 cf e3 a7 84 c2 3f f8 d7 d5 7f ed 8e d5 3f
       0.144673334347206 0.33684861644667263
0004c0 c1 bb 53 1a 7c 2b af 3f 7f 3d 68 b2 1d 3e cd 3f
       0.06087863751769574 0.22845812999046797
0004d0 bd a8 cd 6b b3 bc b4 3f bf 19 2f b6 99 fd bc 3f
       0.08100434667508956 0.113244635561478
0004e0 06 bd 12 4b f9 5f a1 bf d3 dc 6b 2c f7 ba c2 3f
       -0.03393534699841365 0.1463307349110666
0004f0 b7 c0 b9 c4 38 28 c3 3f e6 10 22 ed 02 4b 92 bf
       0.14966497045270952 -0.017864270900205613
000500 a5 9f df ba c6 4f b1 bf bd ad c9 99 56 20 85 bf
       -0.06762353956548724 -0.010315586631995605
000510 8d 09 fe 4a cb f3 d4 3f 3e d5 d1 de 77 9a bf 3f
       0.3273800117823605 0.12345074834759814
000520 7e c9 bc 2c 29 f1 b8 3f 4a 0c cd 60 31 2f c2 bf
       0.09742982237074746 -0.14206521250352672
000530 af 86 a6 fc f8 77 d4 3f df 97 16 00 9f 0d 80 3f
       0.31982254670047444 0.007838480177110028
000540 a9 15 30 b9 23 16 ba bf 8f 27 5c ad d1 1f ac 3f
       -0.10190032263934391 0.05493026009760548
000550 c7 07 9a 18 c2 65 d1 3f 24 48 28 9d e1 e7 c4 3f
       0.27183582689769675 0.1633264558191182
000560 38 ce 1b 87 17 10 9a 3f aa 46 bf 80 2b 93 c1 3f
       0.02545201074731393 0.13730376993639953
000570 0f d7 2f e1 04 03 ca 3f 7b 6f f0 3b 5f 73 a4 3f
       0.20321713443234343 0.03994271856956196
000580 7c e2 06 b8 b6 fe b3 3f 8c 3d 4e 28 99 bf b7 3f
       0.07810537331432416 0.09276730760597313
000590 1f a0 0e f4 6b d7 87 3f 8f fd e9 25 6d 02 99 bf
       0.011641353021175914 -0.024423318327988105
0005a0 78 59 e5 49 63 f6 a5 3f 2f 62 be 82 b0 95 c2 3f
       0.04289541508721845 0.1451931608578589
0005b0 3a 0d 3f 5a 5c 35 9b bf 8f 48 15 10 7c 27 b5 3f
       -0.02657074261493373 0.08263373749403712
0005c0 54 75 db cb 1c 52 be 3f f0 8b ee 23 20 45 7b bf
       0.11844043709739555 -0.006657720134998421
0005d0 04 f7 09 cf fc a8 b1 bf c9 54 7c 0c 99 ca b2 3f
       -0.06898479513798966 0.07340389780832192
0005e0 c7 0b bc 78 c6 58 c2 3f 48 1a fc 06 2e 6e b0 3f
       0.14333420653573922 0.06418121023680456
0005f0 40 08 d6 01 5e dc c4 3f 01 ba b0 b0 5a 89 c2 3f
       0.1629750737157014 0.1448167193170349
000600 55 3f a7 2d e3 9b b8 bf c5 09 1e 23 b2 23 d5 3f
       -0.0961286531885411 0.3303037016813984
000610 03 dd ee 23 cb 80 bf bf 99 8d 45 5b a4 d9 86 bf
       -0.12305898310920686 -0.011157306704894053
000620 fe 7d c8 ac 64 44 c7 3f bc 59 c3 6f e8 8f b1 3f
       0.1817746966998896 0.0686021111353971
000630 80 e9 d7 33 71 55 80 3f 1b 86 13 f0 19 2a c3 3f
       0.007975468058238233 0.1497223303077114
000640 c2 96 12 b4 b3 ac ac 3f 7a 45 14 e2 fb 46 be 3f
       0.05600511143829358 0.11827062863837581
000650 0e f1 f3 b0 9b 5b b8 3f 18 52 48 5d 15 81 b3 bf
       0.09514782972468458 -0.07618840720562792
000660 99 8b 85 48 88 dd 7d bf 6c 86 bf f4 e0 de c0 bf
       -0.00729134784373544 -0.13180171919434558
000670 94 e8 d6 a5 4d 45 a5 bf 64 dc a6 4d 0e fd c9 3f
       -0.04154436730773728 0.20303515235511604
000680 a3 42 cc e8 3a 95 c1 3f b1 e6 4f 0e 36 ea d0 3f
       0.13736664168438492 0.2642951144949662
000690 b0 5e 52 fc 70 43 9e bf 42 f9 a8 be 9f 56 a8 3f
       -0.029554143333909877 0.047535888694698616
0006a0 41 46 09 06 db 0f a9 bf 85 00 2b 33 d7 b9 d7 3f
       -0.04894909332928111 0.3707178115546486
0006b0 4d 60 d0 c8 0c 36 90 bf b4 cd f2 e9 18 6c c5 3f
       -0.015831184155189516 0.1673613684011862
0006c0 96 fb d6 0a 94 a6 d0 3f 08 6e 70 5c dd 22 c2 3f
       0.2601671319825355 0.1416889859545878
0006d0 0b 35 ca a1 2a 76 c5 3f 44 95 c1 b8 0c ed b1 3f
       0.16766865634819114 0.07002334128045101
0006e0 40 26 5c 84 91 d9 98 bf a6 b0 1a 9a 7e d7 a4 bf
       -0.024267457679377324 -0.04070659285693638
0006f0 ac 74 c5 62 52 f7 c5 3f ee f7 fc 08 23 00 be 3f
       0.17161016295259424 0.11718958825528578
000700 f7 04 8a ee 10 57 d6 3f bc bf d2 6f 11 a1 a1 bf
       0.3490640954479 -0.034431977176950096
000710 0e ec 22 bb 40 d9 c5 3f 35 c9 bb 87 2a 1a c1 3f
       0.17069253098983989 0.1336110270272656
000720 56 3c 17 69 f9 91 ce 3f e7 bb 25 5e 8a d3 c6 3f
       0.23882978087792378 0.17833070370713175
000730 55 c7 ef 85 f8 cf be 3f 3f 8c da 9b 68 2f b4 3f
       0.1203608824723948 0.078848398256512
000740 52 12 4f d2 96 ff c5 bf 2d bc 21 5f a0 13 be 3f
       -0.1718624617480083 0.11748697588494457
000750 a9 a3 ae d0 6b 1f c2 3f 1e d4 5e 4e 46 e5 c5 3f
       0.14158389749107173 0.17105940653496615
000760 b1 7f 1c 65 87 d3 cf 3f f4 05 27 98 b2 d7 c7 3f
       0.24864284932209338 0.1862700694019136
000770 a9 f8 48 f2 af ee c1 3f 2a 57 10 a1 ab 5d af 3f
       0.140096658042187 0.06126152363883215
000780 3b 69 5b 4a 46 9c c4 3f d4 c0 22 61 5d b2 d1 3f
       0.16101912146297956 0.2765115212050777
000790 13 16 c3 4d 67 58 c7 3f 16 35 41 19 1c 45 bc 3f
       0.18238536164260263 0.11042953125543806
0007a0 9c 3e 17 c7 30 f6 b9 3f 68 52 a0 53 14 09 d6 3f
       0.10141281948676312 0.3443041626608534
0007b0 c5 fb 6b 29 84 e4 cb 3f 44 71 57 7e 06 0c 9d 3f
       0.21791126272725428 0.028366185628202048
0007c0 40 fd cf f2 6f 14 d0 3f 0a 1a 15 f1 d3 4d bd 3f
       0.25124739372400384 0.11446880946923713
0007d0 f8 fe f4 5f 3e 07 c1 3f 6b be b0 8d 6c 2e d3 bf
       0.13303355870629452 -0.29970849835351626
0007e0 e1 ad 07 5f 6c 80 bc 3f 5b 46 32 f8 a0 42 c4 3f
       0.1113345844275311 0.15828334921802675
0007f0 8e d3 96 2e 05 5a b7 bf 02 db 95 f8 a9 95 bc 3f
       -0.09121734988623428 0.11165869063357195

threshold_noise_fp f8 [30]
000000 00 00 00 00 00 00 00 00 00 00 00 00 00 00 00 00
       0.0 0.0
000010 00 00 00 00 00 00 00 00 00 00 00 00 00 00 00 00
       0.0 0.0
000020 00 00 00 00 00 00 00 00 00 00 00 00 00 00 00 00
       0.0 0.0
000030 00 00 00 00 00 00 00 00 00 00 00 00 00 00 00 00
       0.0 0.0
000040 00 00 00 00 00 00 00 00 00 00 00 00 00 00 00 00
       0.0 0.0
000050 00 00 00 00 00 00 00 00 00 00 00 00 00 00 00 00
       0.0 0.0
000060 00 00 00 00 00 00 00 00 00 00 00 00 00 00 00 00
       0.0 0.0
000070 00 00 00 00 00 00 00 00 00 00 00 00 00 00 00 00
       0.0 0.0
000080 00 00 00 00 00 00 00 00 00 00 00 00 00 00 00 00
       0.0 0.0
000090 00 00 00 00 00 00 00 00 00 00 00 00 00 00 00 00
       0.0 0.0
0000a0 00 00 00 00 00 00 00 00 00 00 00 00 00 00 00 00
       0.0 0.0
0000b0 00 00 00 00 00 00 00 00 00 00 00 00 00 00 00 00
       0.0 0.0
0000c0 00 00 00 00 00 00 00 00 00 00 00 00 00 00 00 00
       0.0 0.0
0000d0 00 00 00 00 00 00 00 00 00 00 00 00 00 00 00 00
       0.0 0.0
0000e0 00 00 00 00 00 00 00 00 00 00 00 00 00 00 00 00
       0.0 0.0

_delay_parameters f8 [30, 1]
000000 e1 31 ab 04 5f 82 e6 bf 73 4a af 09 30 9c de bf
       -0.7034144488512163 -0.4782829374864043
000010 82 f9 ee ad 01 02 d3 3f 2c 85 bf 53 9f 88 cf bf
       0.2969974707192692 -0.24635688390029864
000020 da e4 72 93 77 27 d5 bf d3 ea 19 48 9d 04 d7 bf
       -0.3305338802270633 -0.35965663949143084
000030 96 db 87 09 7f 5c e2 bf 53 e2 a9 91 61 c4 d6 3f
       -0.5737910448213934 0.35573615288698085
000040 ad 5d 88 3a 81 3f e0 bf a5 00 21 3d 37 71 df bf
       -0.5077520507065195 -0.4912851426088401
000050 c5 9d ce b1 ac 60 df 3f f1 e9 49 50 ca d7 9a bf
       0.49027554859136685 -0.026213799620089465
000060 e5 f1 eb 39 91 80 bb 3f 33 e0 88 83 10 25 a0 bf
       0.10743053115942976 -0.03153277974746551
000070 9c e4 72 5e 0c 16 c5 3f a8 43 31 49 4a d5 e4 3f
       0.16473536121137478 0.6510363988437478
000080 05 d4 b3 d5 45 94 f1 3f b5 7d be 09 66 58 e7 bf
       1.0986994121315103 -0.7295408430399478
000090 c1 6f 98 3f 5d fa c3 3f 16 a5 cb d7 41 b5 e9 3f
       0.15607801060911977 0.8033761229282017
0000a0 48 98 13 2f c0 b2 cd 3f 48 18 d7 92 80 ff da 3f
       0.23201753901156708 0.4218446191774814
0000b0 a5 64 16 a7 de 64 ef 3f 4e 80 95 cd 86 1f db 3f
       0.9810632003237926 0.42379922939835957
0000c0 d4 e1 dc 93 5e 67 df 3f d0 c6 f1 c5 79 40 e4 3f
       0.49068417014816856 0.6328705659963934
0000d0 d0 f2 0f 75 73 e8 f0 3f f4 90 25 6a d3 25 ec 3f
       1.0567507336374327 0.8796174119165969
0000e0 25 fd 25 0e a1 79 eb 3f 6a 6c e9 9a b3 fd d4 bf
       0.858597304948408 -0.3279847157297754

weights f8 [30, 3]
000000 a2 f3 00 79 6c e8 d3 3f 93 d4 ed 1e 68 79 87 bf
       0.3110610181500367 -0.011462033695105489
000010 36 72 3c b6 8e c0 b0 3f 45 d0 f7 c6 1a 1d b5 3f
       0.06543819378971069 0.08247535092942922
000020 8c 67 6c bf e5 8c 99 3f 8d 13 3c 1c 90 e6 a1 bf
       0.02495154362541245 -0.03496218056355991
000030 84 81 55 99 85 04 9f bf 3d e9 00 1c d6 56 a4 bf
       -0.030290687068715197 -0.03972500888672179
000040 36 08 8a e6 57 62 ae 3f bd 02 46 f5 e7 41 a3 3f
       0.05934405030440397 0.037612198534593834
000050 8b 50 dc ef 36 4d c3 3f ef 6f ec f4 10 42 cf 3f
       0.15079390251105837 0.24420368155631375
000060 5e 9a 93 2d 8d 5c d0 3f 7b 75 84 8e 65 75 b0 bf
       0.25564889384114575 -0.06429133157185689
000070 9f 5d 42 b7 2d c3 b4 3f 44 19 d1 bf 83 64 c9 3f
       0.08110318874456944 0.19837996355108534
000080 6d 86 3e 25 3b 9f d6 3f 05 d1 e9 da 40 70 d1 3f
       0.35346869122631724 0.2724764001680032
000090 f1 13 1d d8 56 31 d4 3f b3 52 51 1e 17 e5 83 3f
       0.3155114279255136 0.009714298832628065
0000a0 e3 3e ad a9 2a 49 c5 3f ea d2 7f 61 99 5f d5 3f
       0.1662953690051757 0.33395990868966285
0000b0 05 4a 9a a6 33 72 c9 3f a1 ae b7 0c 2f 9b bf 3f
       0.1987976611604411 0.1234616666840176
0000c0 f3 ca ed 84 c9 40 aa bf e5 2d 42 57 3a 46 ca 3f
       -0.05127553699175804 0.20526818524045534
0000d0 9f 78 a9 c2 ff 73 a6 3f ba 98 46 4f eb 29 90 3f
       0.043853752624941615 0.015784908975228197
0000e0 38 eb 8c df a7 c2 c7 3f dc 82 25 51 c4 50 bf bf
       0.1856279222064019 -0.12232615452877432
0000f0 08 e7 41 72 35 5a ae bf b8 18 1e 5f bb 54 91 3f
       -0.05928198833221471 0.0169247891240267
000100 4b f1 aa 47 2f 9e bf 3f f1 28 68 eb 1c c5 ca 3f
       0.12350745677662649 0.20914041037060074
000110 9f 7b 1e 1f 4f 02 bb bf 36 84 42 7c e3 dd b7 3f
       -0.10550398359053624 0.09322950156867268
000120 e1 58 96 91 c0 5b cb bf d3 05 d9 17 4d 39 81 3f
       -0.21373755558733534 0.008410074510837006
000130 8d 0c c3 4c 2a 90 94 3f cc 64 5a 7e 6f 76 db 3f
       0.020081196723151385 0.4291037305752752
000140 31 59 41 04 ca 9f a9 3f 66 ed 82 28 3f b0 bc bf
       0.050047219294969365 -0.11206431139992432
000150 34 3b 29 82 0d e8 c3 bf 65 a4 4b 1b f0 f4 d1 3f
       -0.15551918845673074 0.2805748240048785
000160 86 3c e6 87 fa db b1 3f dc b5 7a 1f 0e 71 b5 3f
       0.06976285760741704 0.08375633495844376
000170 cc fa c3 21 2e e1 c6 3f ad bf 46 17 16 61 ca 3f
       0.17874695442875177 0.20608783852139592
000180 df e2 c3 cc f3 e2 b0 bf 5b 07 43 4f fb 7a c4 3f
       -0.0659630179324142 0.1600031029720935
000190 66 89 5c a4 c4 0f c1 3f 0c c9 6a ad c1 b3 c4 3f
       0.13329370522940137 0.1617357346309024
0001a0 cd 28 02 d7 b0 fd bf 3f 53 33 e3 54 dc c0 cb 3f
       0.1249647641108453 0.21682314057252458
0001b0 de c5 36 17 28 94 c0 3f ef 5a 33 75 e1 20 c5 3f
       0.129521380743923 0.16506593916593412
0001c0 ee 14 9e ee 05 03 b7 3f 38 50 0c ae bf 1a c0 bf
       0.08988987994787909 -0.12581630705301605
0001d0 0e 2b 6f d8 c4 eb 95 3f a9 ab 5e 93 4a 5e bc 3f
       0.021407199583147345 0.11081377122779536
0001e0 4b f6 58 99 85 a3 ad 3f f5 e1 6d 5f cd 16 c9 3f
       0.057888197869470824 0.19600836906080557
0001f0 8e 94 98 76 e8 4e c4 bf f9 74 45 ab ad 18 a2 3f
       -0.15865808287449962 0.035344531209128456
000200 d9 19 84 30 29 f0 97 3f 74 e6 e2 29 02 5d cb bf
       0.023377078615362954 -0.21377589268904595
000210 0d fc 58 64 08 d9 a5 bf f2 31 fa b7 9a 08 96 3f
       -0.04267145371385803 0.02151719806583858
000220 74 bb 40 98 b9 9f a3 bf 7f 01 61 b0 8f d1 ba 3f
       -0.038327979884676205 0.10476015144468497
000230 16 a5 10 09 dc a2 cb 3f 0f f2 ae b1 0f 57 ad 3f
       0.2159075779211796 0.05730485004412255
000240 59 68 df 67 c4 ae a6 bf af 42 8e 3a 60 79 d8 3f
       -0.044302117995997654 0.3824081966240937
000250 93 5d 0f 55 66 7e a8 3f 19 db 74 56 d5 2f 84 bf
       0.04783935345011083 -0.009856859875623724
000260 3b 2b 55 91 e4 de ad 3f a7 d1 c2 06 11 47 c4 3f
       0.05834116243439388 0.1584187777531387
000270 e3 c0 0f 05 98 91 c8 bf 75 be 3d 50 bc 77 c7 3f
       -0.19194317099709854 0.18334154050852516
000280 b8 6c ec 1c 38 28 9a bf 46 0e 64 02 c3 57 6d 3f
       -0.02554404903922311 0.0035818871284634428
000290 fa b3 dd c6 6e 21 c6 3f 9e 67 f8 fc 3f 2d b7 3f
       0.17289528570418594 0.09053420949967836
0002a0 fe 3b a3 20 a3 b2 c2 bf cc 3c ee bc 4d 33 c0 3f
       -0.14607657521852951 0.1265656635773439
0002b0 db 36 af f3 99 93 c4 bf be 54 c1 dc a2 0d b0 3f
       -0.160754436480082 0.06270807160884126
0002c0 ff 7e ce 36 9f 5b b3 3f 3f 0b 23 81 68 6f c3 3f
       0.07561678970386863 0.15183740907203888

threshold_noise_fp f8 [3]
000000 00 00 00 00 00 00 00 00 00 00 00 00 00 00 00 00
       0.0 0.0
000010 00 00 00 00 00 00 00 00
       0.0
