experiment_pretrained/yin_yang_hxpynn/epoch_300/yin_yang_network.pt (torch, 21868 bytes, 6 tensors)

_delay_parameters f8 [4, 1]
00000000: 9dcf e1d5 891b fd3f 9a48 8afd 5a17 f03f
00000010: a6bd 459a 139f f73f d7a2 f9a8 2595 0340
1.8192232470291636 1.0057020095742133 1.47633705389658 2.447825737112321

weights f8 [20, 30]
00000000: f319 2cb2 9460 c33f cc0a 0250 6cee c23f
00000010: 0d46 4c3d c671 d0bf 8b29 d41d 580d f73f
00000020: dd15 6a97 18bd c2bf 8a84 a053 6a57 e33f
00000030: 5bf4 0d95 96d2 a73f 8462 060e 70f2 e03f
00000040: 1c89 95de 85b9 f23f 9148 c24a 4b76 e73f
00000050: ee42 8d18 ef45 b23f 7791 d1c1 5c0f dcbf
00000060: 9c67 26c1 e098 a73f c251 8cbd 169f e8bf
00000070: 1ab4 734c a7aa f43f bbf3 23f0 1620 df3f
00000080: 5a64 b155 8d88 e73f 3571 53ca 1bec f63f
00000090: 185b 81df a5d8 cd3f af41 97c0 c367 f03f
000000a0: 5b08 39bc 5340 ec3f 6bd3 c83a 48ac d73f
000000b0: 0ee9 48dc b38a f23f cedd d0b4 23ef e43f
000000c0: 964e 16d5 0b13 f63f 60ed 30d4 103b e03f
000000d0: 1945 04dc 0bbd 0040 08f7 d1a7 a51c f23f
000000e0: 050f 01b7 b1cb e53f a821 8b30 01fb fd3f
000000f0: d5ff 8446 cc96 fc3f eafc 268a cb1e e43f
00000100: be0a 9444 fe19 dcbf a2f6 950f 4347 f03f
00000110: 6483 ccdd 3f50 ea3f 4679 b19e df71 ef3f
00000120: 760e ea6e 5749 fd3f 57ba d52e 29d5 e63f
00000130: bbfc 70f9 f899 df3f 61c0 9903 cd36 db3f
00000140: b922 e049 0a0f df3f 0f7c aff9 fe9b f23f
00000150: 4f21 37a4 0f91 e83f 2471 395a 843d f13f
00000160: 0cee 76dc cc72 c13f 1609 619a 36e6 d13f
00000170: bdde 14bc 5822 dabf 980d 4b44 6757 f13f
00000180: a7e0 d847 5f23 e33f 04fa 1355 2f17 d9bf
00000190: 1d54 5a72 4ebe d13f 6281 dc3c 3653 e43f
000001a0: 7bd0 13f0 9dd9 d93f 7724 9627 d85b de3f
000001b0: b13e d2d8 5fc4 babf 27fd e755 c0d3 ee3f
000001c0: 6972 5069 0718 ea3f 44dc 5a38 2b89 f0bf
000001d0: 008e db1e 8cec f03f e47c 5298 8fbe f63f
000001e0: 7907 98fe a626 a33f 2357 e75b 88f4 b6bf
000001f0: cd42 d517 dc62 fd3f 278f 4a50 3196 f83f
00000200: f7a0 e48c bf12 f43f a11f 1ba0 5867 ccbf
00000210: 3cba ae7f 39ad 9cbf d9e2 70cb 95b6 cdbf
00000220: 52d5 84e4 e480 e4bf 7145 c148 f75c db3f
00000230: 0844 fe73 4739 d33f c053 b2ff 4b16 f83f
00000240: cdfb 768a 3029 c73f bbb9 6bd1 94f9 fa3f
00000250: ed19 4ac4 79d0 e2bf 459e ff8a 1c19 bd3f
00000260: ee3e 5414 f26d bc3f 5f61 92c4 dac8 fe3f
00000270: 2533 48d4 5a5a cabf 8b0b b588 f9f8 df3f
00000280: 302a d3fe ec07 ea3f 9a6b 9bd6 eb7e f03f
00000290: 8ee3 1b75 9ad0 f03f 8af6 8942 75b4 ce3f
000002a0: ac11 675b b743 eabf cc6f 691a 8350 e8bf
000002b0: 7827 4b86 0155 f6bf c9a5 eddc f5fe f43f
000002c0: 3c20 e223 6571 cbbf d89a c8eb 064b fe3f
000002d0: 0077 e2ab 9dae e33f 7576 402e b7bf e73f
000002e0: 4ef8 aca3 9ef7 d4bf 7d6a ce51 27c9 0040
000002f0: 8b2b 9622 f110 b43f 5dfe fcad bcb6 d83f
00000300: 633d d314 a0d1 e33f 2a7f ea43 73bf e03f
00000310: 6495 c9f7 4f04 f93f d7b6 3157 d2fc d93f
00000320: a015 1c9c b5b8 e63f 341c 1cab 319e bc3f
00000330: 497b e9fa 7ef8 ea3f 34e3 f81d bad5 c13f
00000340: fcce cf46 6839 fa3f d48c 1543 5f7a e43f
00000350: 5f4b 3aa5 0976 f53f 443c 70d5 6dcb 0040
00000360: 3bbd 138e df46 e83f f7a5 9115 5bf1 f53f
00000370: 4e27 82e3 f9a4 b3bf 5e05 9114 233f b93f
00000380: 9e92 fba7 d29a f6bf e013 2408 9aad e33f
00000390: a214 da45 1abe f63f 2cc9 89ad 1245 ea3f
000003a0: e540 d313 4cdd cc3f 611f c997 03a8 f13f
000003b0: d706 5e30 69ea e83f 3087 cada 60c1 0040
000003c0: 374c 4603 f917 c73f 0497 30dc 23de c7bf
000003d0: 24d1 deea 3883 d6bf ef3a ae84 fcde f93f
000003e0: 8366 f783 aede d7bf 3006 740d 8168 e53f
000003f0: 25bc f2b0 503e c4bf d9ea 66f9 f2dd cf3f
00000400: d29b 7ef4 e4b0 f03f 28a5 09f4 4654 e03f
00000410: b4ac 6c1d 07f2 c13f 1ade 5de6 33c1 dbbf
00000420: 1b2b 7f9a 1132 cdbf 0d54 fa6e ceaa f6bf
00000430: f7ae a518 bf71 f23f 8b1d 3b95 0f6d e43f
00000440: d2ad 86b9 1286 e73f 55c2 ba69 251f f53f
00000450: d3ac 0629 a8d7 d03f 2c7a 5ed2 6c85 f13f
00000460: 1005 277a 8aee e23f b637 70d1 7be9 d53f
00000470: 8cc0 0cbf 68b2 ee3f 9a31 7729 d01e c23f
00000480: a816 4a5e 6c2e f43f afa6 f424 b53a d23f
00000490: 8776 e120 bfb2 0040 9c18 f4cf 2301 f53f
000004a0: 617b 383c fbb0 dc3f 3d38 edb6 cdad fd3f
000004b0: 7a63 b916 8df1 fc3f 1fc8 63d5 bbc8 e73f
000004c0: 8ab8 a007 1eb9 dfbf a0da 2049 5f76 f03f
000004d0: a8c6 8b58 2ec3 e23f e7bf 4e89 6542 e23f
000004e0: c1d2 3513 6392 f73f f627 0eee d218 ee3f
000004f0: ead2 0340 b15d cb3f c7e4 f6b1 bd35 b13f
00000500: 3cd4 3ee2 e599 cb3f eb6d 3cc3 1b9d ec3f
00000510: 6c18 cd45 2c29 ec3f 18d6 4f4c b741 f23f
00000520: a152 6153 b2ac b53f ef5b c80f d04e efbf
00000530: 57d0 bdae cb7b c1bf 970b f71d 6e99 f23f
00000540: de34 93ae f9b2 e53f b125 0a71 6c8b 8d3f
00000550: d6c0 1dd6 4726 eb3f df82 b9ce 5888 e73f
00000560: bb7b 1283 a5e8 e23f 2149 d41c ab22 ea3f
00000570: c041 ac89 cbdb acbf d423 42c9 653d ec3f
00000580: aec0 7823 372e e33f 916f a290 c714 e7bf
00000590: f61c 488e 17b4 e33f 9338 24e3 c3ed f13f
000005a0: 7c61 bb09 8c30 b63f cd3e 9b3b e951 c13f
000005b0: 0529 ccc9 dc87 fe3f 4cce 6bf2 cf53 f43f
000005c0: 5000 8af4 3ee0 f73f 4f38 6ac6 ab00 cfbf
000005d0: 3413 e8df 2f29 8a3f 84ca 6663 110f b1bf
000005e0: 74be 9377 fb15 e3bf eba9 6a77 21a5 d73f
000005f0: ad28 662a 674b da3f 77ef 539c 94b5 f73f
00000600: 9ac9 4fbc 8035 b2bf 91e0 f4ca 10db fd3f
00000610: 2195 a24c 1519 ebbf 547d 470e 3e41 b93f
00000620: 4ee5 885a 56f8 d13f a935 3c16 5fa2 fb3f
00000630: d478 8d31 bd4c a43f b53d 68f2 8950 e13f
00000640: 4a8c 4577 1c30 e83f a175 6fb4 30f9 f33f
00000650: 86f4 d159 576a f03f b55e 6551 356d bebf
00000660: 2906 94f8 ceb8 eabf 8997 4ddf 8ff9 e8bf
00000670: 7b5b ef41 ff43 f4bf 22a3 9267 4574 ec3f
00000680: e39b bae9 1442 d6bf 8ccc f2b4 e8fa fc3f
00000690: b612 4248 3449 d33f 8573 4297 582a ea3f
000006a0: 0901 7204 65e0 d2bf 4b79 3c09 40c9 0040
000006b0: 6b58 7766 b405 d1bf 8800 4979 8abe e13f
000006c0: f9fe 33bd 54bc ec3f 20cc 545c a4d9 ea3f
000006d0: 0df0 0120 5f3e f83f 3d58 66a3 e1bb d23f
000006e0: 693a 0476 fd58 e73f 1531 8252 da36 d2bf
000006f0: c350 57af 8c3e ec3f dfb8 6bfd ceb0 babf
00000700: 782d e08c bb30 fc3f 2b9d 7bd4 9554 e43f
00000710: 3ab4 bd30 0a4d f53f 055a 5bba 79cb 0040
00000720: db20 e020 7e0b eb3f f05b 46dc 062d f63f
00000730: 07e5 ed22 0eca cb3f 8573 df96 46e4 b8bf
00000740: 4edc 0445 a2ac dfbf 1295 6cdc 228c e53f
00000750: 023c 8967 0a97 ea3f 64da 39e1 2286 eb3f
00000760: b002 5e34 7072 e5bf d085 4f93 e2ca f83f
00000770: dda9 923c 4f8d eb3f 2479 05a4 78bd 0040
00000780: 2620 8433 40a5 cf3f 2204 f5bf fec3 d63f
00000790: f7fa 6690 12bc d9bf 0f27 8914 ea04 fb3f
000007a0: bd25 cdbf 11a1 d7bf 1cb6 3ea1 fb71 eb3f
000007b0: d25b 867b 3221 7a3f 8e18 e995 1558 d73f
000007c0: 2da7 0b41 992c f73f 2d9a b46b 4c26 e63f
000007d0: 73ae 05a9 0ded c63f cea5 07b1 a592 e7bf
000007e0: 66f6 410f eff1 cabf 10e0 99f4 f21f eabf
000007f0: a731 c822 2117 f23f 6dec f6e9 dc9f db3f
0.15138491344278257 0.14790109545363916 -0.25694423662307103 1.4407578625856299 -0.14639575379639683 0.6044208176937371 0.046528535552149385 0.5295944475102066
1.1702936834995574 0.7331901989112045 0.0713796076718258 -0.438437642360689 0.0460882411745864 -0.7694200231658714 1.2916634546666104 0.486333593856951
0.735418956154841 1.4326436904294273 0.23317407048553984 1.0253331683235094 0.882852428076386 0.36989026776000483 1.158862934577488 0.6541918307838672
1.3796499561039233 0.5072101730687955 2.092307776336963 1.1319939189410793 0.6811150144862671 1.87378043138788 1.786815906016263 0.6287591646468205
-0.4390865010938504 1.0173979386158085 0.8222960788735745 0.9826505755880042 1.8304056484784303 0.7135206141227383 0.4937727390242334 0.42521977759952817
0.48529298033148965 1.1630849603022886 0.7677076537448019 1.077518799246783 0.13631592526313374 0.27967610431746104 -0.40834635131202984 1.0838387172414965
0.5980678942933267 -0.39204009350206115 0.27724038283605684 0.6351576985071399 0.40390728421267114 0.47435573449963137 -0.1045589355801393 0.9633485486846539
0.8154332215231764 -1.0334884835590552 1.057750816857947 1.4215236616217277 0.03740426881633047 -0.08966877216093087 1.8366356783846414 1.5366681228997068
1.2545772079120618 -0.2219038755194989 -0.02800454942524254 -0.23213455613747305 -0.6407341445216537 0.4275491915223802 0.3003710396524757 1.5054435718677581
0.180944507226711 1.685932939577113 -0.5879486879137495 0.11366442101972847 0.11105263706508214 1.9240367582879896 -0.20588240971883312 0.49957121229470464
0.8134675004051299 1.0309866316881426 1.0509285521095282 0.23988214253397572 -0.8207661423880857 -0.7598281398636515 -1.3957534070818536 1.312246191979613
-0.21439804317583533 1.8933171472833035 0.615065417968907 0.7421527770381561 -0.3276135061640887 2.0982195273512034 0.07838351339721165 0.3861533831695619
0.6193390280476873 0.5233703924641067 1.5635528258511266 0.4060560084825346 0.7100475358026195 0.11178884913907511 0.842833986342023 0.13933493102538252
1.6390154615482393 0.639938002609052 1.3413177923400423 2.099330584991124 0.7586515212005119 1.371424755338351 -0.07673608593372913 0.09861964466201331
-1.41279855364079 0.6149416121485238 1.4214117745007475 0.8209317578714823 0.22550345390346319 1.103519051468503 0.7786146111177129 2.094423016839663
0.1804190889348278 -0.186466677202752 -0.3517591756492655 1.616940038951437 -0.3729664124235585 0.6690068495519821 -0.1581517089848329 0.24896084955056244
1.0431870985573721 0.5102877394066683 0.14019860207313217 -0.4336671590494646 -0.22809047740732855 -1.416700776583869 1.1527701342374124 0.6383130945841214
0.7351163505131189 1.320104039197891 0.2631626511235485 1.0950744836369593 0.5916187654294465 0.3423757119461429 0.9592784625474606 0.14156534218490152
1.2613338168315895 0.2848332272429656 2.087278611069283 1.3127782939132322 0.4483020866481891 1.8549325128146983 1.8089724433577588 0.7432536285180084
-0.49567366356758014 1.028899465234339 0.5863258103765547 0.5706050569333428 1.4732390165710714 0.9405302667157673 0.21379676461915348 0.06722627253374745
0.21563409373416842 0.8941782773212571 0.8800259936622417 1.1410439473087362 0.08466639075897799 -0.9783706959013879 -0.13659044296548714 1.1624585314282052
0.6780975732487169 0.014426085662551854 0.8484229261357779 0.7353939092245944 0.5908992347721019 0.8167319834776984 -0.05636440330102088 0.882494824488385
0.5993915264898726 -0.72128656624726 0.6157338885249419 1.1205481407846818 0.08667826879116619 0.13531222734899587 1.9081695444788818 1.2704619855475299
1.492247538786632 -0.24220797718266104 0.012773870487771434 -0.06663616825862034 -0.5964333854189605 0.36945377980978716 0.41085223331959747 1.4818311792905356
-0.07112888905957107 1.8659828117361352 -0.8468119141367972 0.09865177010168696 0.2807823070648582 1.7271414631426103 0.039647972391991054 0.5410814032092534
0.7558729486012308 1.2483374641663902 1.0259622105216137 -0.11885388600546316 -0.8350596289676037 -0.780464111460547 -1.2666008544526608 0.8891932509332927
-0.34778330636112126 1.8112570827768506 0.30134303146796115 0.8176691965378359 -0.29494595941652385 2.0982666703777446 -0.26597318655456686 0.5545093888140551
0.8979896254895429 0.8390676310867811 1.5152274370475454 0.2927173705769553 0.729613047123917 -0.28459795052983 0.8826354431753533 -0.1042603844359493
1.7618976119000234 0.6353253507667537 1.331308546442655 2.099353271401244 0.8451529161548267 1.3859928707586242 0.2171037359765153 -0.09723321135920855
-0.49491173496375473 0.673356466785352 0.8309375784100441 0.8601240538544741 -0.6702195189282829 1.5495324854203893 0.8609996970238246 2.0925152601404466
0.24723055377421693 0.3557125925618171 -0.40210403539451484 1.6886997987916776 -0.3692058919010284 0.8576639317813632 0.006379315564479309 0.36475124015522276
1.4483883419838535 0.6921751121161087 0.1791092944434812 -0.7366512734999391 -0.21050823445323202 -0.8164000298847913 1.130646835200517 0.43163225982761483

threshold_noise_fp f8 [30]
00000000: 0000 0000 0000 0000 0000 0000 0000 0000
00000010: 0000 0000 0000 0000 0000 0000 0000 0000
00000020: 0000 0000 0000 0000 0000 0000 0000 0000
00000030: 0000 0000 0000 0000 0000 0000 0000 0000
00000040: 0000 0000 0000 0000 0000 0000 0000 0000
00000050: 0000 0000 0000 0000 0000 0000 0000 0000
00000060: 0000 0000 0000 0000 0000 0000 0000 0000
00000070: 0000 0000 0000 0000 0000 0000 0000 0000
00000080: 0000 0000 0000 0000 0000 0000 0000 0000
00000090: 0000 0000 0000 0000 0000 0000 0000 0000
000000a0: 0000 0000 0000 0000 0000 0000 0000 0000
000000b0: 0000 0000 0000 0000 0000 0000 0000 0000
000000c0: 0000 0000 0000 0000 0000 0000 0000 0000
000000d0: 0000 0000 0000 0000 0000 0000 0000 0000
000000e0: 0000 0000 0000 0000 0000 0000 0000 0000
0.0 0.0 0.0 0.0 0.0 0.0 0.0 0.0
0.0 0.0 0.0 0.0 0.0 0.0 0.0 0.0
0.0 0.0 0.0 0.0 0.0 0.0 0.0 0.0
0.0 0.0 0.0 0.0 0.0 0.0

_delay_parameters f8 [30, 1]
00000000: 7e02 68fa 2964 d5bf bdd3 239e 202c c63f
00000010: fd96 c670 b028 0640 a98f 79ff 4d9f 08c0
00000020: 0827 bd9e e0c5 f63f ff5f 8277 84ca d93f
00000030: b14b f5c3 5e99 dfbf 3c03 4ba9 8162 d23f
00000040: d449 3661 11e0 e6bf 8967 0325 e154 c1bf
00000050: 87d7 f31b 1225 833f 83da f16f 62ea 0040
00000060: 6d4b a1f7 cd22 f23f 52ab a12d 6e6b e23f
00000070: 6797 960a 3f22 dbbf d582 1583 7bf6 fb3f
00000080: 496b 9a9b 41e2 0240 925d 57e0 d4f6 0ac0
00000090: b2ba c6ca 6a2c 9c3f 904e 0ef1 9f41 f53f
000000a0: 3098 3d05 b1cb ebbf 570a 593f d2ad f23f
000000b0: 8499 bf6a 96dd f73f 2c3f 845e f901 0740
000000c0: 033d 746f 132b f53f c7ed 2b12 be1a f83f
000000d0: d95b db5a 3c61 babf 1578 3781 7fa1 f93f
000000e0: 7685 37ed 2b06 f33f 3f2f e4f4 63d8 07c0
-0.33423852399577203 0.17322166177441814 2.7698677836041257 -3.0777854880306745 1.4233099175202728 0.4029856841166292 -0.49373597275296804 0.2872623589756136
-0.714852037303269 -0.13540281588830919 0.009348050573389844 2.114445566719327 1.1334972069787128 0.5756140605202325 -0.4239652255440575 1.7476763840169742
2.360476699495312 -3.370523216882881 0.02751318800590736 1.328521672844463 -0.8686146833758865 1.1674368357204423 1.4915985269413747 2.875963915263034
1.3230165818857251 1.506528922064591 -0.1030461999720126 1.6019282386328133 1.189006735447348 -2.9806594020973587

weights f8 [30, 3]
00000000: 2470 a715 5437 e13f 9174 f124 ac22 dc3f
00000010: 8492 4c12 115e d43f dcfc f8ed ab37 e03f
00000020: c160 125e c2b9 e23f 334a 97ea 5273 d93f
00000030: e9c7 8d03 e3d1 d73f 5d1e 2b02 0335 db3f
00000040: a03f 7af9 a304 f53f afa5 e185 0af8 d8bf
00000050: 0e01 a1d5 7593 d23f 1bc0 b72e ba51 f03f
00000060: de98 edb8 baef a43f e792 d730 356c bcbf
00000070: 1bd0 3a45 871b e73f 1373 7ae4 09fd e03f
00000080: 162c a27e 9c88 d73f dfff 8b27 86c4 ee3f
00000090: 5b45 818f 5ebe e33f 14dc af38 e18b e43f
000000a0: 259d d7ef e3ff d23f 783b d815 9768 f23f
000000b0: e417 1a98 ee5d ec3f eacf 370a 5c90 e23f
000000c0: cfd4 d057 81c7 ce3f 07ee 924b d403 e63f
000000d0: a6b7 9649 edb4 c83f b751 5d53 29e1 ddbf
000000e0: cd88 166a 4613 f1bf d464 f4aa 4f85 f03f
000000f0: 8558 8cb5 527a ea3f fa13 02ed cc40 e63f
00000100: 204c 17db 30d9 dc3f f69b d30d 3ba7 f33f
00000110: 90d6 bca3 25ef f8bf 0f8a 2569 ef7b e53f
00000120: ca3b ae7f ae4f ef3f 5797 5421 be91 a4bf
00000130: dbeb 2d92 7218 dc3f b320 0cce e518 de3f
00000140: 312a c645 d511 c03f 25aa 6b2c d84e db3f
00000150: bc21 0c5b 9cce 73bf 24d7 1a67 b712 ed3f
00000160: 9288 d0f0 8895 bf3f 9107 0c8d 78ea f23f
00000170: a114 fc17 73c9 ff3f b560 caa0 e182 0040
00000180: 70bb 6bc3 35b4 c8bf 3afa 1f26 6c8f 0040
00000190: cdcc cccc cccc 0040 4d05 1f39 3df0 c9bf
000001a0: 6364 d7fd b201 dd3f dc32 1c65 9fd6 e73f
000001b0: 61ee 040e 8453 e93f 142f b17d 2615 ed3f
000001c0: 0c03 d228 6999 c33f 029b be35 7cdc ec3f
000001d0: 5097 3733 c689 e23f 4491 b17c 00f6 f4bf
000001e0: a110 a2bb 535b ed3f 2272 c2e7 32e0 e33f
000001f0: 48cd 75f7 1b2f dbbf 580f b48d f88d e2bf
00000200: 1788 cab4 1ffd ce3f 6373 40ab da81 dcbf
00000210: a192 af0d 7114 f53f 7166 f582 8b90 e13f
00000220: e45e af10 1895 e3bf cdcc cccc cccc 0040
00000230: cdcc cccc cccc 0040 cdcc cccc cccc 0040
00000240: 35c1 ff8d 50c7 e53f f07a 06fe 962a a0bf
00000250: 0ca4 f553 ebf5 f23f c9f8 76e9 2432 d9bf
00000260: 48b9 7e47 5b4d e6bf 4d91 519d 2a12 d73f
00000270: 29b8 6b0f 7d45 df3f 1872 e35f 4add e63f
00000280: 0230 6d01 30b9 f83f 88a1 2195 01ed f43f
00000290: 2370 d77e 2bc2 e63f d019 8a21 bb0c edbf
000002a0: 9371 9613 8484 e73f b3cd d6af 47e2 3ebf
000002b0: 1273 19c3 d899 c53f d0d2 56d5 90aa debf
000002c0: fd6f 302a 1f12 cb3f bf69 b91d 1b37 ed3f
0.5380039618426093 0.43961623771412756 0.31824137484571957 0.5067958496000773 0.5851756894435526 0.397663811772108 0.3721854719834697 0.42511058055649703
1.3136329407898089 -0.3901392276225932 0.29025026189994285 1.0199529480851257 0.040891490053398746 -0.11102611963685725 0.722110400404293 0.5308885061709553
0.3677130924849633 0.9614897510909904 0.6169884493666972 0.6420751673857716 0.2968683092317 1.1505347111994677 0.8864663096180689 0.5801220130510931
0.24046341693762094 0.6879674411824802 0.19302145093155082 -0.4668677629572601 -1.0672058242858384 1.0325466802517456 0.8274320169318946 0.6954102162422935
0.45075627704244603 1.2283278026677613 -1.5583855052949822 0.6713788083691855 0.9784767621766772 -0.04017442852845814 0.4389921596081742 0.47026963350118506
0.12554422289788783 0.42668728197046085 -0.004835711254380145 0.9085347188726911 0.12337547187101652 1.182243872608954 1.9866820275213188 2.0639069139252464
-0.1929995731547609 2.0700304964550726 2.1 -0.2026440171157823 0.4532287100715335 0.7449490523154867 0.7914448045552939 0.9088318304943379
0.15311922543698875 0.9019146966646476 0.5793181419692051 -1.3100590582699434 0.9173983254154515 0.6211180235437193 -0.4247503201106224 -0.5798304336208089
0.24209972694103563 -0.4454256698971248 1.3174906286814478 0.5488946492943808 -0.6119499517326088 2.1 2.1 2.1
0.6805804036539828 -0.03157493449110926 1.1850388793629945 -0.3936855583123245 -0.6969429394137387 0.3604837929072076 0.4886162424653571 0.7145130036183813
1.5452117973063655 1.307862837356966 0.7112023808836095 -0.9078040747706897 0.7349262602397623 -0.0004712510124946459 0.16875752950991135 -0.479160507525461
0.21149053154010736 0.9129767971565385

threshold_noise_fp f8 [3]
00000000: 0000 0000 0000 0000 0000 0000 0000 0000
00000010: 0000 0000 0000 0000
0.0 0.0 0.0
