experiment_pretrained/yin_yang_H5_WS/epoch_300/yin_yang_network.pt (torch, 7906 bytes, 6 tensors)

_delay_parameters f8 [4, 5]
0	0x400626ea87e9019c	2.769002019689834
1	0xbfea99e347d3f09b	-0.8312851336372832
2	0xc013dc36efd24589	-4.965053317269288
3	0x3f82ad00176865e5	0.009119034494733344
4	0x3fed46a3e5b3ceee	0.914873074185804
5	0x3ff9433d23ba4f67	1.578915729104631
6	0x3ff9f53b417382d7	1.622370963734445
7	0x3ff8925e4c1ffacc	1.5357344602231704
8	0xbfd330d4589f9b9c	-0.29985531477580607
9	0xc00213ffcd76e2b2	-2.259765248480414
10	0x4017eb36dfde5e4b	5.97970151705483
11	0xbfe07bd6d2e0d0f5	-0.5151170843805902
12	0x3ff826d938e23103	1.5094845029844357
13	0x3f76d797403da038	0.00557669718168801
14	0xbfe8d07c729ca715	-0.7754499662889623
15	0x3fd4be4f029430de	0.3241155171570095
16	0x3ff88a7a8034bd58	1.5338082321212223
17	0x3ffceb66627e85a1	1.80747068857486
18	0xbfd792de6db9203b	-0.3683391639247053
19	0x4011a6b7f7c824b2	4.4128111568363

weights f8 [4, 5]
0	0xbfdd0d608fb11c83	-0.45394147903829934
1	0x40015520e2ddf644	2.1665666316974086
2	0x40057d9a24be7b6f	2.686329161704115
3	0xbfeda2136aff4de8	-0.9260346498289751
4	0x4024f09d7b4c7a18	10.469951489530146
5	0x3fee66bfb040389b	0.9500425760650332
6	0x402308ae52640eac	9.516954970087077
7	0x40444c7b5ffff879	40.59751510618748
8	0xbfc45b453d9182b1	-0.1590353537203746
9	0x40060fe9e3a6d29d	2.7577703271184206
10	0x3fc50cfcb5b76213	0.16445883629673172
11	0x4001015b7258a5e4	2.1256627019217706
12	0x4006d4d15bce680d	2.8539149448743104
13	0x3ffff4262fc9913a	1.9971067301458576
14	0x3ffb3db18bae07cb	1.7025618988268316
15	0x40043bbed20130c9	2.52917255464681
16	0x4024a4b4151ff500	10.321686420584683
17	0x400a2a9359fe5e4b	3.2707888632537894
18	0xbfd6ed0d8e2d9bb0	-0.3582185638865054
19	0xbfff87529e06f9e3	-1.9705377743663284

threshold_noise_fp f8 [5]
0	0x0000000000000000	0.0
1	0x0000000000000000	0.0
2	0x0000000000000000	0.0
3	0x0000000000000000	0.0
4	0x0000000000000000	0.0

_delay_parameters f8 [5, 3]
0	0x400a8de91e623aad	3.3192922948577093
1	0xbff425003887ff12	-1.2590334137202643
2	0x3ff1a18859a86b47	1.1019366743336876
3	0x3fd9c48c07566b27	0.40262127605972114
4	0x3fe893dbaf80fb55	0.7680490901765135
5	0xc0077549b3ec7481	-2.932269483235871
6	0x3fe5db0d87e5058c	0.6829898504440037
7	0xc0166d4ed5c73160	-5.606746044428604
8	0xbffeab1394c751b2	-1.9167667209304509
9	0x3f8719b02f29315f	0.011279465140568488
10	0x3fbb52daba20ae0b	0.10673300785190791
11	0x3fcbfaae4e27da59	0.21858767334170429
12	0xc009f29d96b39659	-3.2434646390491193
13	0x4005ec7f3fa79096	2.740477082539722
14	0x3fff5b0ff5a5e6f3	1.9597320171000632

weights f8 [5, 3]
0	0x401e00baafe9c030	7.5007121550006985
1	0x3fc8f59dbd39a7ee	0.19499561061394338
2	0x400c327aea953cf9	3.5246485068124653
3	0x4004fb1971439523	2.6226071213483393
4	0x3ff807a12e4ad159	1.501862698392037
5	0xbfe82ca4f1316cee	-0.7554497443010442
6	0xbffaf130c6d66e7a	-1.6838844077200563
7	0x3ff0bfc427d7f358	1.0468179279698315
8	0x3ff7e35ca4870d82	1.4930082728249947
9	0x3febcee3c840fb6e	0.8690050994117493
10	0x3ffa3b1a38e0077a	1.6394293042835373
11	0x40000bc64bb5d650	2.0057493128649995
12	0x3ff409e77697d9c8	1.2524180061860637
13	0xbfda0d62ee5856cb	-0.40706704402815025
14	0x3ff5a0f1fcabd52f	1.3517932767839047

threshold_noise_fp f8 [3]
0	0x0000000000000000	0.0
1	0x0000000000000000	0.0
2	0x0000000000000000	0.0
