experiment_pretrained/mnist_twolayer__clip0.2_layersize100/epoch_300/mnist_network.pt (torch, 718551 bytes, 3 tensors)

weights f8 [784, 100]
0	0x3fc28353c9cd0ca8	0.14463279107630922
1	0x3fb1d95da8a3be2a	0.06972298972299798
2	0x3fc270fb19473d07	0.1440729020527913
3	0x3fc532ae82244e2b	0.16560918192463822
4	0x3fbfc178763a04ad	0.1240458763732188
5	0x3fb7ec153f3ae658	0.09344609063818987
6	0x3fb721594fd38138	0.09035261343843082
7	0x3fbbda6a3b70c9b7	0.10880149794755921
8	0x3fb23a594bf19f88	0.07120283226106328
9	0x3fb54412de301e0f	0.08306997227202138
10	0xbfa7e4fe452a152f	-0.0466689547948057
11	0xbfc0e07b32236ddc	-0.13185062359012434
12	0x3fc952ec8884eb2f	0.19784313837029674
13	0xbfc16fd3dda4b397	-0.13622520754270503
14	0xbf82b17876647395	-0.00912756072335145
15	0xbfc588e8ad9323d6	-0.16824062800722456
16	0xbf6b64f126720018	-0.0033440313305277518
17	0xbf8d802f684a64ca	-0.014404650087544008
18	0xbf52c7d4a3f45439	-0.0011462761465896988
19	0xbfa89063fd8d20d6	-0.04797661275967051
20	0x3fc877d8baad0230	0.19115742793111812
21	0xbfc6259cbc4d1b2c	-0.1730228347243722
22	0x3f93d80427851f42	0.019378724014387012
23	0x3fbcf7213bc32990	0.11314590176622219
24	0x3fc85f8377fa0b43	0.1904148422073267
25	0xbf79cedb467ebcee	-0.006300789398593338
26	0x3fb154e84639e258	0.06770183290962828
27	0x3fc5b7300f924d24	0.16965294609381332
28	0x3fb854753a5ac9e2	0.09503872561143781
29	0xbfa60ba95445879a	-0.04305771974283275
30	0xbfac64770e915bbc	-0.05545398762540496
31	0x3fc139c80b4b55e1	0.13457584907034373
32	0xbfc12a514a7afe04	-0.13410392891636047
33	0x3fc999999999999a	0.2
34	0xbfb1303721d2b22a	-0.06714195800550074
35	0x3f947edf88b31ed0	0.020015232771384117
36	0x3fbb1f4ff501e303	0.10594653827309845
37	0x3fc999999999999a	0.2
38	0xbfb70139ba1409df	-0.08986244957853938
39	0xbfc25f9f39f14a6c	-0.1435431511805122
40	0x3fc58583b86ef846	0.16813704019108594
41	0xbfc766909a9534e3	-0.18281753108968876
42	0x3fc68ee3b325bd55	0.17623564002449635
43	0x3fc999999999999a	0.2
44	0x3f8ebf2f24131e5f	0.015013092316066677
45	0xbfbab06790d3f3ad	-0.10425421987379364
46	0xbf915f664de0e8c1	-0.016965483191804468
47	0xbfc40c21b85feb1c	-0.1566202307002066
48	0x3fc00cf9ffcbea16	0.12539601316514454
49	0xbfc3fb9ae59cbd0a	-0.15611587726150616
50	0x3fc999999999999a	0.2
51	0xbf92365113ab4761	-0.017785326791290305
52	0xbf8cfe953e7c7085	-0.014157453507827942
53	0x3fc361bfbf66e772	0.1514205631809165
54	0xbfb171b7e5070af8	-0.06814145413867922
55	0x3fa03e41886becab	0.03172497549345484
56	0x3fc311799ddc6df2	0.14897079666194163
57	0x3fac170a30c80684	0.05486327977633912
58	0x3fc0c6146cdcf50d	0.1310449153478789
59	0xbfa9adad59bd9380	-0.050153176502852226
60	0x3fbdf107c3dc59d1	0.11695908099895937
61	0xbfc7b86ec2808605	-0.18531593796892323
62	0x3fa15bec14f783ca	0.03390443569129038
63	0x3fc1f7bfcd3a508c	0.1403732063378168
64	0xbfb12571279fdddf	-0.06697756974596512
65	0x3fc6019ca7e12e3c	0.17192419240233103
66	0xbfc857e64f6bd05f	-0.1901824844168258
67	0x3fb403647cd358f9	0.07817676589488433
68	0xbfb141f5ba4bd9cb	-0.06741271780251805
69	0x3fc999999999999a	0.2
70	0x3fc782c8574e428a	0.18367866766904611
71	0x3fc6487bdbb2d0f3	0.17408703067270145
72	0xbf9be999696a0ec3	-0.0272582979764724
73	0x3fbf56c0c40f8293	0.12241749560008434
74	0x3fc70c94e4b6f5e2	0.1800714604159302
75	0xbfa1fe4c848706bf	-0.03514327161566432
76	0xbfb155a6376dde0d	-0.06771315434695442
77	0xbf88d9d9eb7a5438	-0.012134268282617197
78	0xbfbb5628463b8a5a	-0.10678340639746278
79	0xbfc4a3cab83c3ae7	-0.161248531302099
80	0x3fbe445c0319f6a4	0.11823058200567488
81	0x3fc46a44bbb3b1da	0.159493056918463
82	0x3fbc8c63b0917237	0.11151717243905855
83	0xbf7e18855c19fb23	-0.0073476037374564955
84	0x3fc999999999999a	0.2
85	0x3fc462fd636bd440	0.15927092890311378
86	0xbfa531a457dd7480	-0.04139436314174194
87	0x3fc7f780dd23c97f	0.18724070356217834
88	0x3fb286348d2a4345	0.07236031004346184
89	0xbfb6a59b4bb20dee	-0.0884644565394905
90	0xbf9df9e8773e6f99	-0.029273636129445533
91	0xbfc1cb938d6e76d9	-0.13902515798411377
92	0x3fc20ae3285b1ea0	0.14095725508217516
93	0x3f623d5768223c52	0.0022265154994510006
94	0xbfb8f67b8e01a89a	-0.09751102654414226
95	0x3f921af6b0952744	0.01768098309302181
96	0xbfa524e1df34697e	-0.04129701471011325
97	0xbfc92d50e2147e4f	-0.19669543303551726
98	0xbfc944a376959473	-0.1974071816468129
99	0xbf78ca80f03cab8d	-0.0060524975449806175
100	0x3fc3a8a513581cd7	0.15358413166561632
101	0x3fc18140a4ca1465	0.13675697370868814
102	0x3fc5de4ce21472a7	0.17084656752640123
103	0x3fc999999999999a	0.2
104	0x3fc307dcc6a8dbf6	0.1486774415986642
105	0x3fc924bee95e06ee	0.19643389124762883
106	0xbfba71d560e14eed	-0.10329946151005816
107	0x3fa9dd71ee458510	0.05051761659229659
108	0x3fc4dca2cbfff457	0.162983274087227
109	0xbfc3f450b3d5ef5c	-0.15589340954817998
110	0x3fa4237f0d34fb34	0.03933331524102926
111	0xbfbab167bb4f0d07	-0.10426948855370109
112	0xbf95462246d84152	-0.020775352071781335
113	0xbfbbc468a1373cae	-0.10846570907527806
114	0xbfc017d5a8c0d9e1	-0.12572737445743967
115	0x3fc422cf2a380fff	0.15731229363893814
116	0x3fb9823621c01d51	0.09964311908708125
117	0x3fb5529f052aaff1	0.08329194904462135
118	0xbfa735b0fd92624a	-0.045331507638540616
119	0x3fc3cc4ec3da68f3	0.15467247546332138
120	0x3fc2ced3c4e78166	0.1469368659445635
121	0x3fc8c01899d1f827	0.1933623076510582
122	0x3f9af8905c3b42e7	0.026338821057666186
123	0xbfb116cdae68e094	-0.06675420291947126
124	0x3fc3b74d5683b9f1	0.15403143619864992
125	0x3fb9525fb3b69176	0.09891317498710869
126	0x3fc0c46a0613bbb9	0.13099408432705476
127	0x3fc8fc68f45af108	0.19520294124038906
128	0x3fc2d836365c3f5b	0.14722325949014245
129	0x3fc2c27358a43fb6	0.14655916050150858
130	0x3fb67338e97e09d3	0.08769565296646613
131	0xbfa99f9683ecc0f9	-0.05004568443689723
132	0x3fbe3d5af77c8f8b	0.11812370817329858
133	0xbfb1bd57feefe4e2	-0.06929540609407384
134	0xbfb43b0b2dcc6630	-0.07902593486905896
135	0x3fc64fe3822baba1	0.17431300979600642
136	0x3fb1670878a2ba53	0.06797841019827304
137	0x3fa021f3feaf460a	0.031509041633068405
138	0x3fbd9328b370242a	0.11552671795665562
139	0xbf807ad16c9f4f5a	-0.008046756865873018
140	0xbfa86a7ef7c2c425	-0.04768749975608725
141	0xbfc7ed79d54dae5a	-0.18693468966681587
142	0x3fc977c498e43e71	0.19896752801331588
143	0x3fc3d96439e7fd38	0.15507176234675923
144	0x3fc37567425dff0a	0.15202036610207187
145	0xbfc032e9d8699bb2	-0.12655375544565356
146	0x3fa814924b6d03e6	0.04703194781041713
147	0xbfb1c6a70c199506	-0.06943744702728702
148	0xbfc562961c235b43	-0.16707111715251174
149	0xbfc99624adc96307	-0.19989450917889703
150	0x3fb58acfa5d6989e	0.08414933966432378
151	0x3fc7aa2d3d398d3f	0.18488088120930432
152	0x3fc3c60b17e24482	0.15448130289272305
153	0x3fba38cef590c416	0.1024293279194953
154	0x3fa2078c424afa92	0.035213835804360674
155	0xbfc068a5f0288d93	-0.12819360949025035
156	0xbf953aabb81e3f31	-0.02073162375705734
157	0x3fb9b2210b8b16e5	0.10037428409404077
158	0x3fc3c21899dfe923	0.15436084283266735
159	0xbfa04797de0ecee8	-0.03179621301333474
160	0x3fc81b6a2fc177ee	0.188336633032065
161	0xbfc0f50951400305	-0.132477917359232
162	0x3fbeb1e0bb350044	0.11990170069202671
163	0xbfbe25436dcde7fe	-0.11775609427232323
164	0x3f9f9e2d1a578aaa	0.030876831753526325
165	0x3fc999999999999a	0.2
166	0xbfb265bf5caa677a	-0.07186504375786554
167	0x3fc4a981475fbd29	0.1614228819375765
168	0xbfc3780ea8261c88	-0.1521013566054743
169	0x3fb529b3186ebba8	0.08266753527162385
170	0x3fc88d644376a3db	0.19181493085969134
171	0x3fbb0b375bd29208	0.10563989631425141
172	0x3fb64c756f216686	0.08710416758676773
173	0xbf9d0cdc0685d483	-0.02836936750232556
174	0x3fc7b57ca419ce36	0.18522604000792037
175	0x3fa20157299db288	0.035166477041319644
176	0xbfbb9d2490716646	-0.10786655928077335
177	0xbfc31e7fd69d5b0b	-0.14936826686126667
178	0x3fc05417d328196d	0.12756631670363153
179	0xbfab224cf0081723	-0.05299606733392028
180	0x3fb2fba12b12b485	0.07415206243122625
181	0xbfbdfb4a9f779a9f	-0.11711565392725241
182	0xbfb8f631537add84	-0.09750660217365775
183	0xbfc08b1e0909c433	-0.1292455238467781
184	0x3fc3c8b29722d482	0.15456230525675002
185	0x3fa829160b2dd86b	0.047188462128290386
186	0xbfc84a71d91a9ce6	-0.18977187252787714
187	0x3fc5b7de247a622a	0.16967369824557582
188	0xbfc6b681ffc1bbc3	-0.1774446963131294
189	0x3fadc7cd3812392e	0.058164990515353274
190	0x3f941f7152ecbf85	0.019651194273307766
191	0x3fc2503e9219e474	0.1430738652595981
192	0xbfc999999999999a	-0.2
193	0x3faeecdb16fdca41	0.06040081649452534
194	0x3fb87e0636faae7c	0.09567297785059198
195	0x3f878e8dc0d911db	0.011502368400336962
196	0x3fbd3d7e22d16ac9	0.11421955442475985
197	0x3fc4e5cce390aa12	0.16326295005394847
198	0x3f616181eec3c8ca	0.0021216905353123915
199	0x3facf56dfb2fbb9d	0.05655997935524868
200	0x3fc48b24a7baae86	0.1604963129988059
201	0x3fc3a3270f07c83f	0.15341652139574255
202	0x3fbbd0c67a1d7de7	0.1086544082768267
203	0xbf9f420c7540b483	-0.030525393158474145
204	0x3fa4994c26c20156	0.0402320668517883
205	0xbfc2e14acc68b331	-0.1475003717509025
206	0x3fb62166dc49d5d8	0.08644717100272403
207	0x3fba33eae73271df	0.10235469955882291
208	0x3fc8a8fb33756a51	0.19265689861898008
209	0xbfb13a7f9e74e495	-0.06729886644906664
210	0x3fc0d641beb564e3	0.13153859912816931
211	0x3fc437c5deb1670f	0.15795205472641569
212	0x3fbaf9322a062cd6	0.10536492849330456
213	0xbfc1b4f4e3850551	-0.13833485707622598
214	0xbfc999999999999a	-0.2
215	0xbfc1ca232fa9509d	-0.13898124530044678
216	0x3fc62002434a0cbd	0.17285183225258108
217	0xbf9aa5ce0d378c60	-0.02602312045736388
218	0x3fb0be6573b07dec	0.06540521692703977
219	0x3fc999999999999a	0.2
220	0x3fc8349450476016	0.18910459442008748
221	0xbfbde117994b09f9	-0.11671588413722835
222	0xbfa0e46411dd5531	-0.032992484265074735
223	0x3faa9f0c9267af97	0.051994698402125276
224	0xbfbd38c3b8a5ee3e	-0.11414740808498267
225	0x3fb2e21eb3f88ed2	0.07376281637021556
226	0x3fba4aed7eeb81f4	0.10270580624229081
227	0x3fc999999999999a	0.2
228	0x3fb3bbd98960baff	0.07708510974837778
229	0x3fc94cb98883fb09	0.1976539532260733
230	0xbfb4d2b199b9e56f	-0.08133993151741035
231	0xbfb7fd42b8b1289b	-0.09370820054133093
232	0xbfa55c14c3b292c9	-0.04171814812551628
233	0x3fbf592b9690aba3	0.1224543802824614
234	0xbfaf71e804bd600d	-0.06141591127260435
235	0x3fab6e5e8f1ceaba	0.05357642647728285
236	0xbfb5b0b1d5b3e772	-0.08472739665367415
237	0xbfbce45e6f229c44	-0.11285963261853832
238	0xbfb585f141e5323c	-0.08407504900714796
239	0xbfa3a8a9aebaedc7	-0.0383961702150049
240	0xbf9308f53e0f3866	-0.018588859474953166
241	0xbfbf25204a940d24	-0.12166024990806484
242	0x3fc30a01a4f0fa53	0.1487428717973268
243	0x3f96123865699bc6	0.021553879918794448
244	0x3fc9937c05f74c27	0.1998133687144172
245	0xbfbe6e17d8b9bbf6	-0.11886738816404815
246	0x3fc65d9fc243cec2	0.1747321795042947
247	0x3fbc2e4494283b7f	0.11008099190824615
248	0x3fb93a198fabd1fe	0.09854278333279606
249	0xbfc8f5c3557b184d	-0.1950000922572052
250	0x3fc999999999999a	0.2
251	0x3f8119c58878f0f1	0.008349936702068269
252	0x3fac0784d82f86b6	0.05474486483559586
253	0x3fbdd82be00c6ce6	0.11657976360259034
254	0x3fae5d464277dbc0	0.05930537759188992
255	0x3fc0746963409082	0.1285526022558124

weights f8 [100, 100]
0	0x3fbb34a0be74deba	0.10627178811852903
1	0x3fc9951506995ec1	0.19986212560865194
2	0x3fc99546d5201fd7	0.19986806303518165
3	0x3fc1db51fd7a1c22	0.1395056235962509
4	0xbf969ea7fcd287dd	-0.022089600378087815
5	0xbfbb2a026ee19bd6	-0.1061097641664753
6	0xbfbe57982cb7f6ad	-0.11852408496630558
7	0x3fc8a12a0a47d22b	0.1924183416555406
8	0x3fbc9f23313bb5c5	0.11180324508651214
9	0x3fc9952805408401	0.19986438995786673
10	0x3fb8c74ff6762d11	0.09679126517419358
11	0x3faecb41bade19c3	0.060144475995048484
12	0x3fb5fbc7d2852491	0.08587311639452568
13	0xbfb5670b9e3888ae	-0.08360359776318901
14	0xbfbf41e6bd116bfc	-0.12209932437819754
15	0x3fc8bfd5fd2d500d	0.19335436689527832
16	0x3fc9952204d67e40	0.19986367450927567
17	0xbfb43262240473f4	-0.07889378909426609
18	0xbf7dc60656999d1c	-0.007268929251586866
19	0x3fc0524a1ce13378	0.12751127634183113
20	0x3f979cab2e609e44	0.02305858107152249
21	0xbfa597d1fe81f989	-0.042173921888195194
22	0x3f8e453849d942c8	0.014780463937456814
23	0xbf9ad8433b7524c0	-0.026215601448062342
24	0x3facc5a895ebef7e	0.056195514965991386
25	0x3fc0e4ee7cba782f	0.1319864377045987
26	0xbfa89bf9cd850dfe	-0.04806500085626551
27	0x3fad014ff252e11f	0.05665063698819694
28	0xbfc53d12622e67c8	-0.165926263752054
29	0x3fbcf26849238044	0.11307384286510663
30	0x3fa714f382b15295	0.045081720069594024
31	0x3fc9952eb7fcc98a	0.19986518844377726
32	0xbfc622b8582154d1	-0.17293457320434993
33	0xbfb542f6fa23a099	-0.08305305106080353
34	0xbfbb366808da36da	-0.1062989255535415
35	0x3fc815fd49bcd810	0.18817106342766055
36	0x3fc3e14072ffbd28	0.15531163802322934
37	0x3fc475b5825b7aeb	0.15984219422440246
38	0x3fc999999999999a	0.2
39	0xbf9f2d6af6014dce	-0.030446692719420736
40	0x3fbee9b8735a86ab	0.12075379196405815
41	0xbf8da3ee80057ccd	-0.01447283104124466
42	0x3fb0bf4ec93d9e18	0.0654191247282302
43	0xbf997bdfa24dfaf7	-0.024886602669989846
44	0x3fb5aba6e4824b95	0.0846504505046098
45	0xbfb57d2e7f956ebb	-0.08394137015187202
46	0xbfbc18f531604c47	-0.10975582557175399
47	0x3fba3a4565fa391b	0.10245164622958607
48	0xbfb155452270d86a	-0.06770736780967615
49	0x3fc209be870db914	0.14092237085737536
50	0xbfc258fd7a4ad1ea	-0.14334076377203014
51	0x3f9dff4db17e0026	0.029294218023551498
52	0xbfaf0058fa1b5213	-0.060549526720624545
53	0x3fc64c25b7503367	0.17419883204311334
54	0x3fb5be62bf344390	0.08493630569524968
55	0x3fc744b4b51a5b83	0.1817842373172561
56	0x3fc8ca400bc408a5	0.19367218565463876
57	0x3fc7b51107914b0e	0.18521321172246313
58	0x3fc0f2ff73ea33f7	0.13241570625214624
59	0xbf707efc02810b44	-0.004027351773461533
60	0xbf96f6d3f1495799	-0.022425948717078013
61	0x3fbab68c2cf7cfca	0.10434795472957528
62	0x3fbc86a7caac38e7	0.11142967889847775
63	0x3f9bc5a91b9a782f	0.02712120276429902
64	0x3fc1d390853c3252	0.13926893716451844
65	0xbfb02b5adc799bdd	-0.06316154368106149
66	0xbfbac760459dfb43	-0.10460473727833368
67	0x3fae17e98da5c9ce	0.05877618650528725
68	0x3fc64d697d765085	0.17423742891390162
69	0x3fc0912349bef2af	0.1294292554938656
70	0x3fc494170838978f	0.16076934720439026
71	0x3fc9951b793b0ab4	0.19986289424385506
72	0xbfac0220c7d51189	-0.054703735726920284
73	0xbfbc1efa8cc376fb	-0.10984769760713313
74	0xbfb5bf9edfbaa6a8	-0.08495514833580364
75	0x3fc994b549448fc4	0.19985071256189546
76	0x3fb50981d47521fe	0.08217631756736662
77	0xbfbe1542ee55fd84	-0.11751192396876858
78	0x3fc99438d394b2ac	0.19983587580772644
79	0x3fc99540fbaad68c	0.199867365726892
80	0xbfb7f0d5874777a3	-0.09351858666147321
81	0xbfc3784596ed3d65	-0.15210790509670882
82	0x3fc840d897a32efc	0.18947894481822647
83	0x3fb69939f77a72c0	0.08827554981184971
84	0x3fc43bc2bee1c5d9	0.15807375259787085
85	0x3fb9634a122733b2	0.09917128508750642
86	0x3fb93eacde33308b	0.09861259865573595
87	0xbfb102c670b64d55	-0.06644859554062539
88	0x3fb5f495e5090a12	0.08576332894976016
89	0x3faf6f7e829610a9	0.061397508087823134
90	0xbfb740aa83c02673	-0.09083047596518572
91	0x3fc9952e9b46ce0c	0.19986517507423718
92	0xbfa359fea080d90c	-0.03779597958821243
93	0xbfa3480945eb0268	-0.0376589677666786
94	0x3fc0fd92abe98215	0.13273843187472836
95	0xbfc6c68fd2a48aa4	-0.17793462548532546
96	0xbfc4f960fc23d7aa	-0.1638604384567633
97	0x3f96e5703f070fd5	0.02235961327257015
98	0xbfbd1c78a4a0ad01	-0.11371568698148239
99	0x3fc9951c77f9607f	0.19986301286803962
100	0x3fc4eac116a4f38c	0.1634141312187264
101	0x3fc999999999999a	0.2
102	0x3fc999999999999a	0.2
103	0x3fc1d0b7458ee695	0.1391820039405515
104	0xbfbf578ba98e76d5	-0.12242958917201048
105	0xbfc9556f6c7c3483	-0.19791977688911197
106	0x3fc948a6e0abe0f5	0.1975296589878394
107	0x3fc96b1b89933d2a	0.19858116357361527
108	0x3fc999999999999a	0.2
109	0x3fc999999999999a	0.2
110	0xbfb281c7cde3659d	-0.07229279305047105
111	0x3fc714e232379291	0.18032481624608868
112	0x3fbc688000c2d33b	0.11096954363422366
113	0xbfc9948507608911	-0.19984495983323616
114	0x3fa12cbf8c6e5826	0.0335445269512749
115	0x3fc93d66d4aa5162	0.19718633064315855
116	0x3fc999999999999a	0.2
117	0xbfc7cf9fc20b2c4c	-0.18602368330752694
118	0xbf9fff57cdecd1e1	-0.031247493690175324
119	0x3fb33ff04cdf0dbc	0.07519437672367862
120	0x3fc999999999999a	0.2
121	0xbfc989e8c1c81d34	-0.1995211549949346
122	0x3fc827d6df0992b5	0.18871580019471926
123	0xbfbaa60aeb54f6ef	-0.10409610982329885
124	0x3fc806fcd8eb4e8d	0.1877132472205755
125	0xbfc146c023ce33fc	-0.13497163532557
126	0xbfc8e76484ec1939	-0.19456154337258072
127	0x3fc997de9d7df39a	0.19994719209708195
128	0xbfc764c512eea82a	-0.18276275085855903
129	0xbfc7f7cdfc882c5b	-0.18724989729557504
130	0xbfadb7ec8e2060b3	-0.05804385409300163
131	0x3fc999999999999a	0.2
132	0x3fba21426bd2143b	0.10206999904956231
133	0xbf8f6cd85eb10f23	-0.01534432448364204
134	0x3fc8de96a549d8ae	0.19429286070562085
135	0x3fc864959d0c28f6	0.1905695931275841
136	0x3fb89f27f52b9480	0.09617852912522729
137	0xbfa0a6c8a70c65d9	-0.03252245940366167
138	0x3fc999999999999a	0.2
139	0x3f787ef37079120f	0.005980444846106283
140	0xbfc562f8c3daae08	-0.16708287776178588
141	0xbfc97cf2a67e1a55	-0.19912560586472475
142	0xbfc6d459d48f00f0	-0.17835543516958507
143	0x3fc77da4c2dc8618	0.18352183832853153
144	0x3fc66403ad848c90	0.17492719624087671
145	0xbfc987c1ac9cd7a1	-0.1994554608187942
146	0x3fc994b7c2c2609c	0.19985100755434793
147	0x3f98d6e42c9b4c13	0.024257245276043515
148	0xbfc7b1d937186303	-0.1851150053996876
149	0xbfc999999999999a	-0.2
150	0x3fc902fcc7e29d27	0.1954036689760212
151	0xbfbbafe38423c7f5	-0.10815259910648918
152	0x3fc999999999999a	0.2
153	0x3faba9bb226e477e	0.054029319718337895
154	0x3fc425c68127e2d4	0.15740281397281441
155	0x3fc70eb84e8d2b5e	0.1801367171813934
156	0x3fc3e75441057564	0.15549710440511
157	0x3f95288816699f86	0.020662428253131825
158	0x3fb5846e6a28139f	0.08405199138367302
159	0xbfc6c062a4ffedf4	-0.17774613434436015
160	0x3fc8a5c8d70d3d86	0.19255934238979594
161	0xbfc5b9a14aa1688d	-0.1697274794012781
162	0xbfae26f937507a08	-0.058891094209901296
163	0x3fc17266a05fd7b8	0.13630373793392692
164	0x3fc2a943621dae98	0.14579050341432231
165	0x3f621b33b0da17fa	0.00221023650994123
166	0x3fc86d11c101eef0	0.19082853244969256
167	0xbfb7dc4e5220e2d7	-0.09320535187806499
168	0xbf7cb242d79a4845	-0.007005940534911719
169	0xbfc61c4bc63662d1	-0.17273852518407876
170	0xbf7c0b6ff7751ef5	-0.006846845025684213
171	0x3fc999999999999a	0.2
172	0xbfc695485c83bba6	-0.17643074528993202
173	0x3fc95368da035cf6	0.1978579582707664
174	0x3fc7984431a06da8	0.18433430121591
175	0x3fc999999999999a	0.2
176	0x3fc855ee82b62169	0.1901224268187989
177	0xbfbee2b30eb1793a	-0.12064665898058005
178	0x3fc999999999999a	0.2
179	0x3fc999999999999a	0.2
180	0x3fc47cf2077bf9fa	0.1600630318207122
181	0x3f6324336ec85798	0.0023365978761473276
182	0xbfb216a883ee32bf	-0.07065823765715161
183	0xbfc64e9882871f19	-0.1742735516875136
184	0xbfc2145f3e71a486	-0.14124670552272195
185	0xbfc7dbbdebe0f0de	-0.1863934900046677
186	0x3fa935d582db15b4	0.04923884603844489
187	0xbfb3dedc8cc53dd1	-0.07761934696940577
188	0xbfc43ac46ab01915	-0.15804343423241876
189	0x3fc74c7b01868b5a	0.18202149939051077
190	0x3fa096d9b41ff37e	0.032400897252933256
191	0x3fc999999999999a	0.2
192	0x3fc30f49431dd2b2	0.14890399720356623
193	0x3fc8929b45af36c1	0.1919740762954714
194	0xbfc5b828a344f4bb	-0.16968257877480206
195	0x3f93765eb516842e	0.019006233027202217
196	0x3fa647d8cd1feb12	0.0435168981930102
197	0x3fc958b63a95e125	0.19801977024668208
198	0xbfc1917dff927a4c	-0.13725256899938854
199	0x3fc999999999999a	0.2
200	0xbfc98fd5411a6b99	-0.19970193556659124
201	0xbfc683ce2046ad24	-0.17589737487774315
202	0xbfc67c99f774f82e	-0.17567753393990543
203	0x3fc84121d27d1889	0.18948767450109852
204	0xbfc8d254fb831e64	-0.19391882210605893
205	0xbfc8613279201cee	-0.19046622194603152
206	0xbfb5ae5b5d77990e	-0.08469172508157305
207	0xbfc17b1aab8ebd2c	-0.1365693414386241
208	0xbfc870ce52ef66b1	-0.19094256448334115
209	0xbfc6808964d27cd9	-0.17579762862167206
210	0xbfb6760a657cc2df	-0.08773865678518743
211	0xbfc29506884dc05b	-0.14517289786772633
212	0xbfc407474ea885fa	-0.1564721235345557
213	0xbfbe11d24f7cdfa5	-0.11745943489665807
214	0xbfc56fc882a2ec8f	-0.16747385386210964
215	0xbfc71bcd8086a1ee	-0.18053597236327285
216	0xbfc68b8c1c179603	-0.1761336457413308
217	0xbfc936ba651dc329	-0.19698266923253385
218	0x3fc049f6e1c66f46	0.12725721382309468
219	0x3fc6cb6c8496c135	0.17808300470415764
220	0xbfc3e9b465ba56b8	-0.15556960074598236
221	0xbfc494d166416321	-0.16079156392040608
222	0x3fbddc8cb57ea58f	0.11664657050154957
223	0xbfbbc91e0ebbf0c6	-0.10853755817146568
224	0xbfb9fbee35331b8e	-0.10150040434665028
225	0x3f743eec3099df9c	0.00494282018336625
226	0x3f75960b11e3bc39	0.005270045510982029
227	0xbfc8e32114ff1c51	-0.19443143391819942
228	0xbfc85afc4fbd3018	-0.19027665990358922
229	0x3fc71b567a8647ae	0.1805217836632073
230	0xbfba5aaf1b81391f	-0.10294622823241582
231	0xbfc67c0b574d8657	-0.17566053164323378
232	0xbfc9334e135fabf0	-0.1968782038305501
233	0xbfc58d5eaa75f6c7	-0.16837676356583683
234	0x3fa042bf6d3b720c	0.03175924499894131
235	0x3fc4f9b0cb33a236	0.1638699524112483
236	0x3fc83f501f5bfc80	0.18943215876786113
237	0x3fc61d3b4c2de02d	0.17276707858741372
238	0xbfc715729a22ba34	-0.18034203077464073
239	0xbfc97ebd655ca2c5	-0.1991802925997687
240	0xbfc70aa68322b4fb	-0.18001252558807565
241	0xbfc98d2e3306e0a0	-0.19962098590417998
242	0x3fc1985e58be7710	0.13746241887286503
243	0x3fb4d1ae55bf85f3	0.0813244780870475
244	0xbfc6dc98c8842339	-0.17860708037212605
245	0x3fc7cd949a599301	0.18596131836525134
246	0xbfc8214916b290d2	-0.18851579292561965
247	0x3fc992f17c85b7c1	0.1997968538302626
248	0xbfc4c92dabebcbbd	-0.16238947767814507
249	0xbfc90623c5caa3fc	-0.19549986989775892
250	0xbfc5965a5af83082	-0.16865090791577947
251	0x3fc7c0259de4c149	0.18555135926863844
252	0xbfbdfdeb35cd79d5	-0.11715574325123808
253	0xbfc9921bee47b53b	-0.19977139601489022
254	0x3fc7c208066369a0	0.1856088668053646
255	0xbfc8cd53360e91e1	-0.1937660230588696

weights f8 [100, 10]
0	0xbfc3971d3c629462	-0.1530491394852645
1	0x3fc7134e88be569e	0.18027669598511847
2	0x3fc6996f55b00b6d	0.17655746158569788
3	0x3fc0aaa229fe7785	0.13020731974114255
4	0xbfc52a1e118880aa	-0.16534782272447518
5	0xbfbdc0ca11ba7528	-0.11622298176594781
6	0xbfaca70fc492f440	-0.05596207880578463
7	0x3fabb0a817128d3e	0.054082157913649884
8	0x3fc999999999999a	0.2
9	0xbfc4c907730b18b7	-0.1623849212393844
10	0x3fc85c4b5b1993a0	0.19031660030591713
11	0x3fc74be712c5ae88	0.18200386444674543
12	0x3fc7f6b0515c0647	0.18721584293966684
13	0x3fc2050c4651db1c	0.14077905114728473
14	0x3fc83453546624b7	0.18909684773487864
15	0x3fc1f5a070a61bfc	0.14030843258316839
16	0x3fc85301888db3b6	0.19003314178135405
17	0x3fc5df2cb0f7ea22	0.1708732475379558
18	0x3fc785e764e301bc	0.18377392221556288
19	0x3fc59b3adc3c5d5d	0.1687997413034549
20	0x3fc85bb2b08c6d30	0.19029840107473595
21	0x3fc74c03d5e9f938	0.18200729317681819
22	0x3fc7f622e0df0b8d	0.1871989820484398
23	0x3fc2171e7bac176f	0.14133053816493255
24	0x3fc833f4c693bfc0	0.18908557602071419
25	0x3fc1ea67b250babb	0.13996597487262882
26	0x3fc852fab83f514e	0.1900323295254886
27	0x3fc5e0b1d4ec17c7	0.17091963669389384
28	0x3fc785c032f1e22a	0.18376924979726655
29	0x3fc58db4ec30a964	0.16838704617232303
30	0x3fc49676e0e08b2c	0.16084180813148785
31	0x3fc5c1c731f19e8a	0.16997613848365162
32	0xbfc8c0d2d751f918	-0.1933845092170905
33	0xbfbddd8d720d53b1	-0.11666187319253997
34	0x3fb84d396931302b	0.09492834871451865
35	0x3fa6bf16d776712b	0.044426645089716686
36	0x3fc816a528ad3a07	0.18819107519307485
37	0xbfc046fc3c4eefe7	-0.12716629929297982
38	0x3fc98bdf872b9237	0.19958108997447407
39	0xbfbb1ec42cd1835a	-0.10593820661735034
40	0xbfa542ad12fe0761	-0.0415243230518303
41	0xbfc8680831bb95a2	-0.1906748049579337
42	0x3fc776a54929d97e	0.1833082778209238
43	0x3fc5c001ba8e9826	0.16992208108166656
44	0xbfc0eb2df9e6f831	-0.1321771116471964
45	0xbfa98a0f7a66aeed	-0.04988144272951254
46	0xbfbcd3203684e521	-0.1125965245345424
47	0x3fc7d832c95e76b5	0.18628535110922476
48	0xbfb503281b862620	-0.08207941696141363
49	0xbfc71bd8e70d3b8f	-0.1805373314077454
50	0xbfc39bfc81bbb21f	-0.1531978257620645
51	0xbfc7599d82a1db57	-0.18242234114196762
52	0x3fc35f3aec281041	0.15134369402960782
53	0x3fc20ea1e2a2561c	0.14107154432410673
54	0x3fc7f4b4d4695b00	0.18715534564645253
55	0x3fc6e43dbb0cf085	0.1788403666813602
56	0xbfc9202798e64c13	-0.19629378286171625
57	0x3fc850dad97161be	0.18996749512986172
58	0x3fc95ed69b881506	0.19820673555674534
59	0x3fbc3f8c08e468f3	0.11034465043158885
60	0xbfbbde8d0ced0256	-0.1088646084363146
61	0x3fc6a6baf704f0f4	0.17696320592393244
62	0xbfc0b43982ac058a	-0.13050001984087728
63	0x3fc6582447507ce8	0.1745648716177819
64	0xbfc82ed4c240e9a3	-0.18892917141949991
65	0x3fc7106a51a2941c	0.18018845544898532
66	0xbfa08cc10fc186a9	-0.032323868916831096
67	0x3fc634c6a6b3d31b	0.17348559512870385
68	0xbfc469e9eb8ce089	-0.15948223115424678
69	0xbfc43b699a78c8c4	-0.15806312601632133
70	0x3fc3c74e9fe34c58	0.1545198708250577
71	0x3fc1bf98ceb41097	0.13865957348764787
72	0xbfb7639b2970d517	-0.09136361848580453
73	0x3fa252abd74195a7	0.0357869816078094
74	0xbfab43dca01b3573	-0.05325211958334366
75	0x3f975d232019a155	0.022816227754817692
76	0x3fba24b9d093d21d	0.10212289182874952
77	0xbfa875d7b0c2399a	-0.04777406723688955
78	0x3fc52263d27c9e50	0.16511199739146543
79	0xbf9aae71a1d85bb8	-0.02605607557606124
80	0x3fc4b2ca53b0e65a	0.16170624815440499
81	0x3fc73b07a27834ed	0.1814889472301852
82	0x3fc62ac42d135e87	0.17318012429199234
83	0xbfc636eb9178d1c3	-0.17355103114245027
84	0xbfb555d198063c85	-0.08334073983700037
85	0xbfb897bed668f321	-0.09606545195215378
86	0xbfbea1ae42540345	-0.11965455169048507
87	0x3fc5dd40ce77add7	0.17081461030407638
88	0xbfbdc857e131167a	-0.11633824584813537
89	0xbfc4d03f724cbb5d	-0.16260521966020294
90	0x3fc85c041770bf83	0.1903081049399554
91	0x3fc74bee10c141f4	0.18200469797240226
92	0x3fc7f4b7dc9f9035	0.18715570709821497
93	0x3fc1f487d8df4267	0.14027498330553387
94	0x3fc834051214d90c	0.18908751852877292
95	0x3fc1d1e29b712b3f	0.1392176875109161
96	0x3fc852edf6ff036a	0.19003080902441677
97	0x3fc5e18c3df90a05	0.1709456732370002
98	0x3fc785b4ecacab31	0.1837679057728905
99	0x3fc587fe589be876	0.16821269346820927
100	0xbfc999999999999a	-0.2
101	0xbfc57d6da046163f	-0.16789026571147933
102	0x3fc5d4586c7fcbf8	0.17054276750386044
103	0xbfc938d8a9f1230f	-0.19704731271692608
104	0xbfb540b829c7558d	-0.08301878948198844
105	0xbfc6b313580dec7b	-0.1773399524643969
106	0xbfc287ffafb34181	-0.14477535323250026
107	0x3fc7d7fceee92205	0.18627893128929443
108	0x3fc6a0b24943a94e	0.17677906586988928
109	0x3fb16bed0a5da1fc	0.0680530691439642
110	0xbfc81d83216d70cb	-0.18840064174844992
111	0x3fc978ac2bbb3cfe	0.19899513373682248
112	0x3fc9351b644de781	0.19693319699927872
113	0xbfc909da574bff85	-0.19561318647901885
114	0xbfa151b5875122cc	-0.03382651593034822
115	0xbf7ed27f1cb35d10	-0.0075249638859624796
116	0x3f7e05b1a5bccc70	0.007329648909762829
117	0x3fc74c41d77c1bdb	0.18201468488425018
118	0xbfb98828c1175479	-0.09973387445582373
119	0xbfc2de79e1b23c5f	-0.14741443176578437
120	0x3fc81a03462a2534	0.18829384733207066
121	0xbfad45726b49fca7	-0.05717046317749324
122	0xbfc16af7f8ff68a8	-0.13607692392435422
123	0xbfb14db1814a07f6	-0.06759175688242167
124	0x3f9731d9ca2e0610	0.022651102986406768
125	0xbfb01d3a8ca8ea1f	-0.06294599470212646
126	0x3fc94bb9141f4fce	0.19762338144812336
127	0xbfc0200385a2bd68	-0.12597698235684196
128	0x3fa5fc2607b2a97a	0.042939365806279065
129	0x3f7024d2d161db62	0.003941367633266109
130	0x3fc7c9fd4de6156d	0.18585172942782027
131	0xbfc8fb94e17d0585	-0.19517766008543105
132	0xbfc655f6dc3ccab8	-0.17449842218191747
133	0xbfc8372182cd5124	-0.1891824616128669
134	0x3fc8ab472ba3c0dc	0.19272699004023408
135	0x3fc7fe0991e4cdd2	0.18744010566443464
136	0x3fb07a2b58e91c30	0.06436415596645939
137	0xbfc999999999999a	-0.2
138	0x3fc79c6da36f15a2	0.1844613121049124
139	0x3fc618d7df13eab2	0.1726331557509489
140	0xbfacc0c71b0eff7a	-0.05615827756218912
141	0xbfc8ce1ec9164070	-0.1937902910108309
142	0xbfbce3c4254b44e2	-0.11285043631075412
143	0xbfc897528dc86ec6	-0.19211799548144465
144	0xbfc8653ba292d974	-0.1905893844429546
145	0x3fc7f4c46ffd161e	0.18715720623201632
146	0xbf8dc95e7994f16c	-0.014544237218267773
147	0x3fbf3a127c0fc41b	0.1219798615345699
148	0x3fc04c4f78a28a61	0.1273288096463885
149	0x3fc4fa2fc8dc1c54	0.1638850909004953
150	0x3fc6f55bd6a4cbad	0.17936275463725107
151	0x3fbb42d8e52ab826	0.10648875803846689
152	0xbf9851ad224cbdd3	-0.02374907037591163
153	0xbfb72ba9f025659d	-0.09051000702802132
154	0xbfc4ace7d5cad506	-0.1615266603381899
155	0xbfc831962986c715	-0.18901326205882954
156	0xbf94005db05193bc	-0.01953264607108783
157	0xbfc584688d0e5bfc	-0.16810328376297423
158	0x3fc14284ebd846ce	0.13484250560627803
159	0x3fc8aa8e39044415	0.1927049425508193
160	0x3fc85c306c185deb	0.19031338956914054
161	0x3fc74b917a50a537	0.18199366066373
162	0x3fc7f5817d2cc240	0.18717974292805373
163	0x3fc20fba95d13684	0.1411050063638194
164	0x3fc8341bcdba3d0e	0.18909022851264762
165	0x3fc2069e05dc39bf	0.14082694326539344
166	0x3fc8530932bdcae7	0.19003405549627603
167	0x3fc5e710087fac9f	0.1711139718530363
168	0x3fc7857346d6c807	0.18376007994589846
169	0x3fc59eb6d3e005be	0.1689060720964743
170	0x3fc147d265084bec	0.13500432904456205
171	0xbfc8a4047ab9ab09	-0.19250541679806357
172	0xbfbee28e7fb09173	-0.12064447991776266
173	0x3fc999999999999a	0.2
174	0xbfb753759b871d25	-0.09111723944726131
175	0x3fc81a0be30e6327	0.18829487406471765
176	0xbfbe798dfe012041	-0.1190422768714834
177	0xbfc20d7fea9708ec	-0.14103697733486997
178	0xbfc959339b063eaf	-0.19803471631575095
179	0x3fc7f3e9d3151410	0.18713114554171328
180	0x3fc87ec049ef61c6	0.1913681374560509
181	0x3fc85145db6293bd	0.18998025142823663
182	0x3fc78214e4853ff7	0.1836572757551946
183	0x3fc01052b1b2c8ab	0.12549813915899696
184	0x3fc9469c4889bd7c	0.19746736089608052
185	0x3fc5efa327a0682e	0.17137565073864053
186	0x3fc88831231130cf	0.19165624820960267
187	0x3fc7ec2f0fae1745	0.1868952585756977
188	0x3fc97885a6852a38	0.19899054175250952
189	0x3fc65207ad03d5e7	0.1743783564376564
190	0x3fc8fcd148998d3c	0.1952153782359377
191	0x3fc8b1fec3520362	0.1929319814408031
192	0xbfc95731a98a5963	-0.1979734495004762
193	0x3fc66badf0656db3	0.17516111600967363
194	0x3fc98e6f86780cae	0.19965929094187146
195	0x3fc991c1d264bd85	0.1997606541931242
196	0x3fc9226eb4d82831	0.1963632948903196
197	0x3fc771fd968d2a86	0.1831662163843541
198	0xbf97147580bd29a4	-0.022538982374763386
199	0x3fc7b93d2a410aa6	0.18534054339587164
200	0xbfc97ba08d2568d1	-0.199085301321992
201	0x3fc999999999999a	0.2
202	0xbfc5e87b1572e661	-0.1711572508555035
203	0xbfc4e644e95358db	-0.16327725785112687
204	0x3fc98a9429cb8c3e	0.19954158821846762
205	0xbfb58934c8c65932	-0.08412485028961639
206	0xbfc2e882d8d1a763	-0.1477206762968378
207	0x3fc8e15480d0bca1	0.19437652864278213
208	0xbfc12714f83080b3	-0.13400518530489122
209	0x3fc70b92a75596a8	0.18004067583676897
210	0xbfc940a67dd00bdd	-0.19728547232816043
211	0xbfc4f6fc4b996764	-0.16378740016335336
212	0xbfc7b796ea93c9ab	-0.18529020742387323
213	0x3fc73f4779f1f3b9	0.18161862806655707
214	0xbfbc2b2174e3e831	-0.11003312209859996
215	0x3fc6eae384fc04ea	0.1790432357156882
216	0x3fc76019b376122c	0.18262025130037907
217	0xbfb2f0ba2cc17dcd	-0.07398570625945596
218	0x3fc68cb5c1f0630b	0.17616912812879834
219	0xbfc4a476b452485d	-0.16126903347737
220	0x3fc79e0ba83debba	0.18451066698966462
221	0x3fc8b4cf5e6d28a9	0.19301788435615677
222	0x3fc299eab1e24079	0.14532216726047745
223	0x3fc7e3892fb7f412	0.18663134412773325
224	0x3fc999999999999a	0.2
225	0x3fc81f77dda4ce0f	0.18846033403825443
226	0x3fc91d6e6f5d617f	0.19621067464573724
227	0x3fc83362aa75df01	0.18906815837157612
228	0x3fc7ad9d187aef95	0.1849857682735744
229	0x3fc8b7f2bf7543cc	0.19311365459955565
230	0x3fc7f1fcbc954fc5	0.18707236488501003
231	0xbfb3213fd2ba3633	-0.07472609419547709
232	0x3fc775e8c642432c	0.18328580551726625
233	0x3fc7bfc3588eab7d	0.18553964447104568
234	0x3fc999999999999a	0.2
235	0x3fc7b42c09a0b579	0.18518591375451957
236	0x3fc8f272346acf23	0.1948988681739304
237	0x3fc7c6447836b1cb	0.18573814267928265
238	0x3fc3f84fafadfbcc	0.15601535871607408
239	0x3fc9256e5e9aa27b	0.19645480746591545
240	0x3fb58ffdd1627549	0.08422838556221736
241	0x3fc6455a926449fd	0.17399150989565718
242	0x3fabba6959881b8e	0.05415658204952144
243	0x3f973162d7b476c9	0.022649330535492482
244	0x3fbd60a97be2bda9	0.11475619577935582
245	0x3fa7d812f0d2fa76	0.04657038869617207
246	0x3f93773b60d2b7bf	0.01900952127896693
247	0xbfbb177210f14756	-0.10582650102267385
248	0xbfb134664fe44773	-0.06720580530625657
249	0x3f9a47dab755ca9b	0.025664727630508293
250	0xbf9c9352c79c8b65	-0.027905744012183393
251	0xbfa4a17c86a9b3e0	-0.040294543684332274
252	0xbfc2731b2e9f25e9	-0.14413776184510077
253	0x3fc7b16e2c064a77	0.18510224485051527
254	0x3faa9b85cce5c053	0.051967793714425746
255	0xbfc76352f24bf9fe	-0.1827186282243502
