experiment_pretrained/yin_yang_H30_W/epoch_300/yin_yang_network.pt (torch, 7832 bytes, 4 tensors)

weights f8 [4, 30]
0.7230514219298788 0.4230446480849194 2.5181791607125223 -3.3159858877635306 2.724832756605097 -0.11205302415943783 1.6284882685704647 1.725455481674264
-1.5725426848671804 1.1979130884914109 -1.0670672040746438 -0.3649286974041601 4.946617702926051 1.2479662361439157 0.06682519809052306 2.35733175519349
0.9272712613642968 2.170245179454763 -0.22782006268159183 1.9377414140766147 2.0512659043050463 0.4505214484871638 1.7191409239430087 2.7809189425483867
-2.813001439457401 1.8089304162876543 -1.4793973450775075 1.804350643489779 4.406095684067427 0.4960443952716413 -1.525448725347604 1.341214809030576
-0.9048532419892368 1.985518605680331 0.05644455574482259 0.3967611235140966 1.0805122029001266 -1.5698464369707212 -0.6115786101418231 1.6356399448193677
1.9175571638467548 1.0913399148681304 -0.8689682714643523 -0.4508979793757841 1.0370451512329826 1.5274745331625263 1.1018497983096773 -1.3631347270094865
-0.4668659641607809 -1.3495162275896544 0.8947271073615001 -0.4396236319643066 -0.1767577781749012 -0.90191268232028 1.5020494857866444 1.207699810804604
1.6282536367483602 -0.636946176343443 2.0512988581032183 1.7865130427566258 1.194950163506685 1.441553401203973 -0.34621128248712935 1.8118020550676914
0.10574137910801401 1.5959456090991255 0.14256495445007186 0.4328297552781104 2.411652555328116 1.1443291662602844 1.941695599545601 1.5473891306325136
-0.9542586390830232 0.4191564750773276 1.3535244283653314 -0.8797687035689391 -0.47857815394924325 0.26155637349203786 -0.09368604189125498 1.4392233475219465
1.415931550145928 2.123555803341428 1.4862566706463742 1.7226183864509763 0.8819366245920489 0.6905717260816864 -0.17800410857162308 1.987103050524639
-1.010003453510896 0.3806640286826826 1.8755306586349074 -1.0089273962738696 -0.2956621847148557 0.5704736421851441 0.23875857382445817 0.2792873092973011
0.582776767399843 1.0151007207305065 -0.48242736181453555 -0.7950592543767843 0.08056873214091036 0.503763418245771 -0.029420145414772336 2.849312070484102
-0.29492018013494115 -0.8778729031772661 4.41782036734589 0.2935672321971193 1.5805758740935911 0.19573337057722057 -0.36014950767108844 -0.3567546584350233
-0.4568776964441096 0.1997217142976179 1.4936000950399568 0.839089495767881 1.2345619391774243 -0.9213132197931272 2.280799475244888 2.0434347469085536
00000000: eb7b 50bc 3c23 e73f 9671 11dc 2913 db3f
00000010: 04d5 a51d 3b25 0440 fe88 ef9b 2387 0ac0
00000020: e281 c51d 75cc 0540 56c4 2eca 81af bcbf
00000030: 81e0 f6b6 490e fa3f 13eb 0735 779b fb3f
00000040: e118 b184 2229 f9bf de55 28ea a62a f33f
00000050: f327 820f b512 f1bf 8041 2ee5 fd5a d7bf
00000060: 3487 af26 56c9 1340 5b01 ac71 abf7 f33f
00000070: f4f6 58c8 741b b13f cb06 53c0 d0db 0240
00000080: 0292 c2c7 34ac ed3f 977a 3081 a95c 0140
00000090: a088 4b33 3529 cdbf 8c05 1924 fd00 ff3f
000000a0: cd1e 3319 fe68 0040 dc87 d9e9 57d5 dc3f
000000b0: a0ce d8e9 9981 fb3f ea93 386e 523f 0640
000000c0: 4e90 10e6 0681 06c0 4c1f 2b05 61f1 fc3f
000000d0: 9c5a ee8c 9cab f7bf ebe1 c4c7 9ede fc3f
000000e0: 2477 088c d79f 1140 2b92 c3fd 30bf df3f
000000f0: 4b7c 31ec 3c68 f8bf c527 dba8 9d75 f53f
00000100: 40bf 40c9 8ef4 ecbf d5f1 4f28 afc4 ff3f
00000110: 872a ec01 4de6 ac3f 034e 74c4 8864 d93f
00000120: cc28 e629 c749 f13f 8180 284c 171e f9bf
00000130: a1c0 2f4e 0d92 e3bf a37c 70ca 942b fa3f
00000140: ceea ae6b 50ae fe3f 45d9 b2d7 2076 f13f
00000150: f26e 668c 96ce ebbf 2b18 d032 83db dcbf
00000160: 2856 10a8 bc97 f03f a47e d622 8970 f83f
00000170: 1782 0d41 2da1 f13f 1ac3 085c 66cf f5bf
00000180: 71e8 ebc7 21e1 ddbf a5b3 ee53 9e97 f5bf
00000190: 5bcb 1ebe 9aa1 ec3f cd77 7528 cb22 dcbf
000001a0: cf93 49b6 ff9f c6bf 4339 4dfc 77dc ecbf
000001b0: 09d6 a60a 6508 f83f 99a8 6c09 bd52 f33f
000001c0: 1ad6 76af 530d fa3f 80a2 96f2 dc61 e4bf
000001d0: f500 2f60 0f69 0040 4746 48b3 8e95 fc3f
000001e0: ecc6 0910 841e f33f f4bc 994c 9a10 f73f
000001f0: c575 f25d 5328 d6bf 1276 d526 24fd fc3f
00000200: e454 1af5 dd11 bb3f a168 5443 fe88 f93f
00000210: db9a 7584 913f c23f 44ee e992 7bb3 db3f
00000220: bc97 b37e 104b 0340 5f26 8f19 2c4f f23f
00000230: 145e ad67 2f11 ff3f 500a e41a 1bc2 f83f
00000240: 882f d969 4989 eebf dd47 17ae 75d3 da3f
00000250: baa8 223b 09a8 f53f e5ee 3bb2 1027 ecbf
00000260: ffb0 f243 06a1 debf c05a 8df1 56bd d03f
00000270: 8abe 03f6 cefb b7bf 44f1 930f 0f07 f73f
00000280: 8205 54d7 a7a7 f63f d7a8 34d3 0afd 0040
00000290: 5535 1e13 b5c7 f73f 46b9 144c d88f fb3f
000002a0: 318f f827 d338 ec3f 0605 62e0 2919 e63f
000002b0: 5833 6fb0 d6c8 c6bf 0490 7c91 2ccb ff3f
000002c0: 59d2 9a61 f928 f0bf a52a 7da8 cc5c d83f
000002d0: 5eb7 976f 2c02 fe3f 248e b00d 9124 f0bf
000002e0: ece8 8015 21ec d2bf 5149 8df0 5141 e23f
000002f0: 679a 1b15 a48f ce3f e7a9 e7e0 d7df d13f
00000300: c63a 9b76 1ba6 e23f d7ef da40 da3d f03f
00000310: 6718 6c03 17e0 debf 1cc6 fd1a 2071 e9bf
00000320: d319 a005 27a0 b43f 1b2d c975 d41e e03f
00000330: a09c 9989 5020 9ebf 3d9e 7620 64cb 0640
00000340: 420a 27e4 f8df d2bf 1e1c 26ea 8817 ecbf
00000350: c869 351a d9ab 1140 f9af 5d37 cec9 d23f
00000360: e541 81ed 094a f93f aeb8 ae84 ca0d c93f
00000370: 768a 4785 b00c d7bf 0e24 ab7d 11d5 d6bf
00000380: faf3 1ff3 7b3d ddbf 25cb 9a2b 7b90 c93f
00000390: 57fc 9736 c9e5 f73f 8daf d736 d2d9 ea3f
000003a0: 3d74 1a05 c4c0 f33f 3f49 8cdc 657b edbf
000003b0: 3a49 97cb 133f 0240 b3db 0b51 f458 0040

threshold_noise_fp f8 [30]
0.0 0.0 0.0 0.0 0.0 0.0 0.0 0.0
0.0 0.0 0.0 0.0 0.0 0.0 0.0 0.0
0.0 0.0 0.0 0.0 0.0 0.0 0.0 0.0
0.0 0.0 0.0 0.0 0.0 0.0
00000000: 0000 0000 0000 0000 0000 0000 0000 0000
00000010: 0000 0000 0000 0000 0000 0000 0000 0000
00000020: 0000 0000 0000 0000 0000 0000 0000 0000
00000030: 0000 0000 0000 0000 0000 0000 0000 0000
00000040: 0000 0000 0000 0000 0000 0000 0000 0000
00000050: 0000 0000 0000 0000 0000 0000 0000 0000
00000060: 0000 0000 0000 0000 0000 0000 0000 0000
00000070: 0000 0000 0000 0000 0000 0000 0000 0000
00000080: 0000 0000 0000 0000 0000 0000 0000 0000
00000090: 0000 0000 0000 0000 0000 0000 0000 0000
000000a0: 0000 0000 0000 0000 0000 0000 0000 0000
000000b0: 0000 0000 0000 0000 0000 0000 0000 0000
000000c0: 0000 0000 0000 0000 0000 0000 0000 0000
000000d0: 0000 0000 0000 0000 0000 0000 0000 0000
000000e0: 0000 0000 0000 0000 0000 0000 0000 0000

weights f8 [30, 3]
1.9585600548561826 0.32744093905075916 -1.1128709307770581 2.5444182418622776 -1.2718088538074412 -0.9217969349272394 0.6476999149353011 0.5828592822336113
0.08470009306554055 0.7380122719094234 2.322912462807495 2.222984474538516 1.9425473275701068 0.24878668545737345 2.076787930234517 2.346509149522772
8.534992689294475 5.182805647703551 1.5373536742161402 -0.41262621619527157 0.8596821159797352 2.479434742895605 6.08066495313541 2.462842742595411
2.1951635459164858 2.229716763202729 -0.7197332861488863 0.8921913272818576 2.5992954379319415 -2.146116787999735 1.8044191824545857 -2.2594396825341603
0.07218065570586157 1.9245986930731493 -1.7813175590761858 0.41729976274052627 -0.5516294436581264 0.7238018888583115 0.8634651394613937 2.693788480314123
-1.521436303645429 -1.2025711448660783 2.0396617688290815 8.195079110920085 7.65576237736132 0.723439051017596 -1.2925679374893428 1.0252524969524863
-2.673113739891865 2.480670265351615 0.445581574534647 2.1489650189536307 6.107682022009848 1.8046878102045003 0.14321519081615625 1.598692731464602
-0.06489874923911848 -0.6580555451502584 1.1203914908816928 1.9267645326670748 0.6062405726874639 1.5738088852567385 -1.569856706026249 1.033713608266167
1.212384047745635 -0.928598289643244 -2.118735465156367 -0.07629357110342609 2.641078581828816 0.5823068816935006 1.3418921486090045 0.0297253085868821
-0.4637442378537882 0.8984829203081599 0.6226789614108034 -0.9198128101388929 -1.0382430641605354 1.7050001165899837 -4.309556086998967 1.5699911906898008
0.38424555468273175 1.306506306128752 3.759841608710389 0.30045809875670554 -0.7196018733761963 0.3937028125447487 -2.019180132462029 0.5970480340542565
-0.4157734274947513 2.7632345477246503
00000000: 92bf 6d11 4356 ff3f f10c 26d7 caf4 d43f
00000010: 68b4 c5bf 51ce f1bf 8727 81f3 f75a 0440
00000020: fadb 9d3d 5459 f4bf d918 2249 5c7f edbf
00000030: 789c 082c f5b9 e43f eda0 6b82 c8a6 e23f
00000040: 6c45 afc1 e7ae b53f 69b9 7ce9 cb9d e73f
00000050: 02d5 1921 5395 0240 f544 8d15 acc8 0140
00000060: 6e88 ad81 ac14 ff3f bf1d dcfa 3dd8 cf3f
00000070: a1ad 88fd 429d 0040 7cb8 c796 a6c5 0240
00000080: db3c d08f ea11 2140 b6a4 5967 31bb 1440
00000090: d84c 922a 0099 f83f 8bfa 01ca 7768 dabf
000000a0: 6ed9 a211 8482 eb3f 1e6c eae1 e1d5 0340
000000b0: 8f99 5ed5 9952 1840 1c1b 55e5 e6b3 0340
000000c0: 5fa9 b8e7 b18f 0140 bb63 0abe 75d6 0140
000000d0: 3644 bb19 0e08 e7bf c469 8ed3 d48c ec3f
000000e0: 3d7a 1468 5bcb 0440 ead7 4e47 3f2b 01c0
000000f0: 17ae 0ea6 e6de fc3f 9626 be1c 5513 02c0
00000100: 4417 a973 6e7a b23f bbc6 caff 27cb fe3f
00000110: 405d 40d7 4680 fcbf fa57 6610 0ab5 da3f
00000120: e8b6 80ca f2a6 e1bf 42be 2d94 6229 e73f
00000130: e420 e7a4 81a1 eb3f 5a53 8af9 e08c 0540
00000140: fbaa f197 cd57 f8bf 6502 a53d bb3d f3bf
00000150: e92d 8030 3a51 0040 ad11 c368 e163 2040
00000160: 38db 322c 809f 1e40 9da2 18a7 6926 e73f
00000170: 97ff b5b7 5bae f4bf 30da 8829 6f67 f03f
00000180: 2a97 da74 8962 05c0 35c2 eea6 69d8 0340
00000190: 4ce5 9494 6884 dc3f 1d3b 6592 1431 0140
000001a0: 0999 2b32 446e 1840 4817 4553 00e0 fc3f
000001b0: de42 6c18 e054 c23f dee4 5fd4 3e94 f93f
000001c0: 9487 8855 349d b0bf e1e5 ab80 ca0e e5bf
000001d0: 5adb c0a0 1fed f13f 6e5d ee0b 07d4 fe3f
000001e0: 556e 26a1 5266 e33f 7f4f c539 522e f93f
000001f0: d99f bc10 221e f9bf f9ee ce47 178a f03f
00000200: 5727 b4d0 ec65 f33f e374 a4c2 13b7 edbf
00000210: 8ac6 5d94 2bf3 00c0 a3c5 c8b8 f987 b3bf
00000220: 73f7 b8ce ed20 0540 9a7f a30a 42a2 e23f
00000230: bb8e d0e6 6378 f53f cf06 fab0 4f70 9e3f
00000240: fd96 d24f fcad ddbf b09e d740 5fc0 ec3f
00000250: 2b55 e56d fcec e33f fea0 3f46 1b6f edbf
00000260: ade4 5dc2 a49c f0bf f7e1 c633 ae47 fb3f
00000270: d0c0 5745 fc3c 11c0 2c55 3015 af1e f93f
00000280: c1b9 bfaa 7a97 d83f bb73 0d28 73e7 f43f
00000290: c168 5cd6 2714 0e40 eb9d fe9a b43a d33f
000002a0: a950 0982 fa06 e7bf 3a44 0e48 6d32 d93f
000002b0: 4742 cde9 4727 00c0 9aee 8c7a 041b e33f
000002c0: b0b0 6826 089c dabf e03c edb6 1a1b 0640

threshold_noise_fp f8 [3]
0.0 0.0 0.0
00000000: 0000 0000 0000 0000 0000 0000 0000 0000
00000010: 0000 0000 0000 0000
