experiment_pretrained/yin_yang_hxpynn_W/epoch_300/yin_yang_network.pt (torch, 19608 bytes, 4 tensors)

weights f8 [20, 30]
0.7860017189919409 -0.45665886765289077 2.0985976816591925 -1.1817357779325477 -0.10974907317603813 -0.33456049687758566 0.7031245765536205 1.203065057374505
0.20581130897819078 0.5337261679401684 1.0965157165029313 0.5059518508641596 1.0533548374356305 1.01989264126157 0.6553524371001179 1.5535903150707704
0.5184466755535371 1.0959872012848664 1.1240806436909438 0.745174860808743 1.390707304289095 -0.18079821940505814 1.4302459639104204 1.263850175565667
-0.055081022424783126 0.660283015019483 0.7916624554229077 1.4475207270657533 2.0783600582822235 1.2327233946905216 0.45009251751184964 0.6182272519151426
-1.738990798757717 2.0944813966779345 0.7852486434255835 1.3622448384112016 0.7712510378596459 0.25177304143643836 0.4782541548908393 0.392681640268555
0.27175913758945996 0.905060329652615 1.0094518634402063 0.5201672819237851 0.03101403741146508 -0.12798336873873717 0.34906199301269897 0.5201009342162817
-0.002258493797716221 0.019057736862281644 -0.3276997256461657 0.540862941854678 0.10048883271300312 -0.007312106713936466 0.21039086176239544 0.4786145546957679
0.06228031690321248 0.09083812044177693 -0.2922499801673657 0.5150901924351393 0.35044952622248354 1.0565480294114444 2.087369952701792 -0.8746697789772242
0.8776634607457712 -0.2353123261735615 0.9201303115134633 0.949981516106798 0.9003298971011703 0.7590693146745828 1.1980326650982152 1.1170488144249904
-0.9242029137254859 0.7981566826757904 0.9356206562940153 1.1109832187352477 0.6712833074869413 0.7757341395257126 0.5027932100088139 0.5401314139918841
1.6128554379440212 0.9009855272765027 1.0164322606918648 1.518879138271423 0.32171982661679527 0.14498647617267896 0.7165140516347647 0.8609794266657396
-0.285424913256236 1.0272633995704843 -0.10388264252853352 0.09620323898306357 -0.790899042611017 1.1843626524091975 0.0878626544323188 0.7213735382639378
-0.8316679516669453 -0.2627154280680162 0.8267374340248395 0.7027991816094555 -0.23428593877825438 -0.27972657915238575 0.7118912452807238 0.08787456622448424
0.394646676482133 -0.32703989119816107 0.791938677822101 -0.20701643845486847 -0.08133083835462365 0.31445266615488254 -0.21656455685871273 0.5045139366662086
-0.8660858327117772 0.2887246209591158 1.2266148052714527 0.24528430794317724 0.6721024559591549 -0.20099357135038495 0.025114822819715908 -0.03662711905857107
0.8292958561595137 -0.7213046715935607 2.0985976816591925 -0.9654964652475122 -0.4102318576053053 -0.2686110530195811 0.584857336707245 1.1141201051069847
0.22971632162090128 0.3494751343824698 1.2847912065045128 0.5474065812803526 0.8738646106885875 0.5839379956438541 0.8251245596142588 1.551083500153027
0.5623276804260675 0.9261367777386491 1.3631565207246272 0.7543480443703574 1.290566928078997 -0.19433826210421806 1.4198720358736963 1.037943603197213
0.09161320581769342 0.5181904176201032 0.7365794750940655 1.4738594184010687 2.051208508363243 1.1959877027547854 0.6413656216303137 0.8840470143438686
-1.6586038468480924 2.0528193728998603 0.6697434235867752 1.3077089893831513 0.4990939291501276 0.4911777844455577 0.32778516241248906 0.28539984087239983
0.17749613246590923 0.8450722757651232 1.2196649146585778 0.571574407793638 0.07506286977455223 -0.4222708267947702 0.4783654149920911 0.5936227426845462
0.027305099262231528 0.08706343981543199 -0.16984388306951478 0.5312054302594639 0.14274951724728016 0.13061299839666765 0.2176455333858117 0.4947275204912616
-0.08518884331819253 0.05093309484236271 -0.4747262042023906 0.19222382946494973 0.4202841533782711 1.095782339876767 2.087369952701792 -0.8650049942897694
1.1292631669492292 -0.3461172387124029 0.9403272274480471 0.959867325877488 0.9060282344574695 0.7640793602229778 1.1427842269164 1.1500525689475931
-1.1231218868758033 1.0547700678345702 0.6380645006149809 1.1830143397491402 0.8610232167224435 0.7486142745213543 0.5169964195474361 0.6083128434311912
1.574958979509721 0.8123611556926078 1.0502022613943278 1.26117497834236 0.23731924502426177 0.008203088959800892 0.5042231355568952 0.5745522398406819
-0.3350626856328942 1.239191457359562 -0.35752644821067237 0.21663915017598726 -0.8093865860316788 1.4398288334702816 0.0966460461215304 0.8025112194814663
-0.5210060370770472 -0.22124156576226084 0.8702833855613387 0.8035251819958003 -0.18278538293679647 -0.49445451335356927 0.8410070012466393 -0.05456573800830514
0.737359574673541 -0.3543949256615572 0.6765698464817286 -0.13657708548727568 -0.037759418464703966 0.38046343595931775 -0.022396023644658546 0.4131002742611367
-0.982921362747189 0.18471671890822056 1.0141572590057897 0.33508692665485984 0.6760938120629376 -0.046574877942048364 0.08433835074337005 -0.16757071769583154
0.8697370880907871 -0.25715134204218243 2.0985976816591925 -0.9401820886975932 -0.31632717403250277 -0.0714560336743498 0.6328583173084118 1.0107673715606338
0.4796733674479866 0.4881800833180829 1.1687335959508431 0.16214076254311524 0.7776070347110254 0.9422355487277496 0.5038775041802115 1.5007597689454004
00000000: 0572 b513 ed26 e93f fed7 7f1d e639 ddbf
00000010: 4f80 d194 edc9 0040 0dbc 6bc6 63e8 f2bf
00000020: 6ab1 0ee8 8318 bcbf fbda 276e 7069 d5bf
00000030: 06f9 a91c ff7f e63f 4d24 4625 c13f f33f
00000040: f0a8 9a64 0658 ca3f 5251 8ae6 4814 e13f
00000050: aee1 5e10 548b f13f d4fd 99ef c130 e03f
00000060: 2fe9 1d9a 8ada f03f 5e64 3af2 7a51 f03f
00000070: 6b5d 96ac a5f8 e43f ddc7 a984 81db f83f
00000080: 9c1d 877b 1d97 e03f 2da6 25e0 2989 f13f
00000090: fa81 2bfc 3bfc f13f 6832 1ff3 78d8 e73f
000000a0: 03ae 634d 5640 f63f 6887 c263 6524 c7bf
000000b0: 35b3 8397 49e2 f63f 0a93 31f6 ba38 f43f
000000c0: e7ad e36b 9433 acbf 579d 73d8 0921 e53f
000000d0: f665 7080 4c55 e93f 0c79 707e 0b29 f73f
000000e0: 1414 fd3c 7ba0 0040 b65b 932a 3cb9 f33f
000000f0: 1ad0 b8d8 50ce dc3f 7416 8f84 84c8 e33f
00000100: 5759 0b04 e8d2 fbbf 3f7f 6676 7fc1 0040
00000110: 4bb8 57c3 c120 e93f 45ef 613e c1cb f53f
00000120: a39f 13a8 16ae e83f 21f9 beac 0c1d d03f
00000130: 5daa 9b50 b79b de3f 6e5b ac2c b221 d93f
00000140: 4d7f 1570 8064 d13f 8e7a 9814 41f6 ec3f
00000150: 86ca 45ff b626 f03f d5fa 09db 35a5 e03f
00000160: 30be 98d1 24c2 9f3f ac17 954f c261 c0bf
00000170: 2708 111d 0857 d63f ca7e e2b6 aaa4 e03f
00000180: b32a fb9f 6780 62bf 25b2 3c12 df83 933f
00000190: b6bd 2345 08f9 d4bf 4c4b dccc bf4e e13f
000001a0: 8f95 1dda a2b9 b93f 9231 38b3 4cf3 7dbf
000001b0: 8dc8 5277 16ee ca3f 11b5 f3f0 9ea1 de3f
000001c0: 0450 91a8 34e3 af3f ed0c 87c4 2a41 b73f
000001d0: bcd4 c442 39b4 d2bf 05fa 5f6d 9e7b e03f
000001e0: 7f8d 81d9 c36d d63f 3d9b 0fe8 9ee7 f03f
000001f0: e00e 8c04 efb2 0040 1a37 f079 4bfd ebbf
00000200: 3683 99ae d115 ec3f c16c a1dc b61e cebf
00000210: 9746 801f b571 ed3f 5576 efa2 3f66 ee3f
00000220: 6723 f5a4 80cf ec3f 3a95 3dbb 4b4a e83f
00000230: 542f c24c 242b f33f c1da df93 6edf f13f
00000240: 3234 2afd 1193 edbf d2a4 25e2 7f8a e93f
00000250: d4d5 07bb 9af0 ed3f 98f6 ed56 96c6 f13f
00000260: 5e3a 8021 277b e53f 97ea f466 d0d2 e83f
00000270: 5c70 34c9 e116 e03f 6965 d4ac c148 e13f
00000280: 4453 f280 41ce f93f f74c ba99 dfd4 ec3f
00000290: a155 6479 4e43 f03f 213d 1736 544d f83f
000002a0: afcf 72c1 0e97 d43f 7210 c3b6 ea8e c23f
000002b0: 25aa 5ce0 aeed e63f a0dc 01ba 248d eb3f
000002c0: 028c f9da 6644 d2bf 3687 18bf ab6f f03f
000002d0: 6038 4888 0d98 babf 7e97 3385 c6a0 b83f
000002e0: 0477 4e82 0b4f e9bf 9a38 ab40 26f3 f23f
000002f0: 5a99 53bb 2a7e b63f ad63 61f5 7d15 e73f
00000300: 8d4e b11b 069d eabf b83b ed5e 54d0 d0bf
00000310: 2680 3010 a274 ea3f b361 95b5 547d e63f
00000320: aa8d 7be6 14fd cdbf 5003 524f 0ae7 d1bf
00000330: f442 1926 d0c7 e63f b397 1594 f27e b63f
00000340: 8bd0 3d22 e441 d93f 77be 4bb9 38ee d4bf
00000350: 73de 35c8 8f57 e93f 87f3 72c0 837f cabf
00000360: d2ad e30a 19d2 b4bf 509d 5113 fe1f d43f
00000370: da27 972c 63b8 cbbf 4e71 4b69 fa24 e03f
00000380: 13d5 e0a2 f9b6 ebbf 0671 24d5 767a d23f
00000390: 80e2 96d8 36a0 f33f 9841 6be8 7965 cf3f
000003a0: bafc 7c02 dd81 e53f 97fc d347 28ba c9bf
000003b0: 263f 9f3a b3b7 993f 6fab 012d cac0 a2bf
000003c0: d53a 9d76 9789 ea3f 9c48 de88 ed14 e7bf
000003d0: 4f80 d194 edc9 0040 8688 d4d7 58e5 eebf
000003e0: 9d4b 0c1f 3d41 dabf d80b 046a ec30 d1bf
000003f0: 0377 bfbb 26b7 e23f 6202 749a 6fd3 f13f
00000400: 600e 5c2c 5867 cd3f c406 3cf4 cc5d d63f
00000410: 1601 6239 818e f43f 62db 86ce 5a84 e13f
00000420: 9441 81ea b2f6 eb3f 1fd4 45bc 9eaf e23f
00000430: b96d d59e 6b67 ea3f 015c a8ee 3cd1 f83f
00000440: 9218 a29e 96fe e13f 8854 8098 e9a2 ed3f
00000450: 7576 3d36 7dcf f53f 68e9 8b82 9e23 e83f
00000460: 2960 d681 29a6 f43f 12af 0c80 13e0 c8bf
00000470: c651 69bd cbb7 f63f de30 6dc0 6a9b f03f
00000480: ca63 de8a f673 b73f f5ec 1812 0495 e03f
00000490: 2ae2 8d1e 0f92 e73f 5df2 0e9d ed94 f73f
000004a0: 9a93 a501 e068 0040 e3ff 5b00 c422 f33f
000004b0: ffc9 3532 1186 e43f ac77 d7f6 1c4a ec3f
000004c0: b4b7 f32f a489 fabf dd99 3990 2c6c 0040
000004d0: 5285 a0c2 896e e53f a05f e142 60ec f43f
000004e0: 7e3e d5a9 27f1 df3f 3ec9 2df2 746f df3f
000004f0: 7d3e 2b9e 6efa d43f eb27 b5b1 fd43 d23f
00000500: a8c4 0d7a 31b8 c63f 245c 6503 d50a eb3f
00000510: 7798 885b bf83 f33f 2889 9669 564a e23f
00000520: 185b d3fa 5137 b33f d9db c837 7c06 dbbf
00000530: 896c 3bf9 899d de3f 0cbe 3f1f f5fe e23f
00000540: 149b 6131 def5 9b3f 523e af22 ca49 b63f
00000550: 87c7 9ac1 71bd c5bf 1381 cd87 a2ff e03f
00000560: c965 0cbe 9d45 c23f 7de9 453e edb7 c03f
00000570: d39a 0110 cfdb cb3f 9d3b 3c9e 9da9 df3f
00000580: f723 09a0 efce b5bf 5b97 4311 e713 aa3f
00000590: 819f 6604 ea61 debf eb2b 885a ca9a c83f
000005a0: a859 7281 efe5 da3f 92e1 1410 5388 f13f
000005b0: e00e 8c04 efb2 0040 3f3d 2bf4 1eae ebbf
000005c0: 3ffd 2941 7611 f23f 8b80 36eb c826 d6bf
000005d0: d9af 2d20 2917 ee3f b391 a4ae 3bb7 ee3f
000005e0: 20eb 87ec 2efe ec3f f499 f68e 5673 e83f
000005f0: 6bd9 0f1d d848 f23f 9ef8 c485 9d66 f23f
00000600: acda d8a7 4ef8 f1bf 0b63 2294 56e0 f03f
00000610: 4328 5c3e 066b e43f d5be be71 a0ed f23f
00000620: 7d6d 9d8f 808d eb3f 5b6a 4cec a5f4 e73f
00000630: e45e 4313 3c8b e03f 6fc2 087f 4c77 e33f
00000640: 9492 d82f 0833 f93f 4cb2 87d2 dcfe e93f
00000650: 6bfb ede2 a0cd f03f 1e39 68d0 c52d f43f
00000660: 4699 0b1e 7a60 ce3f 2adb 77f6 c7cc 803f
00000670: 614f a38e 9822 e03f 66b2 fe60 bb62 e23f
00000680: 30ce 39c3 aa71 d5bf 6978 ed6b bad3 f33f
00000690: a445 a19c b6e1 d6bf 2901 85e8 d4ba cb3f
000006a0: 0578 9ab2 7ee6 e9bf a87b 79f5 8909 f73f
000006b0: c132 6197 cbbd b83f 3c12 4b02 2cae e93f
000006c0: a176 48da 14ac e0bf b87c bbc4 a451 ccbf
000006d0: 959e e78a 5cd9 eb3f b0e6 4571 7ab6 e93f
000006e0: 903f f3ec 8265 c7bf aaa4 0d8b 24a5 dfbf
000006f0: 8ef6 c183 87e9 ea3f e49e 7458 0af0 abbf
00000700: c5b0 531b 7398 e73f 5f6c e50d 68ae d6bf
00000710: 1529 83ce 75a6 e53f 1982 c6a1 5b7b c1bf
00000720: ed00 d8d6 3355 a3bf 4838 b14f 8359 d83f
00000730: 43fe 74b4 fbee 96bf c4e4 fa21 3c70 da3f
00000740: e93e 7180 1774 efbf 161c 5e25 cca4 c73f
00000750: d6e4 46f6 fc39 f03f 7e2f d36f 1072 d53f
00000760: 40d3 7a7d 8fa2 e53f 6b0f 2793 a9d8 a7bf
00000770: 39c9 3dba 3297 b53f 0cab 2210 f572 c5bf
00000780: 82fb aedf e2d4 eb3f 4f65 0ce7 2a75 d0bf
00000790: 4f80 d194 edc9 0040 5fb7 67bf f815 eebf
000007a0: 9690 d354 b43e d4bf 76b3 bb4f f14a b2bf
000007b0: 45eb fa15 6040 e43f 0678 4b68 1a2c f03f
000007c0: fee1 7cec f7b2 de3f df38 1aad 573e df3f
000007d0: 8d86 c5ff 21b3 f23f af4f 3c4c 07c1 c43f
000007e0: 0526 e725 28e2 e83f f041 5d2a cb26 ee3f
000007f0: 909c 34b7 c31f e03f 415e ecac 1c03 f83f

threshold_noise_fp f8 [30]
0.0 0.0 0.0 0.0 0.0 0.0 0.0 0.0
0.0 0.0 0.0 0.0 0.0 0.0 0.0 0.0
0.0 0.0 0.0 0.0 0.0 0.0 0.0 0.0
0.0 0.0 0.0 0.0 0.0 0.0
00000000: 0000 0000 0000 0000 0000 0000 0000 0000
00000010: 0000 0000 0000 0000 0000 0000 0000 0000
00000020: 0000 0000 0000 0000 0000 0000 0000 0000
00000030: 0000 0000 0000 0000 0000 0000 0000 0000
00000040: 0000 0000 0000 0000 0000 0000 0000 0000
00000050: 0000 0000 0000 0000 0000 0000 0000 0000
00000060: 0000 0000 0000 0000 0000 0000 0000 0000
00000070: 0000 0000 0000 0000 0000 0000 0000 0000
00000080: 0000 0000 0000 0000 0000 0000 0000 0000
00000090: 0000 0000 0000 0000 0000 0000 0000 0000
000000a0: 0000 0000 0000 0000 0000 0000 0000 0000
000000b0: 0000 0000 0000 0000 0000 0000 0000 0000
000000c0: 0000 0000 0000 0000 0000 0000 0000 0000
000000d0: 0000 0000 0000 0000 0000 0000 0000 0000
000000e0: 0000 0000 0000 0000 0000 0000 0000 0000

weights f8 [30, 3]
0.5584660015178456 -0.24613833410376992 0.10696669232875791 0.1577399005767048 -0.5755222797533134 -0.2657261988374704 -0.6129339445613537 -0.9341355064044482
2.099469614421069 -0.3745978577668961 -0.9745607262116646 0.41888397140527533 -0.9154081578074102 -0.9857392087375628 0.4577653234378863 -1.443237686094641
-1.1561608483398864 0.761457445776491 1.5507804469864013 0.02504855703460243 0.06644143599392921 1.1966309420163141 0.7024728052434408 -0.10352067528990871
0.05793254134748531 1.2227861449144697 0.5321676633983314 0.2954966910147971 1.0492633583593254 0.576694639005023 0.6152536673244247 0.5474810024596438
-0.04293275331319993 0.5358696707404027 -1.4979966311305428 1.7305335340544308 0.5460066535191817 1.0164530094636524 -1.3270041099656456 1.650695437914138
0.41719629740546743 0.31684766949633547 0.0841893070733768 1.4395429061758753 -0.17579088495198764 0.8837739243339955 0.9049266815508444 0.06758119779943685
0.04682338357110956 1.2155914474617735 0.312800085257441 0.960970770693043 0.5163901530249201 0.326650868475625 1.1316620753562678 0.6604871777814694
0.7108140748406229 -0.3320977283626119 -0.2577843954402279 1.798314678588435 0.6057621720156717 0.9832623287539275 0.027972389932014632 -0.27322077926271526
-0.7399936736919832 -0.6162302780802084 0.8758376005415152 1.1125130691655616 -0.3683659427078547 0.43725468068052176 0.7560380666860094 0.4341978174351183
0.3280960051625736 -0.4544579150817785 -1.0286496355258803 1.3973282542116436 0.08401585391732352 0.8401929088859624 -0.2352562943283006 1.161296800405331
0.4148878011521874 1.1257866038046194 0.8125649126469897 0.6232392833297888 -1.4678678262428444 0.16446456303959225 2.1 0.9372691827340481
0.5731606687534571 -0.03917914327788255
00000000: 194e 8e17 f4de e13f 2741 a2ff 7581 cfbf
00000010: 0a35 504d 2b62 bb3f 9728 2031 d230 c43f
00000020: 711d 35b3 ad6a e2bf 08a1 6c75 a801 d1bf
00000030: 32fa cfa5 279d e3bf 9d43 4125 70e4 edbf
00000040: e312 a7b9 b6cb 0040 adab 104b 69f9 d7bf
00000050: 8971 e1f9 992f efbf be45 80b7 fece da3f
00000060: 2ac8 880c 064b edbf 3f35 fdf3 2c8b efbf
00000070: 3d26 5aed 064c dd3f 6219 6266 8017 f7bf
00000080: 1d91 8884 a27f f2bf adfb 5c01 dc5d e83f
00000090: 6053 7128 ffcf f83f 0839 1a35 54a6 993f
000000a0: c475 b152 4e02 b13f c677 957c 6625 f33f
000000b0: d632 9b3f a87a e63f 707a d4ba 5480 babf
000000c0: 1659 ec84 55a9 ad3f 938d 6634 8890 f33f
000000d0: 321b c97a 8407 e13f 7b06 fff3 6ae9 d23f
000000e0: fdb5 1060 c8c9 f03f 61c3 c950 4874 e23f
000000f0: 04e1 7c75 28b0 e33f dbda 17e1 f684 e13f
00000100: 949a d026 48fb a5bf 38f2 d726 d825 e13f
00000110: eb94 c350 cbf7 f7bf 4252 56ee 43b0 fb3f
00000120: dc6c 08f2 e278 e13f 1c13 193b 6443 f03f
00000130: 4e5c 5fa9 683b f5bf 42f6 979e 3f69 fa3f
00000140: f799 5719 58b3 da3f aa3c 9372 3b47 d43f
00000150: 0095 8d30 6e8d b53f 496d 7324 5e08 f73f
00000160: 2adf e6d2 5080 c6bf 8e4e c240 e047 ec3f
00000170: e53c d1cc 28f5 ec3f b982 5f5a 004d b13f
00000180: 5a80 400a 3cf9 a73f 7554 8204 1073 f33f
00000190: 5b78 17a6 ea04 d43f ae3b 11c6 45c0 ee3f
000001a0: affd 66a4 4486 e03f 0705 540b d9e7 d43f
000001b0: 6275 3cb1 491b f23f c0f5 7f01 b622 e53f
000001c0: 5a43 9f28 fdbe e63f fd2b 99d4 1641 d5bf
000001d0: 2c6f f51e 8a7f d0bf e943 c79c e5c5 fc3f
000001e0: 73c2 be59 6762 e33f a461 2c8f e276 ef3f
000001f0: d4bc cb4f cba4 9c3f 0458 e101 737c d1bf
00000200: 7820 7836 07ae e7bf 771a 658f 28b8 e3bf
00000210: 7ada 5d93 dc06 ec3f ce04 0781 dacc f13f
00000220: 10fd 38bf 4e93 d7bf cced 620e fbfb db3f
00000230: bc51 5ebe 7631 e83f e637 78a4 e5c9 db3f
00000240: abc6 0763 86ff d43f 39d0 aba6 d615 ddbf
00000250: ff03 fa51 5975 f0bf 40da 19df 745b f63f
00000260: 84a0 eb20 1082 b53f d3e1 3f3d dce2 ea3f
00000270: d3ba 28d5 e01c cebf 9e0b 2bf4 ab94 f23f
00000280: ce4f 5d90 858d da3f 1cda 59d0 3803 f23f
00000290: f544 b621 8800 ea3f 487c 6f82 93f1 e33f
000002a0: 9e04 49f9 627c f7bf b990 cdbf 2c0d c53f
000002b0: cdcc cccc cccc 0040 3986 ecf0 1bfe ed3f
000002c0: 6bc9 f40a 5557 e23f e4aa 20e6 490f a4bf

threshold_noise_fp f8 [3]
0.0 0.0 0.0
00000000: 0000 0000 0000 0000 0000 0000 0000 0000
00000010: 0000 0000 0000 0000
