experiment_pretrained/yin_yang_H30_WS/yin_yang_untrained_network.pt (torch, 11142 bytes, 6 tensors)

_delay_parameters f8 [4, 30]
000000 20 2e f5 1b 6e 6d ad 3f b6 d4 4d d4 85 17 93 3f
       0.05747551051407762 0.01864441974926897
000010 e6 ac 8e 18 24 ae cb bf e5 65 68 17 00 ad 82 3f
       -0.21625186156356974 0.009119034494733344
000020 e1 31 ab 04 5f 82 d6 bf 73 4a af 09 30 9c ce bf
       -0.35170722442560814 -0.23914146874320216
000030 82 f9 ee ad 01 02 c3 3f 2c 85 bf 53 9f 88 bf bf
       0.1484987353596346 -0.12317844195014932
000040 18 0b b2 7f 1c 46 d0 3f c3 6c ee fd 12 69 c2 3f
       0.2542792555833997 0.14383160971633488
000050 37 e7 fe af 09 72 ac bf 2b 36 1d 97 bf 45 be 3f
       -0.055557539686061856 0.11825177611645958
000060 ad 5d 88 3a 81 3f d0 bf a5 00 21 3d 37 71 cf bf
       -0.25387602535325976 -0.24564257130442005
000070 c5 9d ce b1 ac 60 cf 3f f1 e9 49 50 ca d7 8a bf
       0.24513777429568342 -0.013106899810044733
000080 98 20 0f d0 75 63 d0 bf 9a 00 83 b9 9d 0f d3 bf
       -0.25607056921263327 -0.297828131831929
000090 0e 0b 2e 0b 29 3d c3 3f 85 5c 23 38 6e f6 cc 3f
       0.1503039650525228 0.2262704633819547
0000a0 59 db a1 db 91 05 c7 3f 4a d8 7b 81 91 96 da bf
       0.17985747551184764 -0.4154399647226269
0000b0 57 16 7a 74 9d f7 c5 bf b3 76 01 eb bf 0c d1 3f
       -0.17161911189411924 0.26640317868973823
0000c0 5d 5d f3 8e 50 7e b8 3f d9 75 7c a7 99 a2 a3 bf
       0.09567740907674734 -0.038349916167344573
0000d0 90 3e 47 c4 2e 59 cc bf 77 73 0a 11 38 ce e2 3f
       -0.22147163947964943 0.5876732189968682
0000e0 5b 5e 74 6e 19 00 c0 bf a3 00 cd 03 1d 88 b4 bf
       -0.12500303166665358 -0.0802019247321391
0000f0 63 7f e7 d2 23 43 d6 bf 15 99 a6 ec 43 63 ad 3f
       -0.3478478965389426 0.057397959363969665
000100 e9 b3 5f fc 57 af b1 3f 99 4b 7d fa 3f 8b bd bf
       0.06908178245039633 -0.11540603509392468
000110 9c e4 72 5e 0c 16 b5 3f a8 43 31 49 4a d5 d4 3f
       0.08236768060568739 0.3255181994218739
000120 05 d4 b3 d5 45 94 e1 3f b5 7d be 09 66 58 d7 bf
       0.5493497060657552 -0.3647704215199739
000130 c1 6f 98 3f 5d fa b3 3f 16 a5 cb d7 41 b5 d9 3f
       0.07803900530455989 0.40168806146410085
000140 15 2b 13 37 35 d6 ce bf 59 c0 39 28 e8 89 a9 3f
       -0.2409121054573339 0.049880270872450345
000150 a5 64 16 a7 de 64 df 3f 4e 80 95 cd 86 1f cb 3f
       0.4905316001618963 0.21189961469917978
000160 d4 e1 dc 93 5e 67 cf 3f d0 c6 f1 c5 79 40 d4 3f
       0.24534208507408428 0.3164352829981967
000170 d0 f2 0f 75 73 e8 e0 3f f4 90 25 6a d3 25 dc 3f
       0.5283753668187163 0.43980870595829846
000180 ab 42 31 6b 30 da a1 3f d6 ab b1 ae 95 46 b7 bf
       0.03486777599812759 -0.09092078700056958
000190 76 cc 22 77 b6 0d 88 bf 90 98 fc 31 26 73 c6 bf
       -0.011744905005207178 -0.17538907471425036
0001a0 b9 69 b2 58 6a f9 9b bf 00 12 bb 61 e0 d7 b4 bf
       -0.027318631805067748 -0.08141901384357908
0001b0 ca 58 81 73 f5 d2 c6 bf 7e a5 a4 24 eb 18 c4 bf
       -0.1783129514685185 -0.15701045312134093
0001c0 d6 a1 27 7b 8a 64 c5 bf d8 e8 84 3c 2c ba e0 3f
       -0.16713076604288685 0.5227261716857141
0001d0 58 76 14 7d 3e 69 b2 3f 4a 1f 74 14 c5 48 ca 3f
       0.07191839746197937 0.20534575937949234
0001e0 eb 91 5c b5 06 c6 ca 3f de 66 be 79 e9 b5 d6 3f
       0.20916828017756414 0.35485302819289
0001f0 41 00 4a 0a ed bb ca bf ff 7b 4d 0e fd df ad bf
       -0.20886004450221843 -0.05834952163308315
000200 2e 32 25 f0 d1 a4 d1 bf 82 5e 66 f0 53 31 d3 bf
       -0.27568481876076845 -0.2998857352881502
000210 03 7b 29 dc 0d 24 bf 3f f9 61 93 80 c1 62 db 3f
       0.12164389252709999 0.4279025798437313
000220 1f 50 07 96 cf 9a a2 3f ee aa 99 7f ae ae 96 3f
       0.03633736330417058 0.022150732553579404
000230 77 76 2c 80 14 f5 a0 bf 11 fb 49 b7 63 28 d2 3f
       -0.03311981262798452 0.28371518039050253
000240 ab 36 ca 24 87 c3 96 3f 5c 2c 25 b9 84 5d c7 bf
       0.022230254765011875 -0.18254145660680166
000250 a4 f1 15 fd 4b 95 b9 3f 1a cd ab 5e 6b f2 b2 3f
       0.09993433884478137 0.07401152669244873
000260 d7 43 83 b2 12 70 b8 3f 6b 8f 57 31 40 4c a5 bf
       0.09546009882184535 -0.04159737207717636
000270 d9 9d 32 ca 72 23 b3 3f 50 12 87 ba db 14 cd 3f
       0.07475964962451744 0.22719904525560475
000280 6d f3 4d d5 68 b9 c4 3f 9e 6b ee 08 ce 0a 93 bf
       0.1619082490468843 -0.018595904631733988
000290 a7 9d e1 8d 19 b6 c9 3f db 41 91 53 14 12 b9 bf
       0.20086974551962308 -0.09793211975307463
0002a0 13 92 4b 95 fd bd ce bf 22 0c 97 9b 7e dd bc bf
       -0.24017305173687528 -0.11275473879418077
0002b0 71 58 38 08 b9 cf b5 3f 3f 15 2f 7f 13 9a d4 3f
       0.085200848109112 0.32190406246475683
0002c0 4e 89 14 e1 a7 81 d8 bf ba 06 f7 0e 91 2d 6f 3f
       -0.38291356068125004 0.0038059075520500947
0002d0 c1 1b fb 02 16 c5 c2 3f 26 a6 43 00 67 4e d6 3f
       0.14663958688308124 0.34853529954725315
0002e0 5d 2f b8 8d ec 91 ce bf cf 30 21 5b 85 21 c9 bf
       -0.23882824821373108 -0.19633547734918586
0002f0 08 c3 ca d4 e6 db a2 bf c5 50 8b 20 29 e2 c6 3f
       -0.03683396670874656 0.1787768753916962
000300 f5 7b 81 77 a1 47 bb bf 6f 97 63 e3 26 3d d8 bf
       -0.10656174819585813 -0.3787324162097922
000310 03 62 e6 4c 04 f3 d8 3f f2 90 2a b0 f3 35 ba bf
       0.38983256826171003 -0.10238574076589993
000320 a4 b7 d2 30 f7 7f b2 3f 9b 90 22 60 f3 25 c3 bf
       0.07226509992571423 -0.14959566301434254
000330 d4 f5 6b a6 7f 7d d1 3f 47 13 01 ef d2 c9 d2 bf
       0.27328482868310044 -0.2935683568978686
000340 1e a9 20 23 40 e3 ad 3f ed fc 56 19 4d 03 81 3f
       0.058374408996615154 0.008307077728089552
000350 ed 4a 32 d8 83 b3 d8 3f 0f 90 4f 5c 4f be d5 3f
       0.3859567271512521 0.3397406007263734
000360 e0 90 ba a5 14 45 df bf 8f 73 1a fa 2f f2 97 bf
       -0.4885913484997797 -0.02338480915078694
000370 43 08 ba ec 83 19 dd bf 87 7c e4 85 4f 2b 8a 3f
       -0.4546823322090214 0.012777920983863445
000380 6b 4b 0c 0c 3e 05 d6 3f 69 4c b1 3c ce 1d ad bf
       0.3440699689537527 -0.05686802378536344
000390 05 be a1 2d 3d 0e 9f bf 32 40 98 74 bc d8 bd 3f
       -0.03032775488867225 0.1165883812575437
0003a0 b2 0c 92 50 23 2e c0 3f 95 1e ab bd 89 75 d8 3f
       0.12640801843744992 0.3821739532690825
0003b0 39 e1 22 4b ad 26 ce bf 55 12 ea bb fd 8a 99 3f
       -0.23555532616388478 0.024944271654492606

weights f8 [4, 30]
000000 aa 4a 74 cc 3c f1 e9 3f 4f 70 da b1 23 de e9 3f
       0.8106979363677358 0.8083666299530793
000010 95 bd ee a9 73 f1 04 40 e8 4d ff 6a 13 a2 ed bf
       2.617896392439159 -0.9260346498289751
000020 0c 46 71 32 b6 dd 05 40 54 ab 2e ef 90 fc ea 3f
       2.733257669526898 0.8433308288125354
000030 7c 9a 7f 23 90 8b 04 40 0a 80 a3 7f 54 0b 00 40
       2.568146016437195 2.005532262017373
000040 00 a4 c5 81 d2 4f 96 bf 3c af 84 25 82 00 f8 3f
       -0.021788872881561616 1.5001241174276876
000050 0a af 8f 5c 04 8d e5 3f 32 d5 cf f4 11 18 e1 3f
       0.6734639938199234 0.5341882497292885
000060 1b 6a 9a 16 8a 23 0b 40 f0 32 4b da 0c 10 01 40
       3.392353226268154 2.132837014598742
000070 96 80 51 ec ea 66 e5 3f 77 27 a3 8c 3b 99 f8 3f
       0.668813191947282 1.5374103063245153
000080 9c 38 a4 c0 af 4a f1 3f 9d 7d a5 2c c9 44 04 40
       1.0807340169008404 2.533586834717154
000090 b0 9b 2d 8e 0d ed d6 bf d6 2d 1e ee 57 87 fd 3f
       -0.3582185638865054 1.8455428410987813
0000a0 f7 f5 b1 2d 7c 0d ed 3f 1b 55 cb 46 97 63 f2 3f
       0.9078961269839841 1.1493141904259747
0000b0 c0 b1 fe 1a 56 47 fe 3f 5c 7d 5c 47 5d 1b 06 40
       1.892416100930049 2.763361508855878
0000c0 4a 55 a6 52 47 78 e5 bf 08 23 54 60 b0 3f f9 3f
       -0.6709324468853677 1.5780490649069083
0000d0 14 43 5a 0c 91 2e e4 3f 23 2d cb 0c 98 29 f4 3f
       0.6306843987714239 1.2601547717811818
0000e0 b8 83 83 b1 49 4e 0a 40 53 ba 17 6a e9 74 fa 3f
       3.2882264965305374 1.6535429138417796
0000f0 20 b6 de ad 82 5f cc bf 94 1a f5 86 3c 46 e8 3f
       -0.22166474809402903 0.7585737834823072
000100 00 77 37 16 6a c8 70 3f 9e 9d cb 58 36 90 03 40
       0.004097380067347833 2.445416158403261
000110 ee c6 cb 75 31 de fc 3f ef e0 67 e9 92 09 f9 3f
       1.8042463876158155 1.5648373715794681
000120 66 a9 79 17 fc 36 01 40 5c ad 17 da 84 7c e3 bf
       2.1518480142596443 -0.6089500674837995
000130 b2 d9 55 a0 9e 57 05 40 f8 cb ef e7 91 2d ed 3f
       2.6677830244254546 0.9118127374662199
000140 c2 38 7d 79 d7 df d8 3f 20 10 f9 9d 4e 94 e2 3f
       0.3886622129838423 0.5806038937958
000150 be d3 b9 30 f7 49 f2 3f 65 f1 31 e4 82 8b e8 3f
       1.1430580046992271 0.7670301873145432
000160 51 44 e8 bf 79 91 e3 3f 63 8f d1 f1 84 f6 f6 3f
       0.6115082500638299 1.4351853796042284
000170 ac f2 57 2e b8 11 fc 3f c8 3f 0c 0e 4c 5d d8 bf
       1.7543260393423834 -0.3806944024263399
000180 30 04 4e 1d 45 b9 ed bf d0 6f e9 83 76 8b ad 3f
       -0.928865964160769 0.05770464287044741
000190 08 00 8d f7 2e dd f1 3f 4a 40 72 a3 2f bb f9 3f
       1.1164998693420802 1.6081997284527625
0001a0 e0 f6 31 f9 8e 3b 9b 3f 74 63 47 db aa ab c4 3f
       0.026594385108629548 0.16148887354827546
0001b0 96 64 86 cb 84 cb fc 3f 2a 68 13 e5 38 60 d7 3f
       1.7996871900743705 0.36524793978390113
0001c0 e7 17 37 82 23 5f 00 40 47 27 30 34 37 5b f4 3f
       2.046454446131054 1.2722694433782225
0001d0 86 af f4 ef 8b 8c fc 3f 1e 76 3e e4 c2 3a 05 40
       1.7843131421350065 2.6536920386850076
0001e0 a0 f1 3d 54 78 9b ad bf 07 ab af 3a 65 cb f0 3f
       -0.05782676723808611 1.0496570866041013
0001f0 88 a6 75 65 f3 2a ca bf 6b 09 02 36 ae ca e8 3f
       -0.2044357533844059 0.774741273388185
000200 16 54 0d 90 01 2d ee bf 13 f6 5d b8 8e 8d f0 3f
       -0.942993909217537 1.0345599366986604
000210 12 24 fa 07 ce 72 e2 bf e7 f3 c6 60 80 45 e6 3f
       -0.5765142589381205 0.695984066980256
000220 75 a1 35 3e a3 04 f5 3f 18 74 eb 62 c0 1c e5 3f
       1.313632243162002 0.6597597057367492
000230 aa 6a 62 cf 5c c3 ff 3f 91 73 ed 42 37 93 f1 3f
       1.985195932479352 1.0984413732869351
000240 f7 21 18 30 3e 5f f0 3f 02 67 a4 f4 ec fb e8 3f
       1.0232526663477282 0.7807526376884371
000250 1e 41 14 3a d6 ee f9 3f c0 bf 24 d0 a9 d9 e0 bf
       1.620809771415288 -0.5265702309898117
000260 d8 eb 72 3d 99 ac b9 3f 1b ff 3c 1d f4 db ee 3f
       0.10028989553659018 0.9643498011646189
000270 48 1c c8 4c 7d 61 bd 3f 0f 4f 74 dc db 13 eb 3f
       0.11476882099678776 0.8461741739033374
000280 58 e3 76 35 ae 5f ee 3f 78 6e bd c3 ae 40 fe 3f
       0.9491797489382447 1.8907916685192543
000290 bf f9 07 a4 64 b3 e5 3f b8 cd 1c 84 67 de fa 3f
       0.6781485751851547 1.6792979393620566
0002a0 68 da 62 dd 52 e5 e9 3f 0c 66 14 2b a9 a5 ca 3f
       0.809243614573302 0.2081805668210993
0002b0 2e ad a9 c6 d0 6e f9 3f 80 bf 46 76 69 fb 10 40
       1.5895545730844094 4.24551949316799
0002c0 a0 f4 af 2b c0 99 fb 3f 9a 8a 1a fb 41 4c e3 3f
       1.7250367838417233 0.6030588058823299
0002d0 88 d1 e7 01 cc 45 00 40 10 65 b9 cc 9d 36 dc bf
       2.03408051956848 -0.44083352081868643
0002e0 20 5e 06 b0 66 51 b6 bf 97 b6 e2 c7 96 08 f2 3f
       -0.08717958257181424 1.1270969207793422
0002f0 60 36 9c ed 58 b0 a3 bf 66 27 c9 7b 89 53 ec 3f
       -0.038454798703338566 0.8851973931971144
000300 24 cc d3 e7 8d 43 d0 bf 2c d8 74 c7 57 07 f0 3f
       -0.2541231883944326 1.0017926970736069
000310 1e a3 37 69 63 37 f3 3f d0 70 55 32 14 d5 b6 bf
       1.201022540097433 -0.08918882588244803
000320 5c 43 fd 59 31 be dd bf a4 47 a5 59 98 de f9 3f
       -0.464733446006951 1.6168445112020686
000330 36 d8 f2 eb 48 aa e0 3f 8f 04 6c a4 59 a4 02 40
       0.5207867248889275 2.33024910406727
000340 ec 35 72 33 a2 1b cc 3f d0 2f bf 5c b6 91 bb 3f
       0.2195933104707558 0.10769214405371419
000350 01 2a 01 7f 72 67 04 40 01 f7 df 5a da 2d e6 3f
       2.5505113527517556 0.6930972838306105
000360 90 df 69 42 7c b3 fc 3f ba 20 a0 39 85 a4 f1 3f
       1.7938196749000532 1.1026661158557958
000370 48 59 c5 b4 89 b2 dc bf b4 29 1c 41 47 5e f9 3f
       -0.44839708951385093 1.5855171721801584
000380 c8 3f 8d ff 57 ae d2 bf 56 10 ab 38 83 19 00 40
       -0.29189109760499976 2.012457316132024
000390 ad 9b fd 00 a4 ef 08 40 1d 12 35 a0 76 00 eb 3f
       3.1170120313067486 0.8438065651940324
0003a0 96 03 6e 04 b8 a4 01 40 40 af a2 f2 70 a7 db 3f
       2.205429110152589 0.43209479994651545
0003b0 db 1e b1 b8 45 e6 ea 3f 80 ee 07 a7 44 4b fc 3f
       0.8406094176543449 1.768376018967416

threshold_noise_fp f8 [30]
000000 00 00 00 00 00 00 00 00 00 00 00 00 00 00 00 00
       0.0 0.0
000010 00 00 00 00 00 00 00 00 00 00 00 00 00 00 00 00
       0.0 0.0
000020 00 00 00 00 00 00 00 00 00 00 00 00 00 00 00 00
       0.0 0.0
000030 00 00 00 00 00 00 00 00 00 00 00 00 00 00 00 00
       0.0 0.0
000040 00 00 00 00 00 00 00 00 00 00 00 00 00 00 00 00
       0.0 0.0
000050 00 00 00 00 00 00 00 00 00 00 00 00 00 00 00 00
       0.0 0.0
000060 00 00 00 00 00 00 00 00 00 00 00 00 00 00 00 00
       0.0 0.0
000070 00 00 00 00 00 00 00 00 00 00 00 00 00 00 00 00
       0.0 0.0
000080 00 00 00 00 00 00 00 00 00 00 00 00 00 00 00 00
       0.0 0.0
000090 00 00 00 00 00 00 00 00 00 00 00 00 00 00 00 00
       0.0 0.0
0000a0 00 00 00 00 00 00 00 00 00 00 00 00 00 00 00 00
       0.0 0.0
0000b0 00 00 00 00 00 00 00 00 00 00 00 00 00 00 00 00
       0.0 0.0
0000c0 00 00 00 00 00 00 00 00 00 00 00 00 00 00 00 00
       0.0 0.0
0000d0 00 00 00 00 00 00 00 00 00 00 00 00 00 00 00 00
       0.0 0.0
0000e0 00 00 00 00 00 00 00 00 00 00 00 00 00 00 00 00
       0.0 0.0

_delay_parameters f8 [30, 3]
000000 dd 6f 9b dd 38 2f 9e 3f da 73 1a 9d 93 59 c2 bf
       0.029477013135746567 -0.14335866137562797
000010 2e 5f c3 36 d7 c4 e0 bf a9 2a 42 64 bb a0 a6 bf
       -0.5240284032433686 -0.04419503783090779
000020 89 ae 16 cb 2d cb b7 3f 6b be c3 f1 30 7f d3 3f
       0.09294401367395201 0.3046381340963992
000030 3d 7b ba f7 7b ee b9 3f 07 71 ff 73 44 90 bf 3f
       0.1012952308469552 0.12329509574869145
000040 91 3c 34 5a 49 48 7e bf 29 b8 23 03 8d 40 b5 bf
       -0.0073931565596147145 -0.08301621748589184
000050 50 1d fd ef 5e 0d c8 3f 7e 2a ad db 59 a3 d3 3f
       0.18790804594230304 0.30684515431190806
000060 6f bc a2 c5 93 e8 ad 3f 70 e0 eb c5 43 5f b5 3f
       0.05841504848046319 0.08348487455430287
000070 04 6d b3 8b b8 83 de bf 0b f4 d7 f0 1e 4d c4 3f
       -0.47678960459388997 0.15860354194583723
000080 4d 69 9f ed c9 68 da 3f b5 68 05 13 98 fe 95 3f
       0.41264579968778464 0.02147901168914564
000090 8a 60 68 92 80 f7 c0 3f 0e 65 36 ec c9 e8 bc bf
       0.1325531687623463 -0.11292707459360349
0000a0 ca 60 8f 18 c5 38 d1 bf 90 8e c8 6f 08 51 bb 3f
       -0.2690899600834312 0.10670521477782757
0000b0 25 6b c7 75 4b 54 ba 3f b5 27 0a 62 b4 14 d2 3f
       0.10284873605216356 0.28251370977579465
0000c0 3e 49 b7 7b 21 73 b8 bf 9a 43 e8 de d2 ac a5 bf
       -0.095506756500332 -0.04233416529689933
0000d0 f8 f6 b9 62 fc b3 b0 3f 53 06 fe da 98 32 c2 bf
       0.0652463665992079 -0.1421691006944906
0000e0 a5 e5 8d 4b c7 40 d4 3f f7 0d d2 08 54 d8 d3 3f
       0.31645376566265276 0.31007862912539913
0000f0 18 e4 6d b6 6b 4c bd bf 40 db ae 36 71 19 e1 3f
       -0.11444733814086339 0.5343557422664631
000100 76 5d 81 a9 ee 49 e6 3f 1b 6f d6 33 37 6c d6 bf
       0.6965249357844374 -0.35035495817440826
000110 72 23 9e 0d 44 06 ac 3f db d3 4c f6 55 6e 95 3f
       0.05473530451042209 0.020928710134473377
000120 70 ec ef be f0 42 aa bf 11 68 09 90 e0 86 bd bf
       -0.05129196482445131 -0.11533931271097254
000130 b2 8c dc f0 e8 e6 b0 3f 48 db 7f a3 1c 10 b1 bf
       0.06602340584190605 -0.0666520976227335
000140 59 cc e2 e7 75 7d c5 bf 03 29 b6 9a f7 9a cc 3f
       -0.1678912527328034 0.22347922376895477
000150 e2 4b 0f 3a bf 5f c2 3f f3 e4 68 a7 67 5d b2 bf
       0.14354696593235788 -0.0717377456393427
000160 85 0e 69 8f b4 9a b8 bf f7 81 dd 61 e9 f8 d9 bf
       -0.09611061574201514 -0.40581736142306063
000170 dc 47 8e e3 f2 3e cc bf 5b d6 14 da 46 95 e2 bf
       -0.2206710444557406 -0.5807222613718283
000180 a3 66 81 5a 73 67 bb bf 4a b9 23 2e a4 9c d5 3f
       -0.10704728088003405 0.33768562799277346
000190 b1 5b 56 f7 4a 7e d4 bf db 90 99 be 81 ae da 3f
       -0.32020830301319864 0.41690105069416256
0001a0 8e ec 5c a7 ab dd cd 3f 4e cf ac 6d 2d e1 ca 3f
       0.233327347488601 0.20999687056757427
0001b0 22 10 40 e6 1e 19 cd bf 63 ac 08 cf 0a e5 c9 3f
       -0.22732912295043756 0.20230231389118378
0001c0 95 71 c8 13 82 6a c6 3f c0 b3 29 f6 f7 ab 92 bf
       0.175125369701061 -0.01823413314780331
0001d0 20 a2 47 a0 15 a7 bf 3f 69 74 8b c4 31 86 c4 bf
       0.12364325678903088 -0.16034528824721697
0001e0 93 cf 2c c3 df e2 d1 3f a4 55 40 0a ac 2f c5 bf
       0.2794722944265626 -0.16551733494331444
0001f0 b4 bb 60 fd 6c c1 bb 3f 94 81 f7 75 4e 46 da 3f
       0.10842019258482943 0.41054116745183333
000200 04 1d a3 1c c6 91 b1 bf a5 55 8a f6 3e 77 d5 bf
       -0.06863058280133677 -0.3354031951542658
000210 7b fd 8a 30 d3 15 d4 3f 7e fb b4 61 66 fe c6 bf
       0.31383208981056726 -0.1796386696896341
000220 32 80 da f7 61 d9 dd 3f 81 00 ad 8f 51 c7 c2 bf
       0.4663929863399999 -0.14670772090358145
000230 9b cf b4 0b 4f b1 de bf c9 7e cb e9 a1 81 b9 3f
       -0.4795720686263338 0.09963428457148917
000240 17 5d 79 db b0 a0 c0 3f 94 e3 af 38 7f be d4 bf
       0.12990389553554202 -0.32412701164099045
000250 b3 2f 47 78 61 ed bb bf 8d 98 a8 a8 58 9d cc bf
       -0.10909089266277654 -0.2235518287208759
000260 57 d5 8c f9 4f 53 a7 bf ba ac 2d 96 41 dc d0 3f
       -0.04555749818102111 0.26344337144719143
000270 29 1f 9c 3c 46 e2 b7 bf 67 e6 67 77 e7 bb c2 bf
       -0.09329642276508977 -0.14635938005794744
000280 f4 f2 6e 43 b1 0f df bf ef 25 cb cf c1 92 da bf
       -0.4853327902344937 -0.4152073411210883
000290 0a 32 3d 6b bd 8a b5 3f 97 17 e0 54 c3 b6 d4 3f
       0.08414825313702337 0.32365496910676356
0002a0 2d f4 35 3a fe a8 d2 bf 1b 27 ce 74 b0 9c 91 3f
       -0.29156451878208395 0.017199284676769993
0002b0 3f 16 33 f4 3c 79 b4 3f 0a 70 34 90 e4 d3 9f 3f
       0.07997494661238934 0.031081744481625186
0002c0 3e 46 85 fc af 72 c2 bf b4 3d 3a 3b 56 93 cd 3f
       -0.14412498312099048 0.23105886356323213

weights f8 [30, 3]
000000 08 cb 80 0f 05 97 04 40 0c c9 e3 4e 0a 1c db 3f
       2.5737401210002453 0.4235864420326301
000010 83 b4 87 42 cc f5 ed 3f 1d ec 91 7d 20 cc f0 3f
       0.936254625264738 1.0498356728628615
000020 92 95 36 dd af 52 e5 3f 0a 45 23 93 32 15 d1 3f
       0.6663436241694163 0.2669187962429339
000030 5e 5f 1c 00 73 13 d3 3f 44 7b fe 7b f0 19 ce 3f
       0.29806208620856534 0.2351666074218547
000040 16 2e 64 f5 f9 a8 ec 3f 24 81 32 a6 20 06 e8 3f
       0.8956270020293597 0.7507479902306256
000050 1f 43 e2 c7 ad 15 f8 3f f9 83 62 bb 31 06 01 40
       1.505292683407056 2.1280245437087584
000060 a4 00 fb a5 75 a2 01 40 20 46 e2 49 b0 46 b2 3f
       2.204325958940972 0.07139112285428739
000070 58 fc b0 61 a8 a6 f0 3f b8 3f 2e 75 18 29 fd 3f
       1.0406879249637964 1.8225330903405688
000080 06 70 09 9f 06 da 06 40 da d8 c2 0b 36 88 02 40
       2.856457941508782 2.3165093344533547
000090 f4 e5 c2 5e c8 d3 04 40 48 23 d3 bd 87 12 e2 3f
       2.6034095195034244 0.5647619922175204
0000a0 be 09 bb e2 f8 bc f9 3f 18 85 ea 7b aa cf 05 40
       1.6086357933678381 2.726399391264419
0000b0 af 3d 2b 60 80 34 fd 3f 18 de a1 9a 53 2b f5 3f
       1.8253177410696073 1.3230777778934506
0000c0 c0 ad 73 22 b0 3e c4 3f 94 7b 0c 9e 30 e5 fd 3f
       0.15816308672161306 1.8684545682697022
0000d0 98 47 71 e6 ff 5a e9 3f d2 5f d9 05 11 5e e3 3f
       0.7923583508329441 0.6052327265015214
0000e0 04 c4 4a 3a e1 cc fb 3f 70 2f e9 31 47 31 d4 bf
       1.7375194813760126 -0.31550769685849556
0000f0 90 a8 79 d8 4d d3 ba 3f d1 ef d0 b3 51 9c e3 3f
       0.10478674445190195 0.6128319274935113
000100 8a e4 31 b3 93 2c f5 3f c9 cc d6 6e ed 4e fe 3f
       1.32338304517751 1.8942694024706717
000110 68 f1 ba 67 b2 07 ca bf c1 61 c6 73 c9 f1 f1 3f
       -0.20335989060357496 1.1215300104578179
000120 78 e9 4f 9d eb 98 ed bf 46 9b 26 5d 4d cb e1 3f
       -0.9249170372489024 0.55606716340558
000130 9e a2 a8 7a b3 48 e4 3f 55 a9 a0 3e b2 e2 0a 40
       0.6338746448210093 3.3606915371685013
000140 7f 3a 1b d7 3e ad ea 3f 00 c2 09 87 d2 a0 cf bf
       0.8336481286331291 -0.2470954093328288
000150 ac 62 ef d8 6b 2d e1 bf ff 08 bf 16 c8 f6 02 40
       -0.5367945897115383 2.37049882669919
000160 1a dd 3f 71 fb e1 ee 3f 71 76 c8 37 1b ef f0 3f
       0.9650857173827803 1.058375566389625
000170 aa fb cd c6 fb 10 fb 3f 10 f5 ba 68 92 fb fd 3f
       1.6916463628583451 1.8739189234759728
000180 60 84 21 ab a2 d8 ae 3f cc 30 0d c2 26 11 f9 3f
       0.06024654711723865 1.56668735314729
000190 d5 c7 f7 88 ce 37 f6 3f 34 52 2e bb 76 40 f9 3f
       1.3886247015293425 1.5782382308726826
0001a0 56 e6 40 04 5f 54 f5 3f c5 aa 12 9c b7 20 ff 3f
       1.3330984274056354 1.9454876038168305
0001b0 8e 4f 58 13 cc d0 f5 3f 72 76 55 8c 66 9b f9 3f
       1.3634758716261532 1.6004395944395609
0001c0 63 33 17 ce 97 96 f1 3f 10 b6 d3 ee 7e ae d5 bf
       1.0992658663191939 -0.33877538035344035
0001d0 a3 d3 c1 57 1e 91 e4 3f dc 1c 12 68 f4 d1 f3 3f
       0.642714663887649 1.238758474851969
0001e0 f5 bb 8f aa 77 59 ec 3f 4c 3c 86 cf 55 e8 fc 3f
       0.8859213191298055 1.8067224604053704
0001f0 98 f7 a8 c5 d8 d8 e1 bf 12 46 b2 5c 48 8a e7 3f
       -0.5577205524966642 0.7356302080608563
000200 b8 da 70 3f b3 fc e4 3f 6c d5 24 9b 03 9b ed bf
       0.6558471907690864 -0.925172617926973
000210 94 06 c1 58 47 96 cb 3f 12 75 a9 3b 20 97 e4 3f
       0.21552364190761308 0.6434479871055905
000220 94 c7 3e 02 20 4b cf 3f a0 c0 7d 89 a6 2c f3 3f
       0.24448013410215863 1.1984010096312332
000230 3e 34 e3 5c b7 07 ff 3f 31 3a 5e df 9b 39 ec 3f
       1.9393838528078642 0.8820323336274837
000240 6c a7 8b fd 0d 32 ca 3f 92 37 21 86 25 65 08 40
       0.20465254669334898 3.049387977493958
000250 a8 11 71 a3 aa 34 ea 3f b0 a7 a7 38 5e cb db 3f
       0.8189290230007389 0.43428760082917517
000260 ae 7c e3 91 34 72 ec 3f 60 59 a2 85 e3 e5 f8 3f
       0.8889410828959592 1.5561251850209246
000270 d0 96 6f 08 a8 f2 e8 bf b7 1e de 42 72 8e fb 3f
       -0.779621139980657 1.7222769367235011
000280 5e 7d 9d 9e e8 19 d5 3f b4 45 65 69 9e c3 e0 3f
       0.3297063397385126 0.5238792475230896
000290 a6 c0 b8 a5 31 71 fa 3f d7 d5 bc fe 2f a8 f1 3f
       1.6526352380279064 1.1035613966645224
0002a0 a4 72 75 17 75 53 de bf aa 32 71 1d 16 80 f5 3f
       -0.47384383479019676 1.343771090515626
0002b0 6e 5b 79 eb 55 4b e2 bf f4 1b a1 62 b2 60 ed 3f
       -0.5716962432005468 0.9180538107256084
0002c0 95 5f 2b ac d7 10 f0 3f 0a 34 9d 6b 2c 32 f8 3f
       1.0041119313591242 1.5122493938135926

threshold_noise_fp f8 [3]
000000 00 00 00 00 00 00 00 00 00 00 00 00 00 00 00 00
       0.0 0.0
000010 00 00 00 00 00 00 00 00
       0.0
